code/models/dehnen.pt (torch, 5967 bytes, 5 tensors)

weight f4 [32, 2]
0	0xbc39cef2	-0.0113408435
1	0x3d4eb130	0.050461948
2	0xbcdf736f	-0.027276723
3	0xbe6f30c8	-0.23358452
4	0xc0af721b	-5.482679
5	0x3f6d0ff2	0.92602456
6	0xbba56590	-0.0050475076
7	0x3e6e1cbc	0.23253149
8	0x3d44fa3f	0.048090216
9	0xbe9105dc	-0.28324783
10	0x3d932dea	0.07186492
11	0x3d39d4dd	0.045369018
12	0xbf4622b0	-0.7739668
13	0xbe894647	-0.2681143
14	0xbc697708	-0.014249571
15	0xbe13e056	-0.14441046
16	0xbe71378f	-0.2355635
17	0xbdba1e22	-0.09087779
18	0xbf0e05d4	-0.55477643
19	0x3e7d4fce	0.24737474
20	0xbe53e00f	-0.2069094
21	0xbf21574d	-0.63023835
22	0x3f2e6c5c	0.68134093
23	0x3ebfd94f	0.3747048
24	0xbfa958c5	-1.3230215
25	0xbd512477	-0.051060166
26	0x3fcd60a7	1.6045121
27	0xbf006279	-0.5015026
28	0x3ee0639c	0.43825996
29	0x3e5ca162	0.21545938
30	0x3f194902	0.59877026
31	0x3fa4b548	1.2867823
32	0xc073b8b6	-3.8081489
33	0x3f8c268e	1.0949266
34	0xbc5aa466	-0.01334486
35	0xbded4982	-0.11586286
36	0xbf09b539	-0.5379215
37	0xbda298a2	-0.07939269
38	0x3dc780a2	0.09741332
39	0x3e70b11f	0.23505066
40	0xbf4b7799	-0.79479367
41	0x3d7f0904	0.062264457
42	0xbde0fe23	-0.10985973
43	0x3d532449	0.051548276
44	0x3d72a652	0.059240647
45	0x3cce324d	0.02517047
46	0x3ebc6aa6	0.36800116
47	0xbe74779d	-0.23873754
48	0x3d7e46e2	0.062079318
49	0x3e0ebd5d	0.13939424
50	0x3ea19d3e	0.3156528
51	0x3e861603	0.2618867
52	0x3fa5acb7	1.2943333
53	0xbe89799c	-0.26850593
54	0x3d01434e	0.031558327
55	0xbe892d59	-0.2679241
56	0x3ed67d47	0.41892454
57	0x3e0534f7	0.13008486
58	0x3ef06a43	0.4695607
59	0x3e07574b	0.13216893
60	0xbe83ccb0	-0.25742102
61	0x3ddc4bac	0.10756621
62	0xbd6fae71	-0.05851597
63	0xbdf94e18	-0.12173098

bias f4 [32]
0	0xbd5c0521	-0.05371583
1	0x3bb5f4cd	0.005552864
2	0xbffba41a	-1.9659455
3	0x3e162e1c	0.14666027
4	0xbdd68a64	-0.10475615
5	0x3e42de41	0.19030096
6	0xbedd181e	-0.43182462
7	0xbe7694cd	-0.240802
8	0x3ef8ab49	0.4856818
9	0xbde74b37	-0.11293643
10	0x3db194c2	0.086709514
11	0x3e6e9c68	0.23301852
12	0x3db97ec0	0.09057379
13	0x3f5815e5	0.8440841
14	0x3edefe3f	0.4355335
15	0xbd41fe26	-0.047361515
16	0xc023d17a	-2.5596604
17	0x3dea056d	0.11426816
18	0xbf53c514	-0.8272259
19	0x3e29fecd	0.16601105
20	0x3f022490	0.5083704
21	0x3d9ec8aa	0.077531174
22	0xbe4a216c	-0.19739312
23	0x3e1be0a2	0.1522241
24	0x3e3f99cb	0.18711011
25	0x3ec9efc9	0.39440754
26	0x3e430f5c	0.19048828
27	0x3c9dc378	0.019258246
28	0x3e79f95e	0.24411532
29	0xbee146ec	-0.43999422
30	0x3e011aca	0.12607875
31	0x3e249250	0.16071439

weight f4 [16, 32]
0	0x3de8cd04	0.113672286
1	0xbee31ffc	-0.4436034
2	0xbc7613c7	-0.015019364
3	0x3f8a38af	1.0798548
4	0xbf1a513a	-0.6028019
5	0x3cb772b6	0.022393566
6	0xbf28a465	-0.65875846
7	0xbf450dbb	-0.76974076
8	0xbebd9620	-0.370286
9	0xbe0c18e7	-0.13681374
10	0x3da2205a	0.07916327
11	0x3e748f96	0.23882899
12	0xbeed1f85	-0.4631311
13	0x3f3f3b2a	0.7469965
14	0x3e5c2724	0.21499306
15	0x3d3684c2	0.0445602
16	0xbe667a49	-0.22507586
17	0xbee3de2b	-0.44505438
18	0xbdc4fd95	-0.096186794
19	0x3eff3363	0.49843892
20	0xbe32ddbe	-0.174674
21	0x3eed7e35	0.4638535
22	0x3e33812a	0.17529741
23	0x3e90c739	0.28276995
24	0x3d565437	0.052326407
25	0x3e784ce0	0.24248075
26	0x3ea994e2	0.331214
27	0xbe410512	-0.1884959
28	0x3e6c0eaa	0.23052469
29	0x3f51e7fc	0.81994605
30	0x3ec2f9c6	0.38081187
31	0xbe121275	-0.14264853
32	0x3e13003c	0.14355558
33	0xbd1a717c	-0.037705883
34	0xbe004663	-0.1252685
35	0xbe7245e5	-0.23659475
36	0xbd496da3	-0.049176823
37	0xbcfdd3cd	-0.030984784
38	0x3e91a0ea	0.2844308
39	0x3e90a6fa	0.28252393
40	0xbdd448a4	-0.103654176
41	0x3e82c245	0.2553884
42	0xbe8ffa92	-0.28120857
43	0xbe49f8bc	-0.19723791
44	0xbe12692b	-0.14297931
45	0xbe3510ee	-0.1768224
46	0xbcff7d95	-0.031187812
47	0x3e6a3ed5	0.22875531
48	0xbf219357	-0.6311545
49	0xbe9b527e	-0.30336374
50	0x3e8c09ad	0.27351132
51	0xbe8a4538	-0.27005935
52	0x3d074723	0.033026826
53	0xbcaeabf3	-0.021322226
54	0xbe35f904	-0.17770773
55	0xbe7909d5	-0.24320157
56	0xbeeefa6d	-0.46675435
57	0xbe01eaf9	-0.12687291
58	0xbdba006c	-0.09082112
59	0xbe2500c0	-0.16113567
60	0xbea91ab5	-0.33028188
61	0xbdee1259	-0.11624593
62	0xbdc2cc30	-0.09511602
63	0x3d8619c5	0.06547884
64	0xbebd8e14	-0.3702246
65	0xbe7336cb	-0.2375137
66	0x3e7e8008	0.24853528
67	0xbd935966	-0.07194786
68	0x3d69074f	0.056891736
69	0x3efbf475	0.49209943
70	0xbf0be90d	-0.5465248
71	0xbe301a8d	-0.17197628
72	0x3e9e7898	0.3095138
73	0x3d185102	0.03718663
74	0x3e2b8948	0.16751587
75	0x3e824302	0.25441748
76	0xbc6382c7	-0.01388616
77	0xbd9ebe2b	-0.077511154
78	0x3e0aa3a9	0.13538994
79	0xbe429096	-0.19000468
80	0x3e7694eb	0.24080245
81	0x3ebb11b1	0.36536935
82	0x3d37643b	0.04477332
83	0xbe6ab5b7	-0.22920881
84	0x3df48453	0.11939301
85	0x3e34d239	0.17658319
86	0xbec60895	-0.38678423
87	0xbc80650f	-0.015673188
88	0x3d8f754a	0.07004793
89	0xbe887aad	-0.26656094
90	0xbea90c28	-0.33017087
91	0x3dc889a8	0.09791881
92	0xbd8a73ad	-0.06760345
93	0x3d3939ec	0.045221254
94	0x3cb11f46	0.021621358
95	0xbde33935	-0.11094896
96	0x3ea522d2	0.32253128
97	0xbd98f457	-0.07468479
98	0xc0213c4f	-2.519306
99	0xbe10f7a3	-0.14156966
100	0x3e01ccca	0.12675777
101	0x3e117faf	0.14208864
102	0x3e3711eb	0.17877929
103	0xbe51189f	-0.20419548
104	0xbf2b2950	-0.6685991
105	0xbec6bdad	-0.38816586
106	0xbe5e7c0e	-0.2172701
107	0xbe7358be	-0.23764321
108	0xbff243ff	-1.8927001
109	0x3f56ff9b	0.83983773
110	0x3e528a19	0.20560493
111	0x3d774c0e	0.060375266
112	0xbf8e586e	-1.1120737
113	0xbf193fcf	-0.5986299
114	0xbf33f1bd	-0.7029074
115	0x3f1142c6	0.56742513
116	0xbf5f714a	-0.8728224
117	0xbf70e09a	-0.94092715
118	0x3ebc6006	0.3679201
119	0xbd26ffac	-0.04077117
120	0xbd9e5fb2	-0.07733096
121	0x3c226d6e	0.009913785
122	0x3f79f41c	0.97638106
123	0xbdf0e906	-0.11763196
124	0x3f4dd62f	0.80404943
125	0x3f88a0e3	1.0674099
126	0xbebc5728	-0.36785245
127	0x3d8f95eb	0.070110165
128	0xbdda71b2	-0.10666217
129	0xbe25dd47	-0.16197692
130	0xbe325df4	-0.17418653
131	0x3e574ce4	0.21025425
132	0xbd017c1e	-0.031612508
133	0xbed7064d	-0.41996995
134	0x3de7c165	0.11316184
135	0xbe60c9bb	-0.21951954
136	0x3dcb746c	0.09934315
137	0x3e385bd0	0.18003774
138	0xbe20d16f	-0.15704893
139	0x3e1c1ede	0.1524615
140	0xbda4b002	-0.08041383
141	0xbf07f8e8	-0.53114176
142	0x3d0e559a	0.034749605
143	0xbec34b6b	-0.38143477
144	0x3ef6eeb7	0.48229
145	0xbed2ef91	-0.411984
146	0xbe6bb755	-0.23019154
147	0xbc7430b0	-0.014904186
148	0xbe107dd2	-0.14110497
149	0xbe2add3d	-0.16685958
150	0xbe28f434	-0.16499406
151	0x3d057f51	0.03259212
152	0x3e58e440	0.2118082
153	0xbd828656	-0.06373279
154	0xbc92794b	-0.017880103
155	0x38caee84	9.6765376e-05
156	0xbd8901ab	-0.06689771
157	0xbe48b577	-0.19600473
158	0xbda53414	-0.08066574
159	0xbe0743d5	-0.1320947
160	0x3ec04187	0.37549993
161	0x3dfe82b5	0.12427274
162	0x3eb32f43	0.34996995
163	0x3dc0d2c4	0.094152
164	0xbe08980f	-0.13339256
165	0x3deb82ed	0.114995815
166	0x3e66dc61	0.22545005
167	0xbc9c417c	-0.019074194
168	0xbe504054	-0.20337039
169	0x3ee7507d	0.45178595
170	0x3e6118de	0.21982142
171	0x3daa11a3	0.08304145
172	0xbe31f7ab	-0.17379634
173	0xbe405acd	-0.18784638
174	0xbde34ab9	-0.110982366
175	0xbdbb95ca	-0.09159429
176	0x3e8f8cbb	0.28037056
177	0x3e4cba42	0.19992927
178	0xbd2ea485	-0.042637367
179	0x3e330ca4	0.17485291
180	0xbe2cf5c0	-0.16890621
181	0x3e91028e	0.28322262
182	0xbc11480a	-0.008867273
183	0xbea00d5e	-0.31260198
184	0xbeb50e5d	-0.3536252
185	0x3d1e83b1	0.03869981
186	0xbe3cad8e	-0.18425581
187	0xbedb8d81	-0.42881396
188	0x3d14a8b8	0.036293715
189	0x3e729a94	0.2369178
190	0x3e836879	0.25665644
191	0xbdd28270	-0.10278785
192	0xbd0b0d66	-0.033948325
193	0x3d5e16cb	0.054220956
194	0xbee831de	-0.45350546
195	0xbdac389a	-0.084092334
196	0x3c6377d8	0.013883553
197	0xbed36429	-0.41287354
198	0x3dd3f328	0.10349113
199	0x3d25338d	0.040332366
200	0xbec9e05b	-0.39428982
201	0xbd9d57b8	-0.07682747
202	0x3e1ca43c	0.15297025
203	0x3e26a18a	0.1627256
204	0xbe73745c	-0.23774856
205	0x3d879675	0.06620494
206	0x3e4e520c	0.20148486
207	0x3ecfdc62	0.40597826
208	0xbef42757	-0.47686264
209	0x3f1b2d40	0.6061592
210	0x3cd5ab9e	0.02608281
211	0xbe682d68	-0.22673571
212	0x3d540b09	0.051768336
213	0xbe6f7b88	-0.23386967
214	0xbe969eb8	-0.29417968
215	0x3dee1afc	0.116262406
216	0xbe91cd20	-0.2847681
217	0x3c9dbd23	0.019255226
218	0x3ec09d8d	0.37620202
219	0xbbaf5ddb	-0.0053517646
220	0x3d9f7221	0.0778544
221	0x3eddbf03	0.43309793
222	0x3eb6943d	0.35659972
223	0x3de11264	0.10989836
224	0xbcbfacfb	-0.023397913
225	0xbe93ab0e	-0.28841442
226	0x3dd92fbe	0.10604809
227	0xbd9e8834	-0.077408224
228	0x3e4b1f12	0.19836071
229	0x3f093ddf	0.5361003
230	0xbdbc3f4e	-0.09191762
231	0x3e3a22e5	0.18177374
232	0xbc68060b	-0.014161597
233	0xbcb6670c	-0.022265933
234	0xbd7c01db	-0.061525207
235	0xbde83a95	-0.11339299
236	0x3d769493	0.060200285
237	0xbe3c6ebb	-0.18401615
238	0xbd732c48	-0.0593684
239	0x3e424254	0.18970615
240	0x3e922eb4	0.28551257
241	0x3e4c0e6c	0.19927377
242	0xbecc7456	-0.39932507
243	0x3ea19d6f	0.31565425
244	0x3eaebd4e	0.34128803
245	0xbd961940	-0.07329035
246	0xbe39aa82	-0.1813145
247	0x3cda3ab6	0.026639324
248	0xbe0987e0	-0.13430738
249	0xbe598f33	-0.21246032
250	0xbea27f07	-0.3173754
251	0x3e06fdcd	0.13182755
252	0xbe4607fb	-0.19338982
253	0xbc8b99fe	-0.017041203
254	0x3ed15168	0.4088242
255	0x3e098ac8	0.13431847

bias f4 [16]
0	0x3e3e343f	0.18574618
1	0xbe1a7985	-0.15085419
2	0x3dd277c5	0.102767505
3	0xbd616e0b	-0.055036586
4	0x3e1e0468	0.15431368
5	0x3dbedb57	0.093191795
6	0xbd84ed35	-0.06490556
7	0x3e359211	0.17731501
8	0x3df68aa9	0.12038166
9	0xbe23b13e	-0.15985581
10	0xbea37ab1	-0.31929544
11	0xbe1903b8	-0.14942825
12	0xbe1724b5	-0.14760096
13	0xbd48db81	-0.04903746
14	0xbd148c29	-0.03626648
15	0x3e09282b	0.13394229

weight f4 [1, 16]
0	0xbf394019	-0.7236343
1	0x3f6a396f	0.91493887
2	0xbf4f7b9e	-0.81048
3	0x3fafcd00	1.3734436
4	0xbed9231b	-0.42409596
5	0xbf02d6e5	-0.51109153
6	0x3e55e585	0.20888336
7	0xbe9be690	-0.30449343
8	0xbf92c8a9	-1.1467487
9	0x3f382b64	0.7194121
10	0x3f2ec818	0.6827407
11	0x3ec27813	0.37982234
12	0x3eefaeba	0.46812993
13	0xbe7190bc	-0.23590368
14	0x3f950d76	1.1644733
15	0xbf601074	-0.87525105
