code/models/exp_disc.pt (torch, 18515 bytes, 9 tensors)

weight f4 [32, 2]
00000000: 529b 983e 786b 32be 31da 2a3e db28 4a3e
00000010: 54bc c33e dc31 ca3e a28d 3fbd e2ea 47bd
00000020: a4fe 283e b6ed 6dbe ae63 0bbe 33e4 d93c
00000030: c768 a4be 704a 40be 78c7 f63d 17f1 2c3e
00000040: a622 28be 39f6 a0be 9a93 11be cefe 72be
00000050: 7641 14bd e557 04be 463e 773d f391 c03e
00000060: ffb0 323d ef6a 5cbd 1f29 9f3d 3034 653d
00000070: 9b7f e03d 6711 1f3d c5a2 243e b3ec a5bd
00000080: 8d1d a7bd 66ae b53e 7f25 38be 14fb 903e
00000090: 9273 29be ed6e afbe 0e3a ea3e 3f39 b83d
000000a0: 3fb8 ae3b 17db bebe 282a 823e 75f1 0dbe
000000b0: a836 40be 4629 7e3d 25ba de3d ca34 a93c
000000c0: 7b1c 583e 3c56 8a3e f94a 703e 364a 883e
000000d0: b58d e53a e72d 263e a50b 45be 8f14 a43d
000000e0: 4616 07be 3f4e 9cbe 6a6c f33d 633b af3e
000000f0: becd 05bc 9f87 4e3e 2ddb c53e 9a19 53be
0.29806 -0.17423809 0.16684796 0.19742148 0.3822962 0.39491165 -0.04676593 -0.048807986
0.16503388 -0.23235211 -0.13612244 0.026598072 -0.3211119 -0.18778396 0.120497644 0.16888843
-0.16419467 -0.31437853 -0.14216462 -0.23730013 -0.03619524 -0.12924154 0.060362123 0.3761135
0.043625828 -0.053812917 0.07771515 0.055957973 0.10961839 0.038834956 0.16077717 -0.081017874
-0.08159933 0.35484618 -0.17983054 0.28316557 -0.16547993 -0.34264317 0.45747417 0.08995294
0.0053320224 -0.37276527 0.25422788 -0.1386164 -0.1877085 0.06205108 0.10875348 0.020655055
0.21104614 0.27018917 0.234661 0.26619118 0.0017513545 0.16228448 -0.19242723 0.08011734
-0.1319209 -0.30528447 0.11885913 0.34224996 -0.008166729 0.20168923 0.3864378 -0.20615235

bias f4 [32]
00000000: f44a 22bc 3895 2f3c e477 35bc ec20 1b3b
00000010: 12d0 daba 3d34 ecbc 48fe 06bd 7816 69bc
00000020: f474 9bbc 4b1d e0bb 42a5 be3c 6f3c 5d3d
00000030: 7e85 5c3b 8628 873c 03a2 b63c 1dd2 5f3b
00000040: 3945 a9bc 2cfc b8bc 4937 92bc a481 ad3b
00000050: 6d76 eebc 7feb b03c 886b 9abc 5ff4 96bc
00000060: efc5 043d 39b7 d2bb cb8d 333c 5791 37bd
00000070: 90c9 56bc 698f 073d 40a3 ba3b b3db ae3d
-0.0099055655 0.010716729 -0.011075947 0.0023670746 -0.001669409 -0.028833503 -0.032957345 -0.014226548
-0.018976666 -0.0068394295 0.02327216 0.054012712 0.0033648903 0.016498815 0.02229405 0.0034152337
-0.02066289 -0.022581182 -0.017848628 0.0052949954 -0.029109204 0.021596668 -0.018850103 -0.018427072
0.032415327 -0.0064305332 0.010959099 -0.04481634 -0.01310958 0.03309575 0.0056957304 0.08537998

weight f4 [32, 32]
00000000: 899c 493e ab63 983d 4d1e 92be ce45 ee3c
00000010: c6f4 113e 7834 b53e d7b2 703e 04e8 c93c
00000020: cbd3 423e b73c 64be bcde a4be f635 a43d
00000030: 1ba8 823d 5f89 b1bd 92f6 0bbe 8cc4 aa3b
00000040: 5c42 9e3d 4cba 063e df61 5fbd 8e96 013f
00000050: 9a8a 5abd 61a8 28be bc4c 023e 0870 d13c
00000060: 3bc9 37bd 2520 3e3d a3d5 34be ce05 833d
00000070: 56b2 963d 0930 8b3e 2923 033e c65c 06be
00000080: 4e85 bf3d fb0f 363e 227a a7bd 0ae9 9bbe
00000090: 56fd f93d 1bce bd3d c90e c5bd 9736 07bc
000000a0: 9dd6 6cbe 34b8 823d 9a2f 4f3e d5cb e4bd
000000b0: 7472 68bb a145 9bbe aeb6 d8bd 3b21 9fbe
000000c0: e170 84be 4eec ff3d 7261 093c 0a56 fcbd
000000d0: b59b afbe fec0 da3e b68e 6c3d 15a1 f73e
000000e0: ccf2 68bc 3b69 843e 09fd 9bbd 103e 21be
000000f0: d87a cd3d 13af 583d c0a1 903c 9929 6d3e
00000100: 33b1 66bc 6b1f 97be 9c77 4d3d e1de 3cbe
00000110: 9114 d03d 7d4b 323e 7548 9a3e e414 9a3d
00000120: 2bf4 8ebd 579d e0bd 1d15 d13d b904 03be
00000130: 1d42 abbc cec9 b83d 7550 debd d128 cb3d
00000140: e664 15be 6b0a 163e e41c 02be f15b 6fbe
00000150: b8aa 22bb b419 04be 3be0 6bbe acea 9abc
00000160: 9f68 91bd 898f 3b3d 8026 773d 6b57 ce3c
00000170: 6f90 25bd afb9 b7bd a310 18bc c1b3 38be
00000180: 4b3f a53e d2c7 93bd 8c77 07be 7db8 493e
00000190: 9a80 42bd 0b64 a93e 8ebf 59be bf3f 41bd
000001a0: bca2 53be aabc dabe 4ecf 7cbc 3ca0 33be
000001b0: 850e 113e 9b4d 40be 0428 15bd 8202 3dbe
000001c0: ab3a 78be 85b0 51bd 7e5e 62bd 6852 b4bd
000001d0: c778 c83d 5fa8 743e 8043 19bf 3499 36be
000001e0: acc0 e2bd 8bde 2fbd 5fd6 8cbe 698c 943d
000001f0: 28e0 f6bd c188 4c3e f0e6 6ebd 1ad5 57bd
00000200: 3cee 09bd 275d 193e ac44 f9bd 475d 693e
00000210: c164 6c3e 68a0 9f3b aed0 053b 20e2 db3d
00000220: 9240 483e 221f 6abe 1fc6 e13d 4557 77be
00000230: 3939 28be c292 a3bd 6be3 b6be efd6 2d3e
00000240: 80aa 323e 3ada e93b 23f7 c7bd 708e 343c
00000250: 3df6 d13c 1dde 47bd be06 d5be 0da7 3a3e
00000260: 93cc 94bd 7203 b1bd 889e 93be a8a0 4b3e
00000270: b049 e83d 23dd 823a d025 4c3d af01 053e
00000280: 6e6d fabd f1b0 24bd dce0 163d 3034 f8bd
00000290: a90f 06be ff09 37be eb40 7ebe f3de 35be
000002a0: 280e 2dbe d474 e43d 006b 44bd 12aa 833e
000002b0: 9013 453d 883b a63d 7273 92bd 4ab3 84be
000002c0: 10b1 453e 6d2b ed3d 5bdf a8bd f0b5 e4bd
000002d0: a018 13be b69a 323e 6dcc b5bc 5690 49be
000002e0: 96a8 b8be 9e75 23be e5f3 743e b531 553e
000002f0: 0bd0 a7bd c44a 743c b738 8cbe 191b 2f3e
00000300: d2a7 143e a4c2 1f3d 57cb 203d 9647 aabe
00000310: bd4f 58be 1eed 993c 7feb 623d 0537 fc3d
00000320: 9c3f 2a3e 297d 253e 45a3 393e 9b37 e8be
00000330: 3280 de3d e8ef b13c 997b 8ebd 14c3 6a3d
00000340: d3a5 47be 4201 95bd 15c4 79bd 0802 2ebe
00000350: 83ec 003e 858d 2fbe 0481 15be 15e2 fabd
00000360: 7330 38be c727 c0bd 32ff 063d 6e4b edbd
00000370: f9be cebd 03a1 ef3d 2476 c23c 1b66 7ebc
00000380: c758 fe3d c442 02bf 438a c13e c484 94be
00000390: 2040 67be 306d 933e 2ccb a1bd 37be 873d
000003a0: 0385 203d 4143 7c3d 6314 84be 54da 633e
000003b0: 9b33 973c 3409 f2bb 8adb 2fbe 9d81 9dbe
000003c0: e740 99bc 87c5 1abe 2c33 5b3e 3e2b c23e
000003d0: 77f8 1b3e ab98 553e fd71 ecbd 2d31 103e
000003e0: 0d60 c0bd b708 debd 7e7e b3be 4cf2 d1bd
000003f0: 1b11 45be cc1e 4e3d 7df7 89bd a138 a23e
0.1968862 0.07440885 -0.28538743 0.02908602 0.1425353 0.35391593 0.23505722 0.024646766
0.19026105 -0.22288786 -0.32201183 0.08018105 0.0637972 -0.086687796 -0.13668278 0.0052114185
0.07727501 0.13157004 -0.054536697 0.50620353 -0.053354837 -0.16470481 0.12724584 0.025566116
-0.044869643 0.046417374 -0.17659621 0.063975915 0.07358234 0.27185085 0.12806381 -0.13121328
0.09351598 0.17779534 -0.08177592 -0.30451232 0.12206523 0.09267827 -0.09621961 -0.008252761
-0.23128743 0.0638279 0.20233002 -0.111716904 -0.003546861 -0.3032656 -0.105817184 -0.3108004
-0.2586737 0.124962434 0.008385049 -0.12321098 -0.34298483 0.42725366 0.057753287 0.48365083
-0.014218044 0.25861534 -0.07616622 -0.15746331 0.10033196 0.05290134 0.017655253 0.231604
-0.0140803335 -0.29516158 0.050162897 -0.18444397 0.10160173 0.17411609 0.30133405 0.07523516
-0.06980165 -0.1096751 0.10209105 -0.1279477 -0.020905549 0.09022866 -0.1085519 0.099198945
-0.14589271 0.14652412 -0.12706333 -0.23374917 -0.0024820995 -0.1290043 -0.23034756 -0.018910728
-0.07100033 0.045791183 0.06033945 0.025188169 -0.040420946 -0.08970963 -0.00928131 -0.1803732
0.3227485 -0.07215847 -0.13229197 0.19699283 -0.047485925 0.3308414 -0.21264479 -0.047179934
-0.20667547 -0.42722064 -0.015430285 -0.17541593 0.14165695 -0.18779604 -0.036415115 -0.18457988
-0.2424113 -0.051193733 -0.055265896 -0.0880478 0.097886615 0.23892353 -0.5986862 -0.1783188
-0.110719055 -0.042936843 -0.27507302 0.072533436 -0.12054473 0.19974042 -0.058325708 -0.052693464
-0.033674464 0.14976941 -0.12171301 0.22789489 0.2308531 0.004871417 0.0020418572 0.10736489
0.19555882 -0.22863439 0.11024117 -0.24154384 -0.16428079 -0.07986976 -0.3572038 0.16976522
0.17447853 0.0071366103 -0.097639345 0.011020288 0.02563011 -0.048795808 -0.41606706 0.18227787
-0.07265582 -0.08643235 -0.28831887 0.19885504 0.1134218 0.0009984117 0.04984075 0.12988923
-0.12227903 -0.040207807 0.036835536 -0.12119329 -0.13091911 -0.17874907 -0.24829452 -0.1776083
-0.16899931 0.11155096 -0.047953606 0.2571569 0.04811436 0.081168234 -0.07150926 -0.25918037
0.19305825 0.115805484 -0.08245727 -0.11167514 -0.14364862 0.1744183 -0.022192204 -0.19683966
-0.3606612 -0.15962836 0.23921163 0.20819743 -0.08193978 0.014910404 -0.2738702 0.1710018
0.14517143 0.039003983 0.03925642 -0.3325774 -0.21124168 0.018789824 0.055400368 0.12315182
0.16625828 0.16161026 0.18128689 -0.45354924 0.10864295 0.021720842 -0.06957168 0.057314947
-0.1949685 -0.072756305 -0.060978014 -0.16992962 0.12590222 -0.17143829 -0.14599997 -0.12250153
-0.17987232 -0.09382587 0.032958217 -0.11586653 -0.10095019 0.117006324 0.023737974 -0.0155272735
0.12419277 -0.50883126 0.37800798 -0.29007542 -0.22583055 0.2879424 -0.0790008 0.066280775
0.03918935 0.061587576 -0.25796804 0.22251254 0.018457225 -0.007386351 -0.17173591 -0.3076295
-0.018707706 -0.15114413 0.2140624 0.37923616 0.152315 0.2085902 -0.11545179 0.14081259
-0.0939332 -0.10841506 -0.35057443 -0.102512926 -0.19244806 0.05032234 -0.06736658 0.3168383

bias f4 [32]
00000000: e321 2ebc da52 f93b c98e b0bc 0d71 6f3c
00000010: 5a09 783c 891c b33c 3cb5 64ba 2d56 c9bc
00000020: 6378 f8bb 77f4 9abd 0b3b 6cba d900 de3c
00000030: e322 8c3c 265b 0cbc 6508 9bbc b15c 0b3d
00000040: 4c4f b939 7c5d c63c 44a0 d53b c89b 24bc
00000050: b766 edbb db27 84bc e4b8 663b e0a0 973b
00000060: ea4f a43c 5772 3a3c 50a9 7fbb 925c 82bc
00000070: fa4f a03a a2ab 24bc 953d 7a3c ad6a c23c
-0.010628196 0.0076087536 -0.02155246 0.014614356 0.015138948 0.021864193 -0.0008724516 -0.024577225
-0.0075827106 -0.07566159 -0.00090114836 0.027100014 0.017106479 -0.008566653 -0.018924901 0.034023944
0.0003534503 0.024214499 0.0065193493 -0.010046907 -0.0072449106 -0.016132286 0.0035205418 0.004627332
0.020057637 0.0113798 -0.003901083 -0.015913282 0.0012230866 -0.010050686 0.015273471 0.023732508

weight f4 [32, 32]
00000000: 0d89 113e 69c2 5f3e 066b 65be 3970 b53d
00000010: d7a7 b23c 39af d6bd 8526 d43e 9ae1 41be
00000020: 7569 1ebe fe11 ed3d 6688 113d 0193 a0be
00000030: 93c1 87be 2394 2c3e 0a64 513e 4df1 afbd
00000040: 0844 5fbe 8e7d 873d 6046 74be 36e1 b4be
00000050: 87f7 953e 353a ef3b 759f e43d 4de4 a1be
00000060: 9c6d a23c df13 db3d 8abd f23c a281 143e
00000070: e60e 7b3d 1788 093e b547 71be 7c21 153e
00000080: 2a83 b63d dded bb3e aeea c33e 52a0 f83d
00000090: e7a2 f0bd 4556 843b aa2b 95bd daa8 9b3d
000000a0: 46b9 73bd 8f77 aabd 8ada aa3c 3aa9 67bd
000000b0: cdae 7cbe 7a24 5fbd 47b1 263e f4c3 723e
000000c0: 7a67 dd3d 4c14 86be 2046 83bd 35bb dd3d
000000d0: f789 a53d 60c8 173e d21d c7bd 1e13 e0bd
000000e0: 7a65 90bd 7491 d83d cc31 08be 281b 8b3d
000000f0: 20b2 00be b82c 133e e375 01be 4dea 97bc
00000100: f4bd c33d 0e4a 63be 0633 a83e 90b7 edbd
00000110: fc80 1dbe ef9d a4bd ed91 b4bd 3a34 33be
00000120: 7f80 30be 60c5 95bc 561b 31be c6c3 7d3e
00000130: f789 4dbe 49f5 a33d e195 03be 05c2 e1bc
00000140: 3688 a93d 8649 30be 7343 b33d c8ad b73d
00000150: f19b 743e f85c 83bc 068a 8a3d 1b8d 93bd
00000160: 5d1e 933b 0723 c0bd 8fe4 8e3e a856 d53e
00000170: 7bbb b03e b44f adbd 938c 27be 3e83 15be
00000180: 8480 8c3e 3be2 303d a010 333e 1c9b ad3c
00000190: a56e 033b 6341 043e 0022 36be 0eaf 0e3e
000001a0: 2d8c babd f198 4b3e bbb3 84bd abad c2be
000001b0: 21bf 88be 456d 563d 4ea3 a03e 6e57 bf3d
000001c0: 8c32 79bd 0c9e 953d 09ca 6bbc b878 ecbd
000001d0: 9f19 f63d e379 0d3d e8cb 753d 4e9f d33c
000001e0: 0d75 973c 671e c5bd d061 ae3e 16e9 24be
000001f0: 99b6 c73e 2675 87be 840b 073e 7c27 3d3c
00000200: e766 1bbe c38f 823d f7f7 2ebd 4263 10be
00000210: ed17 723d 0575 b8bb d92e 5cbe 61a8 8c3e
00000220: 14e0 85be 858a e3bd 18a9 953d 4d2c a63e
00000230: 058d 753e 858f 0d3d c4c7 0bbe 528f 1e3e
00000240: 4e2f 50bd 41df 51be 5717 ec3d 99f7 43be
00000250: fcab df3d 7d0f c13e c056 d9bd 9f93 33be
00000260: 35e6 11be e3be c23d 1170 ec3e 7fef d93b
00000270: cac9 8c3e d37b 3d3e d4fe 793e b250 b0be
00000280: b2dd 53bc de63 91be 106f ffbc 56c6 56bd
00000290: 4b02 2a3e 0ce5 f6bc 3183 1abe 0eae 273e
000002a0: 775d 5cbe 8536 3abe 2f8b 223e db6e 71bd
000002b0: dfe3 043e 1d91 33be fefc 193d 0450 1fbe
000002c0: 6842 c03d ea4c d7bd 4265 cabd d0f3 c4bd
000002d0: 4cba 37bd 0379 6fbe 0bc6 773e 336d a8bc
000002e0: 9899 59bd 5d02 d5bd 1573 91be 0697 28bd
000002f0: 43fa 103d fd16 03be cb98 37be c9f4 d73e
00000300: eb55 29bd cb20 b03e c749 99bc d743 f53d
00000310: 002c ca3d 662f 383e d05a 18bd 2316 793e
00000320: 3bf1 22be ff1b 03bf 0676 0abe 7148 bf3e
00000330: 3c05 7fbc aee2 24be fc0d 80bd f1c7 e83d
00000340: b956 66be c0b0 973d 46b9 e0bd 8635 e13c
00000350: 4fd0 ea3c 396b f9be b54e 03be 701d 90bd
00000360: fc38 733d 244f 5cbe fd9a debb a1da 87be
00000370: 26be c63d 7d30 f8be ad55 2a3e c657 4d3d
00000380: 2810 81bd 6df0 c73b 37dd 74be a796 a7bb
00000390: c54e da3d 70bb dcbc 7197 d2bd fcc8 083e
000003a0: 675a b9bb 222a 49be 3bbe 08be 0768 9bbe
000003b0: fabc 733e 901a b7be b021 c7bd 93b5 a4bc
000003c0: 1af0 073e c9ab 8c3e fc5b c83d 264f aabe
000003d0: ac54 c5be c77c 3dbe 4d97 08be 61ca 6cbe
000003e0: d18a 723e 91da 51bd 914a 2e3d 38a0 953d
000003f0: 444c cc3d e49f 85be 8d05 743e 467a 563e
0.14212437 0.21851505 -0.22404107 0.088592954 0.021808548 -0.1048264 0.41435638 -0.18933716
-0.15469916 0.11575697 0.03553047 -0.31362155 -0.26514873 0.16853385 0.20448318 -0.08590946
-0.21803296 0.066157445 -0.23854971 -0.35328072 0.2929041 0.00730064 0.111632265 -0.31619492
0.019827656 0.106971495 0.029631395 0.14502576 0.061293505 0.1343082 -0.2356251 0.14563555
0.08911736 0.36704913 0.38264984 0.12139954 -0.11749821 0.0040386044 -0.07283719 0.07600565
-0.059502862 -0.08323585 0.02085616 -0.05655787 -0.24676056 -0.054478146 0.16278563 0.23707563
0.10810752 -0.2618736 -0.0640986 0.108267225 0.08082955 0.14822531 -0.09722485 -0.10941146
-0.07050605 0.10574618 -0.13300246 0.06792289 -0.1256795 0.14372528 -0.12642626 -0.01854434
0.09557715 -0.22196218 0.32851428 -0.116072774 -0.15381235 -0.08037936 -0.08816896 -0.17500392
-0.17236517 -0.018282592 -0.17295584 0.24781713 -0.2007216 0.08005769 -0.12850143 -0.027558336
0.08277933 -0.17215547 0.08753099 0.08968693 0.23887612 -0.016035542 0.06764607 -0.07204648
0.0044897036 -0.09381681 0.2790875 0.41667676 0.34518036 -0.08462468 -0.16362219 -0.14600846
0.274418 0.0431845 0.1748681 0.021192126 0.0020054963 0.12915568 -0.17786407 0.13933966
-0.09108768 0.19882561 -0.06479593 -0.38023123 -0.2670832 0.0523503 0.31374592 0.09342848
-0.06083922 0.07305536 -0.014391431 -0.11546463 0.120166056 0.03454007 0.060008913 0.025832798
0.018488431 -0.096249394 0.34059 -0.1610454 0.39006498 -0.26456565 0.13187987 0.011545058
-0.15175973 0.063750766 -0.042716946 -0.14100364 0.05910485 -0.005629184 -0.21502246 0.27472213
-0.2614752 -0.11110405 0.07307643 0.32455674 0.23979576 0.0345607 -0.13650423 0.1548436
-0.050826363 -0.20495321 0.11527889 -0.1913742 0.10921475 0.3770713 -0.106122494 -0.17536782
-0.14247973 0.09509065 0.4617925 0.0066508646 0.27497703 0.18504266 0.24413615 -0.34436566
-0.012931274 -0.28396505 -0.031180888 -0.05243524 0.16602437 -0.030138515 -0.15089108 0.1637499
-0.21520029 -0.1818486 0.15873407 -0.05894361 0.12977551 -0.17535825 0.037594788 -0.15557867
0.09387666 -0.10512717 -0.09882595 -0.09616816 -0.0448554 -0.23386006 0.24196641 -0.020559883
-0.053124994 -0.104008414 -0.28408113 -0.041159652 0.03539492 -0.12801738 -0.1792938 0.42178944
-0.041341703 0.3440002 -0.018711938 0.1197583 0.098716736 0.17986831 -0.03719598 0.2432485
-0.15912335 -0.51214594 -0.13521585 0.37359956 -0.015565213 -0.16102096 -0.06252667 0.11366261
-0.2249402 0.07406759 -0.10972838 0.027491342 0.028663782 -0.48714617 -0.12822993 -0.07036865
0.059380516 -0.21514565 -0.0067933784 -0.26533988 0.09704237 -0.48474494 0.16634245 0.050132535
-0.0630191 0.006101659 -0.23912512 -0.0051143947 0.10659555 -0.026944846 -0.102827914 0.1335792
-0.0056565288 -0.19644979 -0.13353817 -0.30352804 0.23802558 -0.35762453 -0.09723222 -0.020106113
0.13275185 0.27474812 0.097831696 -0.3326351 -0.38541162 -0.1850463 -0.13338967 -0.23124076
0.23685767 -0.05123383 0.04255158 0.0730595 0.09975484 -0.2609855 0.23830242 0.20945081

bias f4 [32]
00000000: e94d 6cba ca79 8dbc c733 b0bc d497 85bc
00000010: 631b c73c b499 2c3c 5233 353d 081c 00bc
00000020: de5f 26bc b2f0 cbbc 3b3a e0bc fff1 d8bc
00000030: 2aa5 953d b66d c13c 0cb4 033b d610 5abd
00000040: fd4e 1cbc b4a3 a9bc eeeb 983c 9637 e03c
00000050: a7c4 a8bd 14a8 8dbc 6de3 bf3b df5d cebc
00000060: 578a 66bc 8285 043d f104 96bb f5b9 75bc
00000070: c372 aebb e94c dbbb 6594 72bb 5971 d1b9
-0.0009014295 -0.017269988 -0.021509064 -0.016307749 0.024305051 0.010534693 0.044238396 -0.007819183
-0.010154692 -0.024895046 -0.027371516 -0.02648258 0.07306893 0.023611885 0.002009633 -0.053238712
-0.009540317 -0.020707943 0.018667188 0.027370255 -0.082406335 -0.01729206 0.0058559687 -0.025191246
-0.014071069 0.032353885 -0.004578226 -0.014997949 -0.0053237393 -0.006692518 -0.003701472 -0.00039948037

weight f4 [32, 32]
00000000: 82a5 38be dd07 babe c963 8cbe b09f d3bd
00000010: 8cd2 5d3d 6cd7 4c3e 3a36 58be 6791 09be
00000020: 12f2 a7bd 8356 7abe 7fcb 513e d548 b5bc
00000030: 9be1 8d3b 3b41 19be 485f e73c a949 cbbd
00000040: 7182 933d 311e ac3e a8d8 c23d 9148 733e
00000050: 8b6d 79bc 4158 3e3e d498 0abe 77be b93e
00000060: a912 02be 3da1 6e3e d8d4 553e 5e77 7bbe
00000070: dcce b2bd 682c 983c fe5f acbd aee8 15be
00000080: 2b98 3d3c 08e6 523e 5634 92be 1f3f 6fbe
00000090: 55d6 40be 8508 87be 1e77 b53d 5094 c8bd
000000a0: c8ff 1bbe e6c8 b53d aa2f 213e da8b 16bd
000000b0: 5700 77bd df4e 053d a743 783d 3776 9cbe
000000c0: a186 cabe e7d4 9bbe 53d7 f83d 4ebb 52be
000000d0: 2208 0dbd 2287 ee3d e81a 453d c4a2 2abe
000000e0: b981 d5bd becd 29bd 3a0f 60bd dfd8 30be
000000f0: 0ed7 9abd 4fe3 52bd f21b 98bd 9075 883d
00000100: 85d7 debe 2e2e 0dbc 8708 febd 1238 4c3e
00000110: 225b 0b3e c51f 823e 7782 4e3d 6d31 81be
00000120: bf5b ac3e 8365 693e fa7f 8dbd e899 c33c
00000130: f350 8a3d 2891 80bd 50bb 523d 66f5 cd3d
00000140: 5a8c 1a3e 841c 5fbd bff8 9abd 623b 893e
00000150: a7e9 143e 2caa 2dbe 1397 203e c080 99be
00000160: 19ee a53c dfe9 053e 0729 50bd 8dfa f53c
00000170: cd80 df3e cf88 b7be b9dc 60be ee02 b3ba
00000180: 3554 e6bd 6ca4 9cbd 274f 033e e806 0e3e
00000190: 83c2 41be fca3 543c ead8 7d3e 23bd e63d
000001a0: 55e7 f73a ad8f 903c edaf ff3b b2af 5cbd
000001b0: 33d9 2b3d 88b8 543e 7a3f 163e 8fe6 383e
000001c0: 3a20 73bc 2e0f 023e d3d0 d33e b5f2 ac3e
000001d0: bfb9 ec3d 5d55 36be 536c 69ba de55 413e
000001e0: 6718 9abd 6c8c 2a3e 79c6 3d3b 9475 823d
000001f0: da98 5fbe 5a54 fabc ad56 f33c c048 a9bd
00000200: 6111 d53b eb66 0c3e 83ae 79bd 26b9 14be
00000210: 38f7 a0be 8f0e 4c3e 3b44 173e b212 d13d
00000220: 0757 9c3e 3e12 6f3e 652b 6c3d a5ef af3e
00000230: 07eb 063e f8da 02be 3ba9 043c d5bf 0e3e
00000240: b094 4cbe bdd8 103e 041b 6d3d 4778 173c
00000250: a507 02be 88b0 e5bc 4234 86bd eb4f 9abd
00000260: 84d2 eb3d 8dc5 093e eb03 e8bd 6662 4e3e
00000270: 1183 0b3e cce5 84be 8569 a33c 8969 9cbe
00000280: d5df 99bd 20f9 91bd 3af7 23bc f70c 58be
00000290: fcfa 4abd fdb4 8c3d d2a1 aabc 8d29 e1bd
000002a0: 0680 fb3d eb8b 5fbd e856 c23d b79e d2bd
000002b0: 7446 1dbd 243d 743e 3307 afbd 1b14 5fbe
000002c0: d2b7 93bd 18fb 0b3e f903 eb3c 241e b1bd
000002d0: d44c e3be 3b00 0a3d e361 543d f644 3fbe
000002e0: 7bfb d7bc dfe7 8b3e 6258 4fbe 3904 763e
000002f0: c734 893e 47aa 303e 8c2e 01be 8933 00bd
00000300: 0962 0cbd 42c7 cfbd 82ce 16be e912 c2be
00000310: 8668 d03d 7bf1 7d3d eaee 543d 3135 dc3c
00000320: f344 8f3d 3b03 de3d 8909 12be af6b 3d3e
00000330: 45df e53d 2088 b5bd f484 5fbd 0a13 563e
00000340: b6c2 a9be 7299 2dbd 3136 ce3d 306c 8bbe
00000350: 1891 5a3e 92e0 0c3d ea05 28bd 69c6 97bd
00000360: e4d3 373d 0cc0 0f3e 659b cabd 1c5d 26be
00000370: 70de 8cbc a194 dabb b1a1 853e f2cd 51bc
00000380: ea03 253c e5b5 8cbe 71b6 e6bd f680 003d
00000390: ef90 55be 438d fc3d 3258 43be b098 983e
000003a0: 810c 5e3e 7d87 47bd 7e6f 89be 22e0 0fbe
000003b0: 761c 453e e6d0 aabc eb42 55be cb77 81bd
000003c0: c05c bbbb 5b06 573b 651c 4d3e 680b 843e
000003d0: 6b26 cbbc ecd8 84be 04df 853b e780 ffbd
000003e0: 2285 bfbb 3230 9fbd 4542 183e a668 313d
000003f0: b07b 89be bce2 2ebe edfc 153e 5add 853d
-0.18031886 -0.36334124 -0.2741988 -0.10333192 0.05415587 0.20004052 -0.21114436 -0.13434373
-0.08200468 -0.24447064 0.20487784 -0.022129456 0.004329873 -0.1496629 0.028243676 -0.09926159
0.07202614 0.33616784 0.0951398 0.2375815 -0.015223871 0.18588354 -0.13534862 0.36278126
-0.12702431 0.23303695 0.20881975 -0.24557254 -0.087308615 0.018575862 -0.084167466 -0.14639542
0.011571924 0.20595562 -0.28555554 -0.23363923 -0.18831761 -0.26373687 0.088606104 -0.09793913
-0.15234292 0.08876209 0.15740839 -0.036754467 -0.06030306 0.03254592 0.060611393 -0.3055894
-0.3955584 -0.3043587 0.12150445 -0.20579264 -0.034431584 0.11646868 0.048121363 -0.16663653
-0.10425133 -0.041455977 -0.05470202 -0.1727023 -0.0756055 -0.05148631 -0.07427205 0.06663048
-0.43523803 -0.008616967 -0.1240397 0.19943264 0.13608983 0.25414863 0.05041739 -0.2523302
0.33663747 0.2279263 -0.06909175 0.0238771 0.06753721 -0.06277686 0.051448166 0.10056572
0.15092602 -0.054470554 -0.07566976 0.26803118 0.14542256 -0.16959447 0.1568263 -0.2998104
0.020255135 0.13077496 -0.050820377 0.030026698 0.43652955 -0.35846564 -0.21959199 -0.0013657489
-0.1124653 -0.076485485 0.12823163 0.13869822 -0.18921857 0.01297855 0.24789777 0.11266544
0.0018913547 0.017646635 0.0078029544 -0.053878494 0.041955184 0.20773518 0.14672652 0.18056701
-0.014839226 0.12701103 0.41370258 0.3377892 0.11558866 -0.17806001 -0.0008904386 0.18880412
-0.07524186 0.16655129 0.002895741 0.063700825 -0.21835652 -0.0305578 0.029704416 -0.08265829
0.006502316 0.13711135 -0.060957443 -0.14523754 -0.31438613 0.19927429 0.14772122 0.10208644
0.30535147 0.23346803 0.05765857 0.34362522 0.13175593 -0.12778842 0.008096988 0.13940366
-0.19978595 0.14145179 0.057887092 0.009244985 -0.12698229 -0.028038278 -0.06552936 -0.075347744
0.11514762 0.13454266 -0.11328872 0.20154724 0.13624217 -0.2595657 0.019947777 -0.30549267
-0.07513396 -0.07127595 -0.010007674 -0.21098696 -0.049555764 0.06870458 -0.020829115 -0.10994253
0.12280278 -0.054576796 0.09489232 -0.10284179 -0.038397267 0.23851448 -0.08546295 -0.21785013
-0.07212795 0.13670003 0.028688418 -0.08648327 -0.44394553 0.033691626 0.051851165 -0.1867865
-0.026365032 0.2732534 -0.20248559 0.24025048 0.26798078 0.17252456 -0.12615412 -0.031299148
-0.03427318 -0.10145427 -0.14727214 -0.37905052 0.10176186 0.06199787 0.05198566 0.026880832
0.06995573 0.1084046 -0.1426145 0.1849811 0.11224226 -0.088638544 -0.054570153 0.209057
-0.33156365 -0.042382665 0.1006893 -0.27230978 0.21344411 0.034393854 -0.041021265 -0.074108906
0.04487981 0.14038104 -0.098929204 -0.16246456 -0.01719591 -0.00667055 0.26099923 -0.012805449
0.010071734 -0.27482525 -0.11265267 0.031372987 -0.20856069 0.12331631 -0.19076613 0.2980399
0.21684457 -0.048713196 -0.26842874 -0.14050344 0.19249138 -0.020851564 -0.20826308 -0.06321677
-0.005717844 0.0032810185 0.20030363 0.25789952 -0.024798593 -0.25946748 0.0040854234 -0.12475758
-0.005844728 -0.077728644 0.1486903 0.04331269 -0.2685218 -0.1707868 0.14647265 0.0653636

bias f4 [32]
00000000: 0eba 163b 8702 e2bb e301 f8bb 8534 53bb
00000010: 823a 56bc 0e3e e13c 3ea9 f5bc 9bee cd3a
00000020: 3cc3 34bb d3c1 a3bc 45ef 073c 22b8 ffbc
00000030: eace 09bb 8ae3 07bc 3840 66bd 7a45 aebb
00000040: edb5 f03a 7f59 a33b 7982 68ba cdec cfbb
00000050: 9c25 6c3c 40ba f63a 8d51 1bbc 4f00 693c
00000060: 4340 94ba 7284 663c ce4b cebc 2297 8fbb
00000070: 34e8 cab9 58aa ee3b 4b37 ae3c c63a 333b
0.002299908 -0.006897274 -0.0075685843 -0.003222735 -0.013075473 0.02749541 -0.029987928 0.0015711369
-0.002758219 -0.019989884 0.008296792 -0.031215731 -0.0021027871 -0.008293996 -0.056213588 -0.005318341
0.0018364765 0.004985034 -0.00088695396 -0.0063453675 0.014413264 0.0018823817 -0.009479892 0.014221265
-0.0011310655 0.014069663 -0.02518263 -0.00438203 -0.00038701447 0.00728349 0.0212666 0.0027348264

weight f4 [1, 32]
00000000: cb0e 8ebd ad77 8abe db14 0c3d bfeb 81be
00000010: c870 2c3e 87a0 68bd c0fd a93d cd4f 3f3e
00000020: 40b4 02be a82c 883e ff38 903d d008 323e
00000030: 875a 183e 1d4f 23be 9e68 1a3d e50f 0cbf
00000040: a100 563e 8c10 eebc cffc b33e 9e1d abba
00000050: 917a 7d3d 8add ff3b 2b42 d33e a083 91bd
00000060: 410c 1dbe 6d7c f0be fac8 0b3f 965c 2b3e
00000070: 779b 38be 9a57 5c3e 4374 26be 82b1 35bd
-0.06936415 -0.2704443 0.034199577 -0.25375172 0.16839898 -0.056793716 0.08300352 0.18682785
-0.12764072 0.2659657 0.07042121 0.17386174 0.14878283 -0.15948148 0.037697427 -0.54711753
0.20898677 -0.029060625 0.35153815 -0.0013055091 0.061884467 0.007808392 0.4126142 -0.071051836
-0.15336706 -0.4696993 0.5460354 0.16734537 -0.18028055 0.21517792 -0.16255288 -0.044358738
