dehnen.pt (torch, 8463 bytes, 5 tensors)

weight f4 [32, 2]
0	0x3f88d672	1.0690444
1	0x3f2ae40b	0.66754216
2	0xc05d38c4	-3.4565897
3	0xbf4b5229	-0.7942224
4	0x40118a33	2.27406
5	0xbede6206	-0.4343416
6	0xbde4a41d	-0.111641146
7	0xbf4f9942	-0.8109323
8	0xbdc4df2d	-0.0961288
9	0x3eeece4c	0.46641767
10	0x3f3058ac	0.688853
11	0xbf3a8023	-0.7285177
12	0xbedfca46	-0.4370901
13	0xbf9d5f3c	-1.2294688
14	0xc0846572	-4.1373835
15	0x3f1d57f7	0.6146235
16	0xbd492210	-0.04910475
17	0xbe732e5b	-0.23748152
18	0xc082bf6e	-4.085868
19	0x3f0a614d	0.5405472
20	0x40d2c4df	6.586532
21	0xbf058f09	-0.5217138
22	0x406aa3f1	3.6662562
23	0xbf03da45	-0.5150493
24	0xc04588dd	-3.0864785
25	0x3ee9dce0	0.45676327
26	0x408b2373	4.3480773
27	0xbec16535	-0.37772527
28	0xc057e993	-3.3736312
29	0xbff1476b	-1.884992
30	0x3f8ac40e	1.0841081
31	0x403d8433	2.9611938
32	0x40892fbd	4.2870774
33	0xbec2be2d	-0.38035718
34	0xc052e975	-3.295499
35	0x3efa5a72	0.4889713
36	0x4083383b	4.100614
37	0xbf048394	-0.5176327
38	0x3f093f19	0.53611904
39	0x3f413dce	0.7548493
40	0xbefe4926	-0.49665183
41	0xbea620d1	-0.32446912
42	0xbf219287	-0.6311421
43	0x3e988145	0.29786125
44	0xc01960eb	-2.3965404
45	0x3f119e14	0.56881833
46	0xbf079833	-0.5296661
47	0xc0055fa2	-2.083962
48	0x4030c11d	2.7617867
49	0xbf089a71	-0.5336066
50	0x40034632	2.0511594
51	0xbec626c8	-0.38701463
52	0x4042a978	3.0415936
53	0xbf061c2a	-0.52386725
54	0xbd11a110	-0.03555399
55	0xbee6cb4f	-0.45076987
56	0x4018fbb4	2.3903627
57	0x3ecca831	0.3997207
58	0xc0166936	-2.3501716
59	0x3f0df36e	0.5544957
60	0xc099b2df	-4.803085
61	0x3f002deb	0.50070065
62	0x406aea96	3.670568
63	0xbe0e22cb	-0.1388046

bias f4 [32]
0	0x3f49662e	0.7867154
1	0x400f87b8	2.2426586
2	0x3f812cb6	1.009177
3	0x4011afc6	2.2763534
4	0xbf916c69	-1.1361209
5	0x4002edd3	2.0457656
6	0xbe4338a4	-0.19064575
7	0xbfc5affb	-1.544433
8	0x3f1be55d	0.60896856
9	0xbfae9a11	-1.3640767
10	0x3f93213f	1.1494521
11	0x3f9e8b6a	1.2386296
12	0xbf8b3112	-1.087435
13	0x3f5af1f4	0.8552544
14	0x3fbf1037	1.4926823
15	0x3eb44537	0.35209057
16	0x3f633437	0.8875155
17	0xbf8b8d76	-1.0902545
18	0x3f9fa88c	1.2473311
19	0x3e4f4b4f	0.20243572
20	0x3f530475	0.82428676
21	0xbf34bb3c	-0.70598197
22	0xbfb44dae	-1.4086206
23	0xbfe7f5b1	-1.8121854
24	0x3fa83488	1.3141031
25	0x3f5fb441	0.8738442
26	0x3fb227bb	1.3918375
27	0xbe18781a	-0.14889565
28	0xbf60acf8	-0.8776393
29	0xbfb773d6	-1.4332225
30	0xbf987c92	-1.1913016
31	0x3e5d2b9a	0.21598664

weight f4 [32, 32]
0	0x3dab4c94	0.083642155
1	0x3f836b62	1.0267146
2	0xbf56ec1e	-0.83954036
3	0xbf4acd03	-0.79219073
4	0xbf6d1441	-0.9260903
5	0xbf7cb7d3	-0.98717993
6	0xbe63c807	-0.22244273
7	0x3fb7c01c	1.4355502
8	0x3fc113f4	1.5084214
9	0x3fe53aad	1.7908531
10	0xc04a51ff	-3.1612546
11	0xbf70389d	-0.93836385
12	0x3fbd1c69	1.4774295
13	0xc02e603d	-2.724624
14	0xbf278d6a	-0.65450156
15	0x3f7af91a	0.9803635
16	0xbfa5d299	-1.2954894
17	0x40acb8eb	5.397573
18	0xbfe37526	-1.7770126
19	0x3ef6794f	0.48139426
20	0x3f46567b	0.7747571
21	0xbda83232	-0.08212699
22	0xbea790e5	-0.32727733
23	0xbfb3c5a5	-1.4044691
24	0xbe8665ed	-0.26249638
25	0xbeb7cedd	-0.35900012
26	0xbf338982	-0.70131695
27	0xbea4fb27	-0.32222864
28	0xbfac5eae	-1.3466394
29	0xbeb3e6f1	-0.35137132
30	0x4027cdc3	2.6219337
31	0xc02c6884	-2.6938791
32	0x3ef37188	0.47547555
33	0xbc9dade5	-0.019247958
34	0xbf022290	-0.5083399
35	0x3d6f0c72	0.05836148
36	0xbe6836cd	-0.22677155
37	0xbef1e334	-0.47243655
38	0xbf0a1a57	-0.5394644
39	0xbec93c4a	-0.3930381
40	0x3f39dc93	0.72602195
41	0xbea42f9d	-0.32067576
42	0x3e7bc957	0.24588524
43	0x3e4ccc30	0.19999766
44	0x3d54efd6	0.051986538
45	0x3e3be806	0.18350229
46	0x3b8a49dc	0.0042202305
47	0x3e1e3ac5	0.15452106
48	0xbdd3861d	-0.103283145
49	0xbdb9fbe1	-0.09081245
50	0x3db6573a	0.08903356
51	0x3ea05e7a	0.3132208
52	0x3ebf660a	0.37382537
53	0x3f2596cc	0.6468322
54	0x3eaca002	0.33715826
55	0xbf87b854	-1.0603127
56	0x3e9399f1	0.28828385
57	0x3e407211	0.18793513
58	0x3eb2f277	0.3495061
59	0xbe47e2ca	-0.19520107
60	0xbee229fe	-0.44172662
61	0xbe9e15bb	-0.30875954
62	0xbc9b97f7	-0.01899336
63	0xbf5e0e20	-0.86740303
64	0x3f03019b	0.51174325
65	0x3dc15655	0.09440295
66	0xbee4b8a5	-0.44672123
67	0x3b738999	0.0037160872
68	0x3d801b93	0.06255259
69	0xbd697a85	-0.05700161
70	0x3d607fb1	0.054809276
71	0xbdbf05de	-0.09327291
72	0xbd75dc1a	-0.06002436
73	0xbdcde12a	-0.10052712
74	0x3e9f67fb	0.31134018
75	0x3e9dfe5f	0.30858132
76	0xbd162bf6	-0.03666302
77	0xbdaa7c6c	-0.08324513
78	0x3dd86f67	0.10568123
79	0xbe09667c	-0.13418001
80	0xbee36884	-0.44415677
81	0x3ebd1720	0.36931705
82	0x3e61e321	0.22059299
83	0x3eb2a1e1	0.3488913
84	0x3e39fa94	0.18161994
85	0x3ea2904c	0.31750715
86	0x3e168bbb	0.1470174
87	0xbf8d3ac8	-1.1033564
88	0xbe25a48a	-0.16176048
89	0x3ec09088	0.3761027
90	0x3c396005	0.011314397
91	0xbe55567f	-0.20833777
92	0x3d48b9d0	0.04900533
93	0x3e5f996a	0.21835867
94	0x3e353a49	0.17698015
95	0xbd252cba	-0.040325858
96	0x3f1ff5b0	0.62484264
97	0x40f049e6	7.509021
98	0x402d65a2	2.7093282
99	0x40fc127a	7.8772554
100	0xc0938272	-4.6096735
101	0x40faeb1d	7.8412004
102	0xbf4ec7de	-0.80773723
103	0xc027c916	-2.6216483
104	0x4020b28d	2.5108979
105	0xc00ff4d4	-2.2493181
106	0x3fcd3988	1.6033182
107	0x40281e9c	2.6268682
108	0xbfc833e7	-1.5640839
109	0x3f9b1bfc	1.2117915
110	0xbd985916	-0.07438867
111	0x3e13bc10	0.14427209
112	0x3f9d119c	1.2270999
113	0xc04d20c0	-3.205124
114	0x3fe2b85d	1.7712513
115	0x3e934237	0.28761455
116	0x3fa5ee91	1.296343
117	0xc059152c	-3.3919172
118	0xc06916e4	-3.6420221
119	0xbf9a7bde	-1.2069051
120	0x4023857a	2.5550218
121	0x4012fa3e	2.2965236
122	0x401cb2a6	2.4484038
123	0x3f00fdfb	0.50387543
124	0xbfe819c0	-1.8132858
125	0xc0410b66	-3.0163207
126	0xc010f74b	-2.2650936
127	0x3f1f885f	0.6231746
128	0x3e1f3c56	0.1555036
129	0x3fcf8d60	1.6215019
130	0xbfab9fa4	-1.3408093
131	0x40422caf	3.0339773
132	0x3dde44bc	0.10852954
133	0x3fc9b5d8	1.5758619
134	0xbda28ff4	-0.07937613
135	0x4018ee96	2.3895621
136	0x3f0eee7d	0.55832654
137	0x405b582a	3.427256
138	0xc0833cb5	-4.1011605
139	0xc006d7fa	-2.1069322
140	0x400d925a	2.2120576
141	0xc02315bb	-2.5482013
142	0x3dcde062	0.10052563
143	0x3f0d79b1	0.5526381
144	0xc053c9d1	-3.309193
145	0x40226745	2.537553
146	0xc008f5f9	-2.140013
147	0x3e6cf3c6	0.23139867
148	0x3e7a53ea	0.24446073
149	0x3f080ee8	0.53147745
150	0x3fd7a802	1.6848147
151	0x3f021135	0.50807506
152	0xbfc58771	-1.5431958
153	0xbf7f2e70	-0.99680233
154	0xbfbcd9f5	-1.4754015
155	0xbe574e6d	-0.21026011
156	0xbf3334ad	-0.7000225
157	0x3fa33930	1.2751827
158	0x40580c72	3.3757596
159	0xc01c39db	-2.4410312
160	0xbe4aea75	-0.19816001
161	0x4026513b	2.598708
162	0xc0057b59	-2.0856535
163	0x4000c18f	2.0118139
164	0xbec7914e	-0.38978046
165	0x3f78453d	0.9698065
166	0x3da56483	0.08075812
167	0x40208c6e	2.5085711
168	0x3eaf5108	0.3424151
169	0x403731d1	2.8624156
170	0xc0ab094f	-5.3448863
171	0xbffce884	-1.9758458
172	0x403a6bfa	2.9128404
173	0xc072947b	-3.7903125
174	0xbec29baf	-0.38009402
175	0x3d382025	0.04495253
176	0xc020f862	-2.51516
177	0x40463023	3.096688
178	0xc04c7b9a	-3.195044
179	0x3e7f4d7e	0.24931905
180	0x3f970a97	1.1800107
181	0x3f3bdd1e	0.73384273
182	0x3fdf4e38	1.7445745
183	0x3f076bab	0.52898663
184	0xbf45e34a	-0.7729994
185	0xbf84ce18	-1.0375395
186	0xc0061623	-2.095101
187	0x3e3ba80b	0.18325822
188	0xbfb6b4b2	-1.4273894
189	0x3f70cb1b	0.94059914
190	0x40893926	4.288226
191	0xc0907fdb	-4.5156074
192	0x3d9d0585	0.076670684
193	0xc0004dff	-2.0047605
194	0x3e219ef4	0.15783292
195	0xbf7df706	-0.9920505
196	0x3e4eccaa	0.2019526
197	0xbf3b6b22	-0.73210347
198	0xbd28468a	-0.041082896
199	0xbf0d2b28	-0.55143976
200	0xbebf6404	-0.37380993
201	0xbfbe69b5	-1.4876009
202	0x3f529bec	0.8226917
203	0x3f2d1608	0.6761174
204	0xbf119ad8	-0.568769
205	0x3f0ae771	0.542594
206	0xbe8c4033	-0.2739273
207	0xbdba6893	-0.09101977
208	0x3f4f40aa	0.80958045
209	0xbebb07cd	-0.3652939
210	0x3f6c90cc	0.9240844
211	0x3e8cf122	0.2752772
212	0x3e635665	0.22200926
213	0x3e3b788e	0.18307707
214	0xbf0f4919	-0.55970913
215	0xbf5c8191	-0.861352
216	0x3e9a528b	0.301411
217	0x3eef65da	0.46757394
218	0x3d08bf6e	0.033385687
219	0xbea6f0c4	-0.32605565
220	0x3e39fc85	0.18162735
221	0xbe5fa9f6	-0.21842179
222	0xbef40df2	-0.4766689
223	0x3ed68b6b	0.41903242
224	0xbf629da9	-0.8852182
225	0x3f7719fe	0.96524036
226	0x3e97d205	0.2965242
227	0x3e90771c	0.28215873
228	0xbf464ee0	-0.77464104
229	0x3e4084ac	0.1880061
230	0x3ec63fc9	0.3872054
231	0x3eb43fa2	0.35204798
232	0x3df9ef18	0.12203807
233	0x3fa83f60	1.314434
234	0x3d051057	0.032486286
235	0xbf440a1e	-0.7657794
236	0x3ed48371	0.41506532
237	0xbf686e5f	-0.9079341
238	0x3e82af20	0.25524235
239	0xbde2db2d	-0.11076961
240	0xbf18918f	-0.59597105
241	0x3e82f9bb	0.25581154
242	0xbf00a8f1	-0.50257784
243	0xbefa9465	-0.4894134
244	0x3dd0a4cb	0.10187682
245	0xbeb27756	-0.3485667
246	0xbd9e954d	-0.077433206
247	0x3fb005c4	1.375176
248	0xbd84d35a	-0.064856246
249	0xbebe81f5	-0.37208524
250	0xbe3d1ea2	-0.18468717
251	0x3f48f5a5	0.78499824
252	0xbdbc3299	-0.09189338
253	0x3e9e408a	0.30908614
254	0x3ee2879a	0.4424408
255	0xbd59085e	-0.052986495

bias f4 [32]
0	0x3f11d632	0.5696746
1	0x3ee2a482	0.44266135
2	0x3e91f750	0.28508997
3	0x3f22393b	0.63368577
4	0xbb6b5d10	-0.0035913624
5	0xbd8f4cd9	-0.069970794
6	0x3e6b9b50	0.23008466
7	0xbee8f0ee	-0.45496315
8	0xbf986da0	-1.1908455
9	0x3d81a025	0.06329373
10	0x3d312ed0	0.043257535
11	0xbea768e2	-0.32697207
12	0xbf3714aa	-0.71515906
13	0x3f2f96d1	0.685895
14	0x3ed08dbc	0.40733135
15	0x3d92e760	0.071730375
16	0x3ddded31	0.10836256
17	0x3e6acd24	0.22929817
18	0x3e83092d	0.25592938
19	0x3b76cab3	0.003765744
20	0x3cfaed6d	0.030630792
21	0xbe58be10	-0.21166253
22	0x3ee43518	0.44571757
23	0xbcb02b1b	-0.02150493
24	0xbd8c4024	-0.06848171
25	0x3e381b32	0.17979124
26	0xbe957488	-0.2919047
27	0xbe2ec96d	-0.17069025
28	0xbf125fa3	-0.5717718
29	0x3fc1f81c	1.5153842
30	0xbf5d3c14	-0.86419797
31	0x3e0245cb	0.12721936

weight f4 [1, 32]
0	0xbecdeca9	-0.4021962
1	0xc00a755c	-2.163413
2	0xc0167d3d	-2.351394
3	0x401a638d	2.412326
4	0xbffdf7e7	-1.9841279
5	0xc037c35d	-2.871299
6	0xc00586c0	-2.0863495
7	0x3fe33e02	1.7753298
8	0xc00c1be3	-2.189202
9	0xbfff4042	-1.9941485
10	0x4010d481	2.2629702
11	0x400234cb	2.0344722
12	0xbff9e288	-1.9522257
13	0x3fbbbdff	1.4667357
14	0xc00fadd9	-2.2449858
15	0xc00a0760	-2.1567001
16	0xbfefe8ec	-1.8742957
17	0x40aeba76	5.4602613
18	0xbfc7ef10	-1.5619831
19	0x3ff7d3ec	1.9361548
20	0xbf910b5a	-1.1331589
21	0x3ffc49e9	1.9710056
22	0xc01b1510	-2.4231606
23	0x401c519c	2.442481
24	0xbfc6eb43	-1.5540546
25	0xbf8898b6	-1.0671604
26	0x3e8105b2	0.25199658
27	0x3fe61231	1.7974302
28	0x400898df	2.1343305
29	0x401ad695	2.419347
30	0x401188aa	2.2739663
31	0xbfefe7d3	-1.8742622
