test.pth (torch, 4479 bytes, 5 tensors)

linears.0.weight f4 [32, 2]
0.19023153 0.0074419775 1.316324 0.3828713 -0.2190374 0.18858905 0.1447254 0.11683329
-0.46788624 0.100906394 -0.106441975 -0.3991785 0.0032295256 0.44209352 0.10529917 -0.07894578
0.23599899 -0.26111987 0.112092696 -0.4360254 -1.6054535 0.054350976 0.28510794 -0.27557325
0.11259331 0.26236287 0.049250867 -0.024879452 -0.20175391 0.3048812 1.9322019 0.046990495
-0.6633122 -0.011469789 0.1506743 0.12666844 5.1701016 -0.0738204 -0.32230508 -0.0056509427
-0.15835932 0.22148542 -0.26818037 0.37289575 -0.025783211 -0.073341295 3.8511531 -1.233776
-0.090236835 -0.11696123 0.5323682 0.123349704 0.1236494 -0.44061634 0.027265042 -0.4716603
0.5343154 0.24766181 3.044897 -0.041783623 1.3828838 -0.13356711 -0.44141945 -0.2293539
00000000: 0ecc 423e d5db f33b 4e7d a83f b507 c43e
00000010: 574b 60be 7d1d 413e e532 143e 4b46 ef3d
00000020: c98e efbe 03a8 ce3d 40fe d9bd 2061 ccbe
00000030: 73a6 533b 155a e23e 17a7 d73d 53ae a1bd
00000040: b8a9 713e 81b1 85be db90 e53d b93e dfbe
00000050: 807f cdbf 219f 5e3d abf9 913e f017 8dbe
00000060: 5297 e63d 6d54 863e 47bb 493d fecf cbbc
00000070: 9498 4ebe 6319 9c3e 6452 f73f 1b79 403d
00000080: d4ce 29bf c8eb 3bbc 5d4a 1a3e 5fb5 013e
00000090: 7971 a540 262f 97bd 2c05 a5be 8b2b b9bb
000000a0: f228 22be 13cd 623e f04e 89be 31ec be3e
000000b0: 5037 d3bc f633 96bd 4b79 7640 5fec 9dbf
000000c0: 17ce b8bd 5f89 efbd 4849 083f c59e fc3d
000000d0: e63b fd3d 7798 e1be f05a df3c 757d f1be
000000e0: e5c8 083f 0f9b 7d3e 98df 4240 4e25 2bbd
000000f0: 5602 b13f d1c5 08be bb01 e2be c0db 6abe

linears.0.bias f4 [32]
-0.13937053 0.41431043 -0.11428764 0.27370074 0.014739294 -0.008068648 -0.24180992 0.054143537
0.10989105 0.247127 -0.21029319 0.047704354 -0.028705325 -0.16076696 -0.04504241 0.0026637274
0.2558055 0.75046545 0.18840276 0.27558294 -0.15487693 -0.393328 -0.70933676 2.791249
-0.5409636 0.6611862 -0.049356356 0.016791297 0.45034504 0.111123286 0.18829806 -0.76692134
00000000: 26b7 0ebe 7f20 d43e a30f eabd 8122 8c3e
00000010: 147d 713c 5d32 04bc 059d 77be 9dc5 5d3d
00000020: 8f0e e13d dc0e 7d3e 1957 57be a465 433d
00000030: 6e27 ebbc 18a0 24be 647e 38bd ee91 2e3b
00000040: f0f8 823e 811e 403f a7ec 403e 3519 8d3e
00000050: 0f98 1ebe 4a62 c9be 1897 35bf d3a3 3240
00000060: 977c 0abf 8043 293f e429 4abd e78d 893c
00000070: a093 e63e 9b94 e33d 35d1 403e f554 44bf

linears.1.weight f4 [16, 32]
-0.2808679 0.6654817 -0.13250515 0.19664165 0.002459901 -0.50776374 0.5388008 0.044361345
-0.21073999 0.2996201 -0.4772853 0.023460848 0.42702764 -0.24799669 0.042568356 0.4270906
-0.023454366 0.559078 0.142366 0.3033988 -0.092249736 -0.11603114 -0.91458696 0.11998939
-1.1078535 0.4692107 -0.029192971 -0.036875285 0.14257036 0.15425357 -0.07552552 -0.284954
0.010934432 -0.01230737 -0.04376744 -0.048916757 -0.21255489 0.12376933 -0.16520627 0.20179737
-0.1292451 0.31680655 0.028180523 -0.11658965 0.050771005 0.23412791 -0.09222831 0.17318523
0.13080403 -0.34003133 0.14434019 -0.11086248 0.011219501 0.36544397 0.13201267 0.49637383
0.14668693 0.10840611 -0.048722945 0.040993296 -0.07479694 -0.18618342 0.34409517 0.26578125
0.1371188 -0.06370363 0.6160346 -0.20867541 0.47928149 0.3139705 0.019860119 -0.80272764
-0.019290738 -0.39133668 1.6338118 -0.2531329 -0.1302438 -0.26111686 0.09372023 -1.2654742
0.78053343 -0.53476876 -3.5400531 0.2812066 0.38689613 0.43123087 -0.063007556 -4.3364887
0.22878446 -0.19571248 -0.09665418 -0.026533918 -0.27608246 -2.131717 -2.2485495 0.4115077
0.014605151 0.17462023 -0.27573818 -0.18387899 0.2681622 -0.11701017 0.13648336 0.08999108
0.23753573 0.086383455 0.04878087 -0.16797803 0.18832715 -0.21581651 0.25471523 -0.028681844
-0.011277118 -0.19925949 -0.47506517 0.13243093 -0.07612066 0.20431124 0.19953154 -1.5502391
0.16848667 -0.22096534 0.0020793446 -0.067627355 -0.036120176 -0.57991797 -0.12570669 -0.23572032
0.048559416 0.10332534 0.08142539 -0.13394217 0.4353224 -0.0648704 0.22336173 -0.26716352
-0.15795329 -0.03830008 0.14430217 0.24926282 -0.18542212 -0.30557114 0.0580476 -0.50782174
0.38953626 -0.116093636 -0.92702734 0.27208173 -0.004964698 -0.11782931 0.22817527 -1.0993648
-0.10197087 0.12774472 0.29458013 0.13127908 0.29033193 -0.49630386 -0.4352036 -0.09854432
0.89379156 0.62870073 -0.6525162 0.8055863 -1.6225154 0.15209885 0.20968913 0.16623625
0.51672083 0.37260938 -2.3348274 0.37166798 0.430321 0.03377221 -0.75157857 1.9162782
-2.361103 0.73170424 4.3062124 -1.5878605 -0.52026486 -0.58201075 -0.37615877 2.7548082
0.10923188 1.0994244 0.411829 0.6593212 0.63266826 2.932255 1.9062579 -0.33812198
-0.30353495 0.3845272 -0.050544772 0.0915891 0.29696462 -0.13374612 0.16274297 0.114988565
-0.1065765 0.0589905 -0.044928983 -0.056919754 0.14963663 -0.35048267 -0.3645204 0.45773318
-0.32404324 0.1667373 -0.4274575 -0.18364072 0.105178386 0.042079147 -0.08909231 -0.5696931
-0.22221036 0.28069022 -0.13237879 -0.2881039 0.31155688 0.4394554 0.4932497 -0.7343486
-0.024216684 -0.123571485 0.41211864 -0.75024 1.1452703 -0.48965806 0.71905434 -0.9894766
-0.75739247 -0.9156103 1.7581677 -0.76587695 0.47656554 -0.14410663 0.76788825 -0.76991075
0.11055052 -1.1816996 -1.4971403 0.4615228 0.6042104 0.809295 0.84167933 -1.6809312
0.1637428 -1.3844961 -0.18491006 -0.57136506 -0.13948445 -0.8288858 -0.96648085 0.9756123
00000000: ebcd 8fbe 025d 2a3f 6eaf 07be 6e5c 493e
00000010: 4a36 213b cefc 01bf d9ee 093f 3eb4 353d
00000020: 39cc 57be ce67 993e bd5e f4be f730 c03c
00000030: 5ea3 da3e d8f2 7dbe 285c 2e3d 9eab da3e
00000040: 5f23 c0bc bc1f 0f3f 65c8 113e 1657 9b3e
00000050: 6eed bcbd bca1 edbd 5f22 6abf ffbc f53d
00000060: 25ce 8dbf 633c f03e 1926 efbc 8a0a 17bd
00000070: f7fd 113e a6f4 1d3e 20ad 9abd 7ee5 91be
00000080: 5526 333c daa4 49bc 7d45 33bd f05c 48bd
00000090: fda7 59be c67a fd3d d52b 29be f8a3 4e3e
000000a0: d458 04be 7834 a23e d7da e63c 8ec6 eebd
000000b0: 42f5 4f3d 3abf 6f3e 32e2 bcbd 7857 313e
000000c0: 7ef1 053e 9618 aebe eacd 133e de0b e3bd
000000d0: ffd1 373c 791b bb3e 542e 073e b624 fe3e
000000e0: 1935 163e 0604 de3d b691 47bd 96e8 273d
000000f0: 232f 99bd dea6 3ebe 3e2d b03e 7b14 883e
00000100: df68 0c3e 0c77 82bd 72b4 1d3f 02af 55be
00000110: 6264 f53e bec0 a03e b0b1 a23c 8f7f 4dbf
00000120: 9c07 9ebc 485d c8be bf20 d13f a39a 81be
00000130: a15e 05be 1cb1 85be 64f0 bf3d 0ffb a1bf
00000140: 0ad1 473f 9be6 08bf 3b90 62c0 50fa 8f3e
00000150: 4017 c63e 4bca dc3e 1b0a 81bd 84c4 8ac0
00000160: 7946 6a3e da68 48be a0f2 c5bd a95d d9bc
00000170: ae5a 8dbe 0d6e 08c0 3ce8 0fc0 23b1 d23e
00000180: 714a 6f3c a5cf 323e 8e2d 8dbe c64a 3cbe
00000190: 8e4c 893e 07a3 efbd 4bc2 0b3e 3e4d b83d
000001a0: 913c 733e cfe9 b03d 73ce 473d 6f02 2cbe
000001b0: d5d8 403e 01ff 5cbe 096a 823e 30f6 eabc
000001c0: a9c3 38bc ae0a 4cbe be3b f3be f99b 073e
000001d0: 26e5 9bbd f736 513e ff51 4c3e 3c6e c6bf
000001e0: c587 2c3e bd44 62be 9d45 083b 3680 8abd
000001f0: c0f2 13bd 8175 14bf 41b9 00be ab60 71be
00000200: 3de6 463d 3c9c d33d 5bc2 a63d 2328 09be
00000210: 94e2 de3e c6da 84bd f0b8 643e a8c9 88be
00000220: 82be 21be 8be0 1cbd f3c3 133e c13e 7f3e
00000230: 4cdf 3dbe d273 9cbe 52c3 6d3d 9b00 02bf
00000240: 4c71 c73e 80c2 edbd aa51 6dbf 4c4e 8b3e
00000250: e8ae a2bb 7e50 f1bd c7a6 693e fcb7 8cbf
00000260: 1ad6 d0bd 83cf 023e 35d3 963e 066e 063e
00000270: 63a6 943e 8a1b febe 02d3 debe 9bd1 c9bd
00000280: 86cf 643f 88f2 203f 4d0b 27bf e73a 4e3f
00000290: 96ae cfbf cdbf 1b3e bfb8 563e d639 2a3e
000002a0: d147 043f a8c6 be3e d06d 15c0 444b be3e
000002b0: 0953 dc3e bb54 0a3d 7467 40bf 9b48 f53f
000002c0: 501c 17c0 f850 3b3f 7ecc 8940 033f cbbf
000002d0: 1430 05bf a8fe 14bf e297 c0be c74e 3040
000002e0: f7b4 df3d f0b9 8c3f 40db d23e 46c9 283f
000002f0: 8cf6 213f 11aa 3b40 4200 f43f 531e adbe
00000300: ef68 9bbe c0e0 c43e 0908 4fbd 1193 bb3d
00000310: bf0b 983e bef4 08be 18a6 263e 207f eb3d
00000320: c844 dabd 06a0 713d 7407 38bd b024 69bd
00000330: 583a 193e 7772 b3be 6ba2 babe 015c ea3e
00000340: ffe8 a5be 2fbd 2a3e b6db dabe 500c 3cbe
00000350: c467 d73d 2f5b 2c3d 0776 b6bd 68d7 11bf
00000360: 1d8b 63be a1b6 8f3e 4e8e 07be 5b82 93be
00000370: 6284 9f3e 4c00 e13e 3a8b fc3e 45fe 3bbf
00000380: 1162 c6bc 0c13 fdbd 3701 d33e bb0f 40bf
00000390: 3898 923f 76b4 fabe f213 383f 574e 7dbf
000003a0: 79e4 41bf 7065 6abf a40b e13f 8310 44bf
000003b0: 6600 f43e b090 13be 5394 443f df18 45bf
000003c0: 5068 e23d ef41 97bf 4ba2 bfbf b74c ec3e
000003d0: 88ad 1a3f f52d 4f3f 4c78 573f c128 d7bf
000003e0: 31ac 273e 2b37 b1bf 1059 3dbe fb44 12bf
000003f0: 03d5 0ebe dc31 54bf 4a6b 77bf bac1 793f

linears.1.bias f4 [16]
0.7068487 -0.27863213 -0.036045756 0.08179905 0.2096218 0.04253538 0.26247156 -0.54803944
0.19199048 -0.27216023 0.3316089 -0.2964377 -0.33360973 -0.30233344 -0.19591369 -0.2466967
00000000: 09f4 343f dfa8 8ebe b7a4 13bd 4386 a73d
00000010: 19a7 563e 9439 2e3d ac62 863e 504c 0cbf
00000020: 2799 443e 9658 8bbe a4c8 a93e afc6 97be
00000030: e5ce aabe 73cb 9abe 999d 48be 0f9e 7cbe

linears.2.weight f4 [1, 16]
-0.72668064 0.6541038 -1.1637518 -1.5712143 -0.95726335 2.7937608 -0.5620914 -1.7009524
-0.8991598 1.3146433 -1.0647016 1.3947003 0.9344049 1.1359582 1.3051566 1.5345479
00000000: be07 3abf 5973 273f d2f5 94bf 8d1d c9bf
00000010: 360f 75bf facc 3240 39e5 0fbf cfb8 d9bf
00000020: 562f 66bf 3b46 a83f 2448 88bf 8a85 b23f
00000030: 2935 6f3f 1467 913f 5f0f a73f 116c c43f
