models/dehnen.pt (torch, 17915 bytes, 9 tensors)

weight f4 [32, 2]
0	0x3e00d29a	0.12580338
1	0x3da862ea	0.08221991
2	0xbe8b8635	-0.2725083
3	0x3de04686	0.10950951
4	0x3e98d55c	0.2985028
5	0x3caeb632	0.021327112
6	0xbf5d9634	-0.86557317
7	0x3e8c3061	0.2738066
8	0x3e8056c1	0.25066188
9	0xbf1e625a	-0.6186882
10	0x3964d208	0.00021822017
11	0x3e13f3bb	0.14448445
12	0x3effa2ca	0.49928886
13	0xbd7b89f1	-0.061410848
14	0xbe99c836	-0.3003556
15	0x3cc39ed0	0.023879439
16	0x3f569224	0.8381674
17	0xbe24e69c	-0.16103595
18	0x3fd04d41	1.6273576
19	0xbe87c9d7	-0.2652118
20	0xbf6034e9	-0.87580734
21	0xbd88c8f2	-0.06678952
22	0x3ea0549c	0.31314552
23	0x3e24780b	0.16061418
24	0xbeb8b599	-0.36076048
25	0xbe16fd3a	-0.14745036
26	0xbefba39e	-0.49148268
27	0x3d6b4aa4	0.05744423
28	0xbec170ac	-0.37781274
29	0x3ebad659	0.3649166
30	0xbf122fba	-0.57104075
31	0xbda0a777	-0.078444414
32	0xbf9761a8	-1.1826677
33	0x3e4dff45	0.20116909
34	0xbe4405b9	-0.19142808
35	0xbc957458	-0.018243954
36	0x3db3f0d5	0.087861694
37	0xbe18e4b7	-0.14930998
38	0x3e6f4a69	0.23368229
39	0xbed91e25	-0.4240581
40	0x3e4ec130	0.20190883
41	0xbd32fbd5	-0.043697197
42	0xbceb7fb8	-0.028747424
43	0xbe611a33	-0.2198265
44	0x3d0f9706	0.035056137
45	0xbe5d117b	-0.215887
46	0xbe2d77ab	-0.16940181
47	0xbdad5f10	-0.08465397
48	0xbdf2d985	-0.11857895
49	0xbe13fe64	-0.14452511
50	0xbef158de	-0.47138113
51	0xbdeb3847	-0.114853434
52	0x3e0257dd	0.1272883
53	0x3e8cd639	0.2750719
54	0x3dfd24f4	0.12360564
55	0x3dfcc829	0.12342865
56	0x3f0926e9	0.53575
57	0xbd2edda5	-0.042691845
58	0x3e1dcf48	0.15411103
59	0x3d569ff9	0.052398656
60	0x3f005f51	0.5014544
61	0xbea85f91	-0.3288541
62	0x3e426220	0.18982744
63	0x3e3aa0c2	0.18225387

bias f4 [32]
0	0xbd9814b4	-0.07425824
1	0xbd6f751f	-0.058461305
2	0x3ee7ee79	0.45299128
3	0xbf040861	-0.51575285
4	0x3dcba6dd	0.09943936
5	0x3de33225	0.11093549
6	0xbcbf93f4	-0.02338598
7	0xbd1ad632	-0.03780193
8	0x3ea6d863	0.32586965
9	0x3f16e896	0.5894865
10	0xbf081daa	-0.53170264
11	0x3e541833	0.20712356
12	0xbf034af9	-0.51286274
13	0xbd81c9f1	-0.063373454
14	0xbe13bba1	-0.14427043
15	0x3e02ed6b	0.1278588
16	0xbeeede55	-0.46654
17	0x3d04a7de	0.032386653
18	0x3d7142ef	0.058901723
19	0x3ecc5e07	0.39915487
20	0x3dd5372b	0.10410913
21	0x3ebaa9a5	0.36457554
22	0x3edd26a6	0.4319355
23	0x3c45e6dc	0.012078967
24	0xbe3077e4	-0.17233235
25	0x3e318944	0.17337519
26	0xbdca1ba4	-0.09868553
27	0xbe4d665b	-0.20058577
28	0x3d75ea8d	0.06003814
29	0x3e337323	0.1752439
30	0x3ea5ec43	0.32406816
31	0xbdb7b33b	-0.089697324

weight f4 [32, 32]
0	0xbe10b15c	-0.14130157
1	0x3ef4941f	0.47769257
2	0xbf424bc3	-0.75896853
3	0x3f962930	1.173132
4	0xbf060e75	-0.5236581
5	0xbe224cc7	-0.158496
6	0xbf6d60d0	-0.9272585
7	0x3ee4c0f8	0.44678473
8	0xbfa3a6e9	-1.2785312
9	0xc01be518	-2.4358578
10	0x3f1afb04	0.6053927
11	0xbebfecff	-0.374855
12	0x3f00d25a	0.5032097
13	0x3fa61853	1.2976173
14	0x3f051ee1	0.5200024
15	0x3f052b92	0.5201961
16	0x400b98a3	2.1811912
17	0x3f0bae65	0.5456298
18	0xbf0e4d82	-0.5558702
19	0xbf0178a5	-0.50574714
20	0xbf13b41c	-0.576967
21	0xbea6b113	-0.32556972
22	0xbe785442	-0.24250892
23	0x3e952515	0.29129854
24	0x3ed08e0b	0.4073337
25	0x3f1eeb95	0.6207822
26	0x3eb912a2	0.36147028
27	0xbeb87faf	-0.36034915
28	0xbf93b9d3	-1.1541084
29	0xbf1d8fef	-0.6154775
30	0xbf2fde35	-0.68698436
31	0xbe416914	-0.1888774
32	0xbe574a54	-0.21024448
33	0x3e35f4e5	0.17769201
34	0x3d513636	0.05107709
35	0xbdbb0451	-0.09131683
36	0x3e9dbfef	0.30810496
37	0xbeb5cc50	-0.3550744
38	0xbc194405	-0.009354596
39	0x3dbe883f	0.09303331
40	0xbcf0da26	-0.029400896
41	0xbe2261ee	-0.1585767
42	0x3b83e158	0.004024666
43	0xbe4a41aa	-0.19751611
44	0x3e85a45b	0.26101956
45	0x3e221ebb	0.15832035
46	0x3e5fe7f4	0.21865827
47	0x3eba1f29	0.36351898
48	0xbe9c5f10	-0.30541277
49	0x3e9516f7	0.29119083
50	0xbe725c46	-0.23668012
51	0x3d2392d0	0.039934933
52	0xbd8b082d	-0.06788669
53	0x3f0bc9db	0.5460488
54	0x3ecac315	0.3960196
55	0xbdaff606	-0.08591847
56	0x3e99985f	0.29999062
57	0x3e88d229	0.2672284
58	0x3b82213a	0.003971246
59	0x3c97d394	0.018533505
60	0x3e86fc3f	0.26364323
61	0x3be7784f	0.0070639024
62	0x3ea5349e	0.32266706
63	0xbb57139a	-0.003281808
64	0x3ea89483	0.32925805
65	0xbb1c8931	-0.0023885483
66	0x3e6bc7a4	0.23025376
67	0x3e7b50e8	0.24542582
68	0x3f279c94	0.65473294
69	0x3e2d5229	0.16925873
70	0x3eadc0ff	0.33936307
71	0xbd812d70	-0.06307495
72	0xbd63444d	-0.05548506
73	0xbdd59887	-0.10429483
74	0xbf0ebe9f	-0.55759615
75	0x3ed846ab	0.42241415
76	0xbe06f10d	-0.13177891
77	0xbd6852da	-0.05671964
78	0xbebaebf7	-0.36508152
79	0xbf72d7b9	-0.94860417
80	0xbe60aa4a	-0.2193996
81	0xbf086403	-0.53277606
82	0xbccc9894	-0.024975099
83	0x3df657b8	0.1202845
84	0x3e03855f	0.12843846
85	0xbe24a2ad	-0.16077681
86	0xbeaed87f	-0.34149548
87	0xbd1323a0	-0.035922647
88	0xbf07f2c4	-0.53104806
89	0xbf35e5c0	-0.71053696
90	0x3d28ab69	0.041179094
91	0x3e54acbd	0.2076902
92	0x3ed870ef	0.42273661
93	0x3e5add45	0.2137347
94	0x3e5a48b3	0.21316795
95	0x3e9393f3	0.28823814
96	0x3ee4cd2b	0.4468778
97	0xbd673b90	-0.056453288
98	0x3e98b762	0.2982741
99	0xbea6bc77	-0.32565662
100	0xbdaeecf1	-0.08541287
101	0x3f091a8c	0.5355613
102	0x3e675c82	0.22593883
103	0xbe43df91	-0.19128253
104	0x3d07d89c	0.03316556
105	0x3db93f71	0.090453036
106	0xbed56ed9	-0.41686133
107	0x3eb8b779	0.3607748
108	0xbe590e59	-0.2119688
109	0xbe06cc67	-0.13163911
110	0xbe611f66	-0.21984634
111	0xbe3b3cbd	-0.18284889
112	0xbe915249	-0.2838309
113	0xbd40c9b1	-0.047067348
114	0xbe40f8c2	-0.18844894
115	0xbeaaa0d9	-0.33325842
116	0x3d189096	0.037247263
117	0x3d8e6b57	0.06954067
118	0x3ec635f1	0.3871303
119	0x3aa2ccc6	0.0012420646
120	0xbe9348ae	-0.28766388
121	0xbc3a7449	-0.011380264
122	0x3e144eb5	0.1448315
123	0x3daa2f73	0.083098315
124	0xbde78a20	-0.11305642
125	0x3e78dc3f	0.24302767
126	0x3daa16be	0.08305119
127	0x3ea91470	0.33023405
128	0x3c073008	0.008251198
129	0xbe10e490	-0.1414969
130	0x3df25f36	0.11834566
131	0xbd806e5b	-0.06271049
132	0xbe51e47e	-0.20497319
133	0x3e148d64	0.14507061
134	0xbe201912	-0.15634564
135	0x3eda5bbb	0.4264811
136	0xbddb6693	-0.10712924
137	0xbdf08b8f	-0.11745369
138	0x3e89b75c	0.26897705
139	0x3d3d5daf	0.04623192
140	0xbad398e6	-0.001614359
141	0x3bbe20f6	0.005802269
142	0xbe38ed7d	-0.18059345
143	0x3d965c5d	0.07341836
144	0xbdf882ff	-0.121343605
145	0x3d5e1310	0.0542174
146	0xbd009bb9	-0.03139851
147	0xbe160750	-0.14651227
148	0x3cbe8d8a	0.02326085
149	0xb9c9a28a	-0.0003845881
150	0xbecf5cef	-0.4050059
151	0x3d200804	0.039070144
152	0xbe207e6e	-0.15673229
153	0xbd98b2ee	-0.07456003
154	0x3e46713c	0.19379133
155	0x3d9bb3f5	0.076026835
156	0x3e01cc75	0.1267565
157	0x3c1b1f42	0.009467902
158	0xbeb0c46d	-0.3452486
159	0x3edc1536	0.42984933
160	0xbe8f89d8	-0.28034854
161	0xbb9924e5	-0.0046735876
162	0x3e180552	0.1484578
163	0xbe0410dc	-0.12897056
164	0x3cb7342a	0.022363741
165	0x3d511329	0.051043663
166	0x3e207a38	0.15671623
167	0xbd054eae	-0.032545738
168	0x3ea17741	0.31536296
169	0xbdf90656	-0.121594116
170	0xbdcfd2c2	-0.10147621
171	0xbe388f8e	-0.18023512
172	0x3c66a127	0.014076508
173	0x3e37c4b6	0.17946133
174	0x3ea0ca75	0.31404462
175	0x3e8a06ab	0.26958212
176	0xbca7e60e	-0.02049544
177	0x3c6a2a42	0.014292302
178	0xbbf1d8b4	-0.0073805694
179	0xbd50f04b	-0.05101041
180	0xbe758da3	-0.23979811
181	0xbe3f09cc	-0.18656081
182	0x3b4728c0	0.003038928
183	0x3dd09c52	0.10186066
184	0xbd4955be	-0.049154036
185	0xbebff748	-0.37493348
186	0x3e1943f3	0.14967327
187	0xbe0115af	-0.12605928
188	0xbe09af81	-0.13445856
189	0x3c170d95	0.009219547
190	0xbe79ba9f	-0.24387597
191	0x3e0ffcf6	0.1406134
192	0x3e959236	0.29213113
193	0x3db33c24	0.08751705
194	0x3e8c63c1	0.27419856
195	0x3e6bee9c	0.23040241
196	0x3a9c9e96	0.0011949118
197	0x3d9fae1d	0.07796881
198	0xbee3e1eb	-0.445083
199	0xbea99bc4	-0.33126652
200	0x3e82e09c	0.25561988
201	0x3e333778	0.17501628
202	0xbf5420e5	-0.82862693
203	0x3e834699	0.256398
204	0xba7269c3	-0.0009247327
205	0xbda23bb3	-0.07921543
206	0xbeb2f064	-0.34949028
207	0xbe694f6a	-0.227842
208	0xbf024508	-0.50886583
209	0xbe8f82a0	-0.28029346
210	0xbdf37f72	-0.11889543
211	0x3d2279cd	0.03966694
212	0xbcdee348	-0.027207986
213	0x3ea49913	0.32148036
214	0x3e40659d	0.18788762
215	0xbe32b5c5	-0.17452152
216	0xbe4dc7f0	-0.20095801
217	0xbee542e7	-0.44777605
218	0x3dc3f9ce	0.09569131
219	0x3e30e265	0.17273863
220	0xbcc007c0	-0.023441195
221	0x3e2faa35	0.17154773
222	0xbe9c13a3	-0.30483732
223	0x3e762130	0.24036098
224	0xbdfba376	-0.12287037
225	0xbe09ac37	-0.13444601
226	0x3e4bbd37	0.19896398
227	0xbe48cdc6	-0.19609746
228	0xbe1d5294	-0.15363532
229	0xbcb06ea3	-0.02153713
230	0xbd89b11e	-0.067232355
231	0x3e0682a7	0.13135777
232	0x3c945840	0.018108487
233	0x3b952f96	0.004552792
234	0xbdad324f	-0.08456861
235	0xbe041e1a	-0.12902108
236	0x3e1c752c	0.15279073
237	0x3d9aafb1	0.07553042
238	0xbce65db8	-0.02812086
239	0x3da63b66	0.08116798
240	0x3c7d5ba2	0.0154637415
241	0x3e1e686f	0.15469526
242	0xbe185420	-0.14875841
243	0xbea0a11d	-0.3137292
244	0xbcd05321	-0.025430264
245	0x3dfa4244	0.122196704
246	0x3a0b780a	0.00053203164
247	0xbea73406	-0.32656878
248	0xbe77715d	-0.24164338
249	0x3e8e76d7	0.27825043
250	0xbe230df5	-0.15923293
251	0xbce403ba	-0.027833808
252	0xbe8f21eb	-0.27955565
253	0x3c1b2aa5	0.0094706165
254	0xbe1a0771	-0.15041901
255	0x3dd99739	0.106245466

bias f4 [32]
0	0xbf0b86f0	-0.54502773
1	0xbcdabce2	-0.026701394
2	0x3dd9aca5	0.106286325
3	0x3ed7106a	0.4200471
4	0xbd9ea129	-0.077455826
5	0xbd327385	-0.0435672
6	0x3ea44a39	0.32087877
7	0xbbff6dfa	-0.0077950926
8	0x3bd242e9	0.0064166677
9	0xbd716fda	-0.05894456
10	0x3d37b87f	0.044853684
11	0x3d723c09	0.059139285
12	0xbe02c2dc	-0.12769645
13	0x3eb06147	0.34449217
14	0x3df2fd30	0.11864698
15	0xbdd6d107	-0.104890876
16	0x3e9e3a4d	0.30903855
17	0xbde56d49	-0.11202485
18	0x3d9be1ea	0.07611449
19	0x3df770bc	0.12082049
20	0xbdd2fbd5	-0.103019394
21	0x3d9de3c8	0.077094615
22	0xbe210a3d	-0.15726562
23	0xbd893025	-0.06698636
24	0xbdb83e13	-0.08996215
25	0xbdbc1fc7	-0.091857485
26	0xbe915c09	-0.2839053
27	0x3e07ed2d	0.13274069
28	0xbdec18bd	-0.11528156
29	0x3eb85e54	0.36009467
30	0xbe0d37d7	-0.13790832
31	0x3dda2079	0.10650725

weight f4 [32, 32]
0	0xbde14e22	-0.11001231
1	0xbd7cb9b7	-0.06170055
2	0x3e1155d6	0.141929
3	0xbe29f1c2	-0.1659613
4	0x3d2583f4	0.040409043
5	0xbd808263	-0.06274869
6	0xbdfa320a	-0.122165754
7	0x3e7a5d2f	0.24449609
8	0xbed0b530	-0.40763235
9	0xbd39e151	-0.045380894
10	0xbed3831e	-0.41310972
11	0xbea61687	-0.32439062
12	0x3edad766	0.4274246
13	0xbead77e2	-0.33880526
14	0xbe6cfd0a	-0.23143402
15	0x3e48aecc	0.1959793
16	0xbebc037f	-0.36721417
17	0x3d332f6a	0.04374639
18	0xbcff0639	-0.031130897
19	0xbe088591	-0.13332202
20	0x3db4a954	0.08821359
21	0xbda0c977	-0.07850926
22	0xbc452b1f	-0.012034207
23	0x3c9bf4c3	0.01903761
24	0xbe6eaebf	-0.23308848
25	0x3d573e57	0.052549686
26	0x3dc791cf	0.09744608
27	0xbea137f7	-0.3148801
28	0xbd99452a	-0.07483895
29	0xbe908018	-0.28222728
30	0xbe9a8860	-0.3018217
31	0x3da04ff9	0.078277536
32	0x3ee8c591	0.4546323
33	0x3d8788c4	0.06617883
34	0x3e5f0116	0.21777758
35	0xbe7076dd	-0.23482843
36	0xbe393a1f	-0.18088578
37	0xbe2eeb3e	-0.17081925
38	0xbd2b4020	-0.0418092
39	0xbe9e9696	-0.30974263
40	0x3eafe787	0.3435633
41	0x3e472976	0.1944941
42	0x3d90a800	0.070632935
43	0xbea34502	-0.31888586
44	0x3d29850d	0.041386653
45	0xbe8a37b8	-0.26995635
46	0x3e108250	0.1411221
47	0x3d9d282e	0.07673679
48	0xbd7271fa	-0.059190728
49	0xbe0b3663	-0.13594966
50	0x3e86cb53	0.26327
51	0x3bc98c39	0.006150749
52	0x3e295b28	0.1653868
53	0xbe9e3fb4	-0.30907977
54	0x3c84db27	0.016217781
55	0x3dc06867	0.09394913
56	0xbe1f61a7	-0.15564595
57	0xbcdd1b6e	-0.026990619
58	0x3e19cbce	0.15019152
59	0xbe9e1c79	-0.30881098
60	0x3eb3b5e3	0.35099706
61	0xbdd32136	-0.10309069
62	0x3cb2577d	0.021770233
63	0xbddb6887	-0.107132964
64	0x3fc8ee7d	1.5697781
65	0x3e4c7702	0.19967273
66	0xbd992e93	-0.074795865
67	0xbea4c92e	-0.32184738
68	0xbdb530ac	-0.08847174
69	0xbe3d2691	-0.18471743
70	0xbe7b559a	-0.24544373
71	0xbece120a	-0.40248138
72	0xbe735e97	-0.23766552
73	0x3ecfd23d	0.40590087
74	0x3b73b845	0.003718869
75	0x3db74420	0.08948541
76	0x3da37e64	0.079830915
77	0xbe831176	-0.2559926
78	0x3c8c39dd	0.017117435
79	0x3e7489ff	0.23880766
80	0xbf032fbb	-0.51244706
81	0x3e18327e	0.14863011
82	0xbd846408	-0.06464392
83	0x3e6495e4	0.22322804
84	0xbd8e4a78	-0.069477975
85	0x3e483a49	0.19553484
86	0xbe677010	-0.22601342
87	0x3f3c434a	0.73540175
88	0x3f443cc1	0.76655203
89	0x3d87a480	0.06623173
90	0x3fcdc84f	1.6076754
91	0xbef2bd22	-0.47409922
92	0x3f379de9	0.71725327
93	0xbdf824c3	-0.12116387
94	0xbdc10736	-0.094252035
95	0xbf2b1153	-0.6682331
96	0xbcfd37c6	-0.030910384
97	0xbe241132	-0.16022184
98	0x3e681bc7	0.22666846
99	0xbf061ec7	-0.5239071
100	0x3e808106	0.25098437
101	0xbe59ba12	-0.21262386
102	0x3e6050ec	0.21905869
103	0x3d1bcd23	0.03803743
104	0xbe624eeb	-0.22100417
105	0xbd169dd2	-0.036771603
106	0x3e273ef2	0.16332605
107	0xbe2bdad9	-0.16782703
108	0xbb427631	-0.0029672498
109	0xbd0eb4b0	-0.034840286
110	0xbdbb278e	-0.09138404
111	0x3d5f7b77	0.054561105
112	0xbefecfc9	-0.49767902
113	0xbd8c2d01	-0.06844521
114	0x3e0fff1e	0.14062163
115	0x3c204dd2	0.009784179
116	0x3ea03984	0.3129388
117	0x3e1255aa	0.14290491
118	0x3d6263c9	0.055270944
119	0xbd2fa409	-0.042881045
120	0xbdf8380d	-0.12120066
121	0xbc8c871c	-0.017154269
122	0x3e22dc3f	0.1590433
123	0xbe20eda4	-0.15715653
124	0x3bb32b0b	0.0054677776
125	0x3e0c1962	0.13681558
126	0xbb86dc2a	-0.004115601
127	0x3e126c75	0.14299186
128	0x3f02a4cf	0.5103273
129	0x3d03fb42	0.03222204
130	0x3f20f311	0.6287089
131	0x3e81c107	0.2534258
132	0xbedd7e6b	-0.43260512
133	0xbd6143bb	-0.054996233
134	0x3e970c73	0.29501686
135	0xbe7741d8	-0.24146211
136	0xbd269870	-0.04067272
137	0x3db54924	0.08851841
138	0xbd41412b	-0.04718129
139	0x3be33ed1	0.0069349785
140	0x3dfcd473	0.12345209
141	0xbca2983a	-0.019847978
142	0x3e9f44fb	0.31107315
143	0xbe847354	-0.25869238
144	0x3f17faf9	0.5936733
145	0xbd357318	-0.044299215
146	0xbda745a7	-0.08167582
147	0x3e3882eb	0.18018691
148	0xbde67158	-0.11252087
149	0x3f294335	0.66118175
150	0x3e134a23	0.1438375
151	0x3dfbac80	0.12288761
152	0xbe6b2a32	-0.22965315
153	0xbc9fbf4e	-0.0195004
154	0x3eb738e6	0.35785598
155	0x3eba3567	0.36368868
156	0xbe3cbd0c	-0.1843149
157	0x3ef27d99	0.47361448
158	0xbe4eecaa	-0.20207468
159	0x3f1b7e93	0.6074001
160	0xbe5458ab	-0.20736949
161	0xbe3881a0	-0.18018198
162	0xbd00c2d9	-0.03143582
163	0xbcd2848c	-0.025697969
164	0x3e3c7f35	0.184079
165	0xbe09bf23	-0.13451819
166	0xbc951cb8	-0.01820217
167	0xbecb8cdf	-0.39755914
168	0xbd85dc05	-0.06536106
169	0x3d67fb3e	0.056636088
170	0x3d9a2c50	0.07527983
171	0xbecd42f5	-0.40090147
172	0x3d130b9e	0.03589975
173	0x3d81a158	0.06329602
174	0xbe0c11d6	-0.13678679
175	0xbe45ee14	-0.19329101
176	0xbcf6df35	-0.03013573
177	0x3e2ec9f2	0.17069224
178	0x3c19b109	0.009380587
179	0xbe8d87ce	-0.27642673
180	0xbc34ea85	-0.011042242
181	0xbdc59bc7	-0.09648853
182	0x3e8136c4	0.25237095
183	0x3d661300	0.056170464
184	0x3e14ed58	0.14543664
185	0xbe66fbf2	-0.22557047
186	0xbdfdb422	-0.12387873
187	0x3c69d508	0.014271982
188	0xbd8f2406	-0.06989293
189	0xbd4c9aa6	-0.04995217
190	0x3dc3ae26	0.095547006
191	0xbd2a038c	-0.04150729
192	0xbce1eb37	-0.02757798
193	0xbe3287a3	-0.17434554
194	0x3e564292	0.20923832
195	0x3edc9c3d	0.4308795
196	0xbdf364d3	-0.11884465
197	0x3e424352	0.18970993
198	0xbcf53485	-0.02993227
199	0x3c6bb9fb	0.014387603
200	0xbe472be4	-0.19450337
201	0x3d9f5a65	0.07780913
202	0x3e1cede6	0.15325126
203	0xbdd5ec42	-0.10445453
204	0xbf09ca06	-0.5382389
205	0x3f385b97	0.72014755
206	0xbcc98c8e	-0.024603155
207	0x3ee1c657	0.44096634
208	0xbe6b1409	-0.22956862
209	0xbecf5cf7	-0.40500614
210	0x3e8af4ab	0.27139792
211	0x3e467f90	0.19384599
212	0xbedc0c4a	-0.42978126
213	0xbe161d1c	-0.14659542
214	0x3e44726a	0.1918427
215	0xbe43c339	-0.1911744
216	0xbdb27fd1	-0.08715785
217	0x3e43a903	0.19107442
218	0x3deb8bfa	0.11501308
219	0xbe1e821b	-0.15479319
220	0xbe587f80	-0.21142387
221	0x3e030d7d	0.12798114
222	0x3c20a2b6	0.009804418
223	0x3effcd1b	0.4996117
224	0x3e81d0a0	0.2535448
225	0xbd92b656	-0.07163684
226	0x3d9a504b	0.07534846
227	0x3ea3a7a7	0.31963846
228	0x3df8635e	0.12128328
229	0x3e6fdb2b	0.2342345
230	0xbe975609	-0.29557827
231	0x3e3060f6	0.17224488
232	0xbd7ffc32	-0.06249637
233	0x3ed9c4bd	0.42532912
234	0x3da5936b	0.08084758
235	0xbe461e2d	-0.19347449
236	0xbe368290	-0.17823243
237	0xbd62ef0c	-0.055403754
238	0x3c70a536	0.014687827
239	0xbd55861c	-0.05212985
240	0x3d13339b	0.035937887
241	0xbd4d2985	-0.050088424
242	0x3e029a87	0.1275426
243	0xbf11a485	-0.5689166
244	0xbda20c20	-0.07912469
245	0x3a28e8c8	0.00064433785
246	0xbe8e9a03	-0.27851877
247	0xbe483fc2	-0.19555572
248	0x3e3e4ea5	0.18584688
249	0x3df90f92	0.12161173
250	0xbe161db5	-0.1465977
251	0x3de31c3b	0.11089369
252	0x3e79b8ea	0.24386945
253	0x3d4ad7c0	0.04952216
254	0xbeeeeb41	-0.4666386
255	0x3e16d8bc	0.14731115

bias f4 [32]
0	0xbe07e4cb	-0.13270871
1	0xbd389a7e	-0.04506921
2	0xbe56742f	-0.20942758
3	0xbd55f955	-0.052239735
4	0x3dc0f1ff	0.09421157
5	0xbc7b296a	-0.015329698
6	0x3e5ad547	0.21370421
7	0x3dcbc81d	0.09950278
8	0x3e3853f5	0.18000777
9	0x3da5eddb	0.08102008
10	0xbd7e0fe9	-0.06202689
11	0x3d3e6ed4	0.046492413
12	0xbe005b14	-0.12534744
13	0x3df334b3	0.11875286
14	0x3e2a4553	0.16628008
15	0x3e034bc5	0.12821873
16	0xbe6900a1	-0.22754146
17	0xbc244836	-0.010026982
18	0xbda69b9f	-0.08135151
19	0xbbef26be	-0.0072983196
20	0xbd949d9b	-0.07256623
21	0x3c56ad53	0.013102847
22	0x3d31700d	0.04331975
23	0xbd4e14ce	-0.05031281
24	0xbd1e5b90	-0.03866154
25	0x3d787af9	0.06066415
26	0xbd46d6fe	-0.048544876
27	0x3e08f30b	0.13373964
28	0xbd81bd64	-0.063349515
29	0x3def7e08	0.116939604
30	0xbe1df775	-0.15426429
31	0x3d77b212	0.060472555

weight f4 [32, 32]
0	0xbe0d7abf	-0.13816355
1	0x3e0a5f9c	0.13513035
2	0x3c89eb47	0.016835822
3	0xbd8ee64e	-0.06977521
4	0x3e6f095e	0.23343417
5	0x3d9b8289	0.07593257
6	0x3e2c44e2	0.16823152
7	0xbd471a7b	-0.048609238
8	0xbec5f401	-0.38662723
9	0xbd514f60	-0.05110109
10	0xbe3abdeb	-0.1823651
11	0x3e016cec	0.12639207
12	0xbe43e4dd	-0.19130273
13	0x3e5c4fed	0.21514864
14	0xbe89a2df	-0.26882073
15	0x3e79bf20	0.24389315
16	0xbdeeac49	-0.116539545
17	0x3e3aa64a	0.18227497
18	0x3df26980	0.11836529
19	0x3e5239d2	0.20529869
20	0xbd09ab3f	-0.03361058
21	0xbeab6dde	-0.3348226
22	0xbed5dce3	-0.41770086
23	0xbe914c3e	-0.2837848
24	0x3dc5d325	0.09659413
25	0xbe9ad918	-0.30243754
26	0xbea5e417	-0.3240058
27	0xbd1f13f6	-0.038837396
28	0xbe0d55aa	-0.1380221
29	0xbeaf2424	-0.3420726
30	0xbe061df0	-0.13097358
31	0xbda918c9	-0.082566805
32	0xbe7c050e	-0.24611303
33	0xbe43023f	-0.19043826
34	0xbd87f5fc	-0.06638715
35	0x3e705cbe	0.23472878
36	0xbe5c6bcc	-0.21525496
37	0x3dfafe9a	0.12255593
38	0xbdbf9b60	-0.09355807
39	0xbe3f7df9	-0.18700399
40	0x3ef6a67d	0.48173895
41	0xbc305eb7	-0.010764769
42	0x3baf0618	0.0053413026
43	0x3e962743	0.2932683
44	0x3da5fcdc	0.0810487
45	0x39d5f89a	0.00040811748
46	0x3ee1a979	0.4407461
47	0xbecd3463	-0.4007903
48	0x3e75654e	0.23964426
49	0xbd471a94	-0.04860933
50	0x3e922aee	0.28548378
51	0xbe63800b	-0.22216813
52	0x3d6f40bd	0.05841135
53	0x3d7b796d	0.061395098
54	0xbe16da08	-0.1473161
55	0x3e0ea206	0.13928995
56	0x3f1a3c00	0.602478
57	0x3c9d90ee	0.019234147
58	0xbe420076	-0.18945488
59	0x3e40f2c9	0.18842615
60	0x3b2c5ed8	0.0026301648
61	0x3d96d88c	0.07365522
62	0x3d329ca0	0.0436064
63	0x3c7bea02	0.015375616
64	0x3e224065	0.15844877
65	0xbe44708f	-0.19183563
66	0x3e1545b1	0.14577366
67	0x3a20fd5f	0.0006141271
68	0x3e22350d	0.1584055
69	0x3e65d99c	0.22446293
70	0xbeca2f0f	-0.39489028
71	0xbe09ebd4	-0.13468868
72	0x3e0d3302	0.13788989
73	0x3cea4117	0.02859549
74	0x3e698984	0.22806364
75	0x3e3d33ec	0.18476838
76	0x3e889ed7	0.26683685
77	0xbec8face	-0.3925385
78	0xbe3285d5	-0.17433865
79	0x3f02decb	0.51121205
80	0x3c8a75bc	0.016901843
81	0xbea8fb77	-0.33004352
82	0x3f1b2278	0.6059947
83	0xbdd8598b	-0.10563954
84	0xbd8c2c1c	-0.06844351
85	0xbd057ea7	-0.03259149
86	0x3e33b97c	0.17551225
87	0xbbb82556	-0.005619685
88	0x3baf1cc9	0.0053440076
89	0x3e9d8816	0.30767888
90	0x3e168f4d	0.14703102
91	0xbdc6ac23	-0.09700801
92	0x3f04d5e2	0.5188886
93	0x3e24640f	0.16053794
94	0xbd54e28e	-0.051973872
95	0xbd6c3f89	-0.05767778
96	0xbea4b520	-0.32169437
97	0xbd277297	-0.040880766
98	0x3e88658f	0.26639983
99	0xbc288102	-0.010284664
100	0x3d86c0cf	0.06579744
101	0xbeab94ae	-0.3351187
102	0x3ed3e12b	0.41382727
103	0xbe332420	-0.1749425
104	0xbe0cfa52	-0.13767365
105	0xbe120bb3	-0.14262275
106	0xbeef5680	-0.46745682
107	0x3d4d8c94	0.050182894
108	0xbe81117b	-0.2520865
109	0xbda11150	-0.0786463
110	0x3e10c996	0.14139399
111	0xbdc4ac46	-0.09603171
112	0xbe5ac67a	-0.21364775
113	0xbd62a9ee	-0.05533784
114	0xbe94dc31	-0.29074243
115	0xbdff02af	-0.12451684
116	0xbdc947ab	-0.09828123
117	0xbdcf4892	-0.101212636
118	0x3d173d3c	0.036923632
119	0x3c3fd1fe	0.011707781
120	0xbddd6f4d	-0.108122446
121	0x3e81d7ab	0.25359854
122	0xbcda9c0c	-0.026685737
123	0x3d1d01f4	0.03833194
124	0xbd9ae334	-0.07562867
125	0x3c81d153	0.015846884
126	0x3e3ebb88	0.18626225
127	0x3f1b52bc	0.6067312
128	0xbeb178d9	-0.34662512
129	0x3e0f8120	0.14014101
130	0xbb919350	-0.00444261
131	0x3c8663d0	0.016405016
132	0xbb09c547	-0.0021022127
133	0xbef586df	-0.4795446
134	0xbdb051b9	-0.08609337
135	0x3b70ff71	0.0036773349
136	0xbeab566f	-0.3346438
137	0x3e002987	0.12515841
138	0x3ee55412	0.44790703
139	0x3dad0b8e	0.084494695
140	0xbed9487a	-0.42438108
141	0x3dc4b656	0.0960509
142	0xbec11942	-0.37714583
143	0x3e8de8f6	0.27716798
144	0xbe1c583d	-0.15268035
145	0xbe1c3d9e	-0.1525788
146	0xbf05b290	-0.5222559
147	0x3ea00b4d	0.31258622
148	0xbdb3a021	-0.087707765
149	0xbe6ee42f	-0.23329233
150	0xbe1d4a96	-0.15360484
151	0xbeaed1f0	-0.34144545
152	0xbe4fe10d	-0.20300694
153	0xbd0dfcd2	-0.034664936
154	0x380c70d4	3.348368e-05
155	0xbe153c14	-0.14573699
156	0x3ddbb2f6	0.107274935
157	0xbd89e814	-0.067337185
158	0xbe88917c	-0.26673496
159	0x3e81aa71	0.2532535
160	0x3e19e1c9	0.15027536
161	0xbe85b689	-0.26115826
162	0x3d9b9e77	0.07598584
163	0x3d456244	0.048189417
164	0xbf01dd03	-0.5072786
165	0x3d068966	0.032845877
166	0x3e0ddc3e	0.13853547
167	0x3d983bfd	0.07433317
168	0x3e98a377	0.29812214
169	0xbe35ac5b	-0.1774153
170	0x3e38ac2d	0.1803443
171	0xbe99488b	-0.29938158
172	0x3e1c320b	0.15253465
173	0xbea65a65	-0.3249084
174	0x3c86ad3a	0.016440023
175	0xbcbee7da	-0.023303915
176	0x3e50da40	0.20395756
177	0xbad98227	-0.0016594575
178	0x3d9c0359	0.07617826
179	0xbb8c9d91	-0.0042912443
180	0x3ead70fc	0.33875263
181	0xbeafbce7	-0.3432381
182	0xbe166f45	-0.14690883
183	0xbc8ae2d9	-0.016953873
184	0x3e0e5b69	0.13902058
185	0x3ecf0acf	0.40437934
186	0x3e05601c	0.13024944
187	0x3d8f5d13	0.070001744
188	0x3e07308c	0.13202113
189	0x3e0f7b06	0.14011773
190	0xbce5c56d	-0.028048242
191	0xbd31e892	-0.043434687
192	0xbe3b654f	-0.18300365
193	0xbf03ccda	-0.51484454
194	0xbfacc3b9	-1.349723
195	0xbf3df060	-0.7419491
196	0xbe99c6e0	-0.30034542
197	0xbe094b59	-0.13407649
198	0xbc0e3f0e	-0.008682026
199	0xbd134a66	-0.035959624
200	0x3fca79a9	1.5818378
201	0xbe8d3bfa	-0.2758482
202	0xbe3ba9fd	-0.18326564
203	0xbedd0f47	-0.43175718
204	0xbc990bc9	-0.018682377
205	0xbdee4e8f	-0.116360776
206	0x3e96849f	0.29398057
207	0xbf9173fe	-1.1363523
208	0xbe846cb0	-0.25864172
209	0xbde3c2a2	-0.11121108
210	0x3eb101aa	0.34571582
211	0xbf6c0884	-0.92200494
212	0x3ec92164	0.39283288
213	0x3e8d3150	0.27576685
214	0x3ec8c0ba	0.3920954
215	0x3e97f9d9	0.29682806
216	0xbd760a02	-0.060068138
217	0xbd56a997	-0.052407827
218	0x3e9629ab	0.29328665
219	0x3d6dd50d	0.05806451
220	0x3dc420ed	0.095765926
221	0xbe0291a4	-0.1275087
222	0x3cb5f51e	0.022211608
223	0x3ebee4d4	0.37283957
224	0x3c9db580	0.019251585
225	0xbe76fd24	-0.24120003
226	0xbd40d8c4	-0.047081724
227	0x3e58cfda	0.21173039
228	0xbd92b0fd	-0.07162664
229	0x3e402576	0.1876429
230	0x3e286b98	0.16447294
231	0xbde2932d	-0.11063228
232	0x3eb3856d	0.35062733
233	0xbe3428d2	-0.17593697
234	0x3defe8e5	0.11714343
235	0x3d417eeb	0.04724018
236	0x3eb8c610	0.3608861
237	0x3bf83d13	0.00757564
238	0xbe1ff9a0	-0.15622568
239	0xbdf2dcbe	-0.118585095
240	0x3e43af72	0.19109896
241	0xbe726bd3	-0.23673944
242	0x3e4ef47e	0.20210454
243	0x3eb15259	0.3463314
244	0xbe2c968b	-0.16854303
245	0x3e8c464b	0.2739738
246	0xbd629c61	-0.055324916
247	0x3ea0226d	0.31276265
248	0x3d8055f7	0.062663965
249	0xbdcde3de	-0.10053228
250	0xbd86abf8	-0.06575769
251	0xbd21cac1	-0.0395
252	0x3df58998	0.119891346
253	0x3decc7c9	0.115615435
254	0xbea7a23a	-0.32740957
255	0xbe4300e3	-0.19043307

bias f4 [32]
0	0x3d0e6eea	0.034773745
1	0xbd9db3eb	-0.07700332
2	0xbe209a82	-0.1568394
3	0x3e1d2916	0.15347704
4	0x3da42a8f	0.0801593
5	0xbdc061af	-0.09393632
6	0xbc66fbd9	-0.014098131
7	0xbddb2260	-0.10699916
8	0xbc643b8c	-0.013930213
9	0x3d7b5d13	0.06136806
10	0xbe47dc4d	-0.19517632
11	0x3d8f192d	0.06987224
12	0x3e54b4de	0.2077212
13	0x3e049a05	0.12949379
14	0x3dc69ec0	0.09698248
15	0x3e36ac58	0.17839181
16	0x3d83fa4c	0.06444225
17	0x3deb175a	0.11479063
18	0xbd6fbfe9	-0.05853263
19	0x3d9b6fcf	0.07589685
20	0xbe606677	-0.21914087
21	0xbdf47772	-0.11936845
22	0xbe528fb3	-0.2056263
23	0xbda1c0dd	-0.07898114
24	0x3e4926e5	0.19643743
25	0x3d884a07	0.066547446
26	0x3e47d9c9	0.19516672
27	0xbe04be6b	-0.12963264
28	0x3e2964fe	0.16542432
29	0xbd9de1f1	-0.077091105
30	0x3cb01727	0.021495415
31	0x3bd2e85a	0.00643639

weight f4 [1, 32]
0	0xbf662a8e	-0.89908683
1	0x3f46909f	0.77564424
2	0x3ed24efe	0.4107589
3	0xbf019b6b	-0.50627774
4	0xbf09ff1b	-0.53904885
5	0x3f7a252b	0.97712964
6	0x3f39c444	0.725651
7	0x3f96c24f	1.1778048
8	0xbf2a8f97	-0.6662535
9	0xbed23599	-0.41056517
10	0x3f21f2c2	0.63261044
11	0x3f549235	0.83035594
12	0xbf581ad0	-0.8441591
13	0xbf0ded05	-0.5543979
14	0xbfbe3b15	-1.486178
15	0xbeea14f6	-0.45719117
16	0xbf115582	-0.567711
17	0xbf3af2bb	-0.7302663
18	0x3f486f15	0.782945
19	0xbfbf9a62	-1.4968989
20	0x3eb1ea31	0.34748986
21	0x3f096f3e	0.5368537
22	0x3ecd1620	0.40055943
23	0x3f72fff0	0.9492178
24	0xbf458bef	-0.77166647
25	0xbefa1ad3	-0.4884859
26	0xbef0eeea	-0.47057277
27	0x3f36dd24	0.71431184
28	0xbf424a0f	-0.75894254
29	0x3f0a18ab	0.5394389
30	0xbf18cc94	-0.5968716
31	0xbfa3ace7	-1.2787141
