models/dehnen.pt (torch, 8463 bytes, 5 tensors)

weight f4 [32, 2]
00000000: c4f8 f43f 4762 9e3e bb8b 72c0 e62c 16bd
00000010: 241c 21c0 75e4 6b3e ee7c 1240 7230 8bbe
00000020: f40c d9bd aeaf 9abe 6d36 a7be 2780 3e3e
00000030: 7e36 22c0 d181 9b3e e76c 3440 a422 8cbd
00000040: 8be5 39c0 052d 8e3e cfdc 7640 3f85 0bbe
00000050: de77 2740 18a4 a6be 44c3 8a40 eef1 a5be
00000060: 9cf9 6540 c7db 2dbe 7501 23c0 0cc7 ae3e
00000070: 8b77 82c0 d34f 463e af06 3940 0ac4 a5be
00000080: f5ec 33c0 1c7b 253e dcae 2fc0 de4a dc3e
00000090: 7d83 3740 1479 1940 8270 dcbf 56a1 c13e
000000a0: ef26 2740 64ab d1be c4b7 14bb 3c19 75bf
000000b0: bb3a 86c0 41fe 9b3e 721d 1bc0 be71 913e
000000c0: e620 fb3b 6fe1 503f e821 9640 7dd6 78be
000000d0: e88b 1cc0 edf1 df3e 7d34 5c40 c502 08bf
000000e0: 62ca 1940 c154 97be 444b fcbf 8af4 aa3e
000000f0: ee57 8a40 98c0 94be b759 19bf bcdf e7be
1.9138417 0.30934355 -3.7897785 -0.036663912 -2.5173426 0.23036368 2.288875 -0.27185398
-0.10598174 -0.30212158 -0.3265871 0.18603574 -2.534576 0.3037248 2.8191469 -0.06842545
-2.9046352 0.27768722 3.857227 -0.13625048 2.616691 -0.3254707 4.336336 -0.3241114
3.59336 -0.1697837 -2.546964 0.34136236 -4.0770926 0.19366388 2.891033 -0.32376128
-2.8113377 0.16160244 -2.7450476 0.4302587 2.8674004 2.398015 -1.7221835 0.37818402
2.6117513 -0.40951073 -0.002269254 -0.9574163 -4.1946692 0.30467418 -2.4236722 0.2840709
0.007663834 0.81593984 4.691639 -0.24300571 -2.4460392 0.43739262 3.4407036 -0.53129226
2.4029775 -0.2955685 -1.9710469 0.33389693 4.3232336 -0.29053187 -0.5990252 -0.45287883

bias f4 [32]
00000000: e021 c63e 1c5d 793d ba39 0dbf 2efc 343f
00000010: 36b0 323f a24c 87bf e307 29bf 11b7 413e
00000020: 84b4 21bf e387 843e dbe6 363f 9224 4b3f
00000030: 0f1b ba3e 91aa 4ebf 84bc e9be 116c 463f
00000040: 1014 04bf 5338 95bf ca01 81bf 6ad2 78bf
00000050: 51db 883f d6b0 2040 167d 3fbf 53b8 29bf
00000060: e929 22be 75ed 0d3f 8643 86bf 7d40 ab3f
00000070: aa73 333f 6ae5 56bf 9ac6 2a3f 6908 1dbf
0.3869772 0.06087981 -0.5516621 0.70697296 0.69800127 -1.0570261 -0.6602766 0.1891749
-0.6316607 0.25884923 0.7144601 0.79352677 0.3634877 -0.80729014 -0.45651639 0.77508646
-0.5159311 -1.1657814 -1.0078671 -0.97196066 1.069193 2.5107932 -0.7480024 -0.6629688
-0.158363 0.55440456 -1.0489357 1.3379055 0.70098364 -0.8394381 0.6670929 -0.6134096

weight f4 [32, 32]
00000000: 6e2b 22bf 3311 aebc ac98 3d3e d1cb 57be
00000010: 3a7b 543d 65d0 5abe b4af f63e 4753 b03e
00000020: 8fd6 323f 1581 3ebe df09 9b3d 511e 51be
00000030: bfd7 abbe 3531 793f dacf 843e 7952 593e
00000040: c316 723e 1d3a f63c 1634 ecbe 41fe 7b3d
00000050: 966c 64bd 5d93 8dbd ff13 83be 95a1 c43c
00000060: a2d9 86bf 75e6 52bf fd28 543f 0915 bbbe
00000070: cc63 823c 9283 c03e 5562 0abf a167 513f
00000080: a857 1fbc a11d 073f 191c 073f 5609 2cbf
00000090: 81b6 82bf c1f9 f93e 2408 2540 3402 013f
000000a0: f3d7 2740 1add 98bf 7ada 88bf 79aa 8ebf
000000b0: aeba f8bf 8111 4140 f509 5f3f 19e9 41bf
000000c0: 1065 c23f 186e 533f 628a f83e c20c e43f
000000d0: e56d 92bf 69d6 a2bf 4ddc a53f 2350 cd3f
000000e0: b1d6 c63c 5943 babf dd14 1240 9cc4 d9bf
000000f0: 5b38 64bf b549 3b3f 49a2 b2bf b5a2 d63d
00000100: 2f23 cebe dbc3 023f 0276 b2be 7f22 e73d
00000110: 1f48 76bd c0ef 70be 2db6 0abc 0d04 ac3d
00000120: abb7 a33d a9a3 1abe a60a 56be f57c 223e
00000130: 7c7e d03e f455 f93d 579b 4a3d 3a81 b83c
00000140: e961 f1be 50a4 97be 7aa0 e83d f6f1 15be
00000150: c5f2 843d b8f0 7dbe dac0 0dbf f62b 95bd
00000160: bfce 91be caa7 993b 6875 b53e fb17 8ebe
00000170: 4891 92be 78e8 d63d 33fa 60be c45a 693e
00000180: 1b43 17bf 9b75 00bf 8519 863f 0364 b1bf
00000190: 731e cbbf ea2e 0940 f879 e33f 057b 79bf
000001a0: 7874 e43f 95b7 533e 8d52 f1bf 0873 aabf
000001b0: a3b8 92be 4303 4840 99bf 903e 19bc 18c0
000001c0: 83d5 8e3f e23a 2640 0374 34be 4ef9 0c40
000001d0: d2ae 54c0 b0fd d5c0 d953 3b40 b65b d23f
000001e0: 2c35 aabd 3cc0 d7be 1547 4140 c069 86c0
000001f0: 73a8 a9bf 17b5 0d40 a650 a7bf 94c6 b83e
00000200: 3d1d 13be 5b06 44c0 e4cc acbf 326b 463f
00000210: d5fc f3be 0ea9 6bbe 20c8 dabf e88f 5640
00000220: 5e38 12c0 f94c 7b40 e408 b53f d9c4 2c40
00000230: b2e8 3440 3624 22c0 1e5a 48c0 537a c73f
00000240: b3f7 01c0 9a37 94bf fc8b 60be c4b3 3bbe
00000250: 3f18 9d3f 698e 05bf 2fda 89c0 ca7f adbf
00000260: 0df7 fabe e61b 8540 0f4b a0bf b9d6 cb3f
00000270: e5a6 603f ba0f 78bf 2184 6d40 708b c6bd
00000280: 3ba6 083f 0779 20bf 26c3 03c0 8d37 2d40
00000290: 39aa 9e3f a11c 1ec0 295b 0cc0 50bf 0c40
000002a0: e157 19c0 ad68 fb3f 9a9c 1940 95ce 5940
000002b0: 658a 0540 da17 66c0 9a8c 0ec0 5893 8140
000002c0: f7fa febf 4b41 a3c0 e07d 973e 144c 28c0
000002d0: 0016 9140 64c0 ac40 9072 93c0 83bc 32c0
000002e0: 0645 74be 4d18 3d40 d369 3ac0 cbf7 a840
000002f0: 364e 0c40 0381 54c0 6e18 4340 09ba 87bf
00000300: 5aed 25be 1409 7b40 4467 823f 166e 9abf
00000310: 2d0f d33f bcf6 4cbf bb7f ac3f a55c 79bf
00000320: 245e 913f f3ae 6ac0 6358 42bf 0af9 33c0
00000330: c6d2 cebf 4210 a23f 0639 c540 16d0 38bf
00000340: bd6c 3440 c400 853f 68dd 0dbf 1ea5 e6be
00000350: 7521 24bf 89a5 8b40 5c1b e83f af41 a63f
00000360: 2a5c 21bf fb40 58c0 9e22 1e3f b2fb 9cbf
00000370: dd41 b5bf a110 c53f 2455 3bc0 809c 9d3d
00000380: 8c1b a7be d40a a23f e712 ed3e 1e72 d9be
00000390: a5e1 c93e c1af f5bd eda0 ae3e d459 c4bf
000003a0: 89b2 653f a79a 03c0 0da9 91be 1c5d 48bf
000003b0: 6a43 80bf bf84 df3f 75a5 e93f 2051 cebe
000003c0: 9325 813f 3d64 a83e ce47 ebbe e75b 863d
000003d0: ac23 24bf 7de0 08bf e079 8f3f 1ef6 3e3f
000003e0: bffa dabe 686f 11c0 9326 403d e368 313e
000003f0: 1440 13bf 358a b83e 9a7f d6bf 60b9 663e
-0.6334752 -0.021248436 0.18515271 -0.21073844 0.05187533 -0.21368559 0.48180926 0.34438536
0.6985864 -0.18603928 0.07570242 -0.20421721 -0.3356304 0.9734071 0.25939828 0.21222867
0.23641495 0.030057007 -0.46133488 0.061521772 -0.055767618 -0.06912873 -0.25601193 0.02400283
-1.0535166 -0.823829 0.82875043 -0.36539486 0.015916727 0.3760038 -0.5405629 0.8179875
-0.009725489 0.52779585 0.5277725 -0.67201746 -1.0211946 0.4882336 2.5786219 0.50393987
2.6225555 -1.1942475 -1.0691674 -1.1145774 -1.943197 3.0166934 0.8712457 -0.75746304
1.5187092 0.82589865 0.48543078 1.7816393 -1.1439787 -1.2721683 1.2957855 1.6040081
0.024272295 -1.4551803 2.2825234 -1.7013125 -0.8914849 0.73159343 -1.3955775 0.10480253
-0.40261218 0.510801 -0.34855658 0.112858765 -0.060127374 -0.23528957 -0.008466286 0.0839921
0.07994016 -0.15101494 -0.209025 0.1586798 0.407215 0.121745974 0.04946455 0.022522558
-0.47145012 -0.29617548 0.113587335 -0.14643082 0.06491617 -0.24798858 -0.55372393 -0.072837755
-0.28478047 0.0046891915 0.35441136 -0.2775267 -0.28626466 0.10493559 -0.21970443 0.2278853
-0.5908677 -0.5017945 1.0476538 -1.3858646 -1.5868667 2.1434884 1.7771597 -0.9745334
1.7848043 0.206755 -1.8853317 -1.3316355 -0.28656492 3.125199 0.28271177 -2.3864806
1.1158909 2.597344 -0.1762238 2.2027164 -3.3231702 -6.6872177 2.9269927 1.6434238
-0.08310923 -0.4213885 3.0199635 -4.200409 -1.3254532 2.2141778 -1.3071487 0.36089003
-0.14366622 -3.062888 -1.3500028 0.7750732 -0.47653833 -0.23013708 -1.7092323 3.3525333
-2.2846904 3.926573 1.4143338 2.6995146 2.8267026 -2.5334601 -3.1305003 1.5584205
-2.0307434 -1.1579468 -0.219284 -0.18330294 1.2273024 -0.52170426 -4.3078837 -1.3554623
-0.4901661 4.1596556 -1.2522906 1.5924903 0.8775466 -0.96898997 3.7111895 -0.09694564
0.5337865 -0.62684673 -2.058786 2.7065156 1.2395698 -2.4704974 -2.193064 2.1991768
-2.3959887 1.964132 2.4001832 3.4032338 2.086572 -3.5952058 -2.2273316 4.0492363
-1.9920338 -5.1017203 0.29588223 -2.6296434 4.5339355 5.398485 -4.6077347 -2.7927558
-0.23854455 2.9546082 -2.912709 5.280248 2.1922736 -3.3203743 3.048366 -1.0603648
-0.16203824 3.922429 1.0187764 -1.2064846 1.6489006 -0.80063987 1.347648 -0.9740699
1.1356854 -3.666928 -0.7591612 -2.8120751 -1.6158073 1.2661211 6.163211 -0.72192514
2.8191369 1.0390859 -0.55415964 -0.4504785 -0.6411355 4.363957 1.813335 1.2988795
-0.63031256 -3.378966 0.6177157 -1.2264311 -1.4160725 1.53957 -2.9270716 0.07695866
-0.32638204 1.2659554 0.46303484 -0.42469877 0.39429966 -0.11996413 0.34107152 -1.5339913
0.8972555 -2.0563142 -0.28449288 -0.78267074 -1.0020573 1.7462386 1.8253618 -0.40296268
1.0089592 0.32888976 -0.4595322 0.06560498 -0.6411693 -0.5346754 1.1209068 0.74594295
-0.4276943 -2.2724247 0.046911787 0.17325167 -0.5751965 0.36042944 -1.6757691 0.22531652

bias f4 [32]
00000000: 8b2e 31bf cfd0 1e3c 42e7 18be ebb2 0abf
00000010: 3efb 60bd 0f34 553f 4a1b 1abe ee3a 4dbe
00000020: 955f 1f3f c7e0 eebe f648 81bf 1c28 733f
00000030: c3a6 38bf 4de7 933f 4f98 1bbf 94d8 683e
00000040: d6b7 4bbe 1983 223f 071f 053f 2277 0d3f
00000050: 80ec 223f a911 863e 21c6 4dbe 1856 8a3e
00000060: e8ff b2bc 7d47 05bd d2fd d7bd 3d2b 443f
00000070: 5c26 dc3e 0c49 87bd 59e8 36be ce88 02bf
-0.69211644 0.009693339 -0.14931968 -0.5417926 -0.054927103 0.8328256 -0.15049472 -0.20042011
0.6225522 -0.46655867 -1.0100391 0.9498308 -0.7212946 1.1554962 -0.6077928 0.22738868
-0.19894347 0.6348129 0.5200047 0.5525991 0.6364212 0.2618535 -0.20095111 0.2701881
-0.021850541 -0.03253888 -0.10546459 0.76628476 0.42998016 -0.066057295 -0.17862071 -0.5099

weight f4 [1, 32]
00000000: bcb9 0540 c796 1540 be77 2d40 0093 12c0
00000010: 583c 0c40 8fea 1140 eca2 0540 7c75 e6bf
00000020: dd2e 0ec0 5fee 2140 f014 24c0 463c 1e40
00000030: 94db 1440 a7db 2f40 72c2 0c40 8499 fabf
00000040: e52d 11c0 c011 22c0 6474 04c0 a76c 0dc0
00000050: 08f9 01c0 cabf 49c0 1416 a13f 75c3 e7bf
00000060: 8201 2640 9cf9 0ac0 ee94 0c40 b070 03c0
00000070: 9603 20c0 b96d edbf 12f9 0cc0 56ed 0b40
2.0894613 2.3373277 2.7104335 -2.2902222 2.191183 2.2799413 2.088069 -1.8004603
-2.2216103 2.530174 -2.563778 2.4724288 2.325902 2.7477815 2.199368 -1.9578099
-2.2684262 -2.5323334 -2.069604 -2.2097566 -2.0308247 -3.1523309 1.2584863 -1.8106524
2.593842 -2.171485 2.19659 -2.053753 -2.5002189 -1.854911 -2.202702 2.1863608
