models/dehnen.pt (torch, 8463 bytes, 5 tensors)

weight f4 [32, 2]
000000 9a 9a 0e 40 93 e3 ad be 6e d8 a8 3f 58 fb 89 be
       2.2281861 -0.33962688 1.3191049 -0.26949573
000010 5a 53 70 be 36 58 58 3e 1f e4 ba 3f 0e c0 b7 be
       -0.23469296 0.211274 1.4600867 -0.35888714
000020 2f 63 48 3a 79 44 ca 3e a2 ed 6e 3f 01 f9 cd be
       0.0007644174 0.39505365 0.9333135 -0.40229037
000030 93 cc 3b bf a8 ee d7 be 95 38 24 3e 06 a0 ed 3e
       -0.7335903 -0.42174268 0.1603721 0.4641115
000040 08 89 a4 40 2e 79 1c be 21 d4 2b c0 1e 82 9c 3e
       5.1417274 -0.15280601 -2.6848223 0.30568022
000050 d4 ca 1c 40 3a c4 96 be ad 35 15 40 87 73 a9 be
       2.4498796 -0.29446584 2.331401 -0.33095953
000060 9d 1c 2b 40 fe ed 8e be 5d 47 46 40 1e 67 3c be
       2.6736214 -0.2791595 3.0981057 -0.18398711
000070 c3 48 38 bc ca 13 ba be be b6 c1 40 ad fe 9a bb
       -0.0112478165 -0.36343223 6.0535574 -0.0047300668
000080 46 81 7b c0 6d ab df 3c 2c 1f 0a c0 f8 b5 9b 3e
       -3.9297652 0.027303422 -2.1581526 0.3041227
000090 6f 41 2b be 16 45 d6 3e 8f a8 68 3f 24 f5 ae be
       -0.1672418 0.41849583 0.908822 -0.34171402
0000a0 98 87 16 40 57 33 8c be 83 7a bd bf 0b bc 98 3e
       2.352026 -0.2738292 -1.4803013 0.29830965
0000b0 b1 5f 29 40 b4 30 6b be 69 7c 36 c0 8a 7e b7 3e
       2.6464655 -0.22967798 -2.8513434 0.3583873
0000c0 af 97 b9 3f aa 01 ae be 8f 19 09 bf 6a 65 38 3e
       1.4499415 -0.33985645 -0.53554624 0.18007436
0000d0 9c b0 27 40 6c ab 65 be c7 52 13 c0 3e 3e 88 3e
       2.6201544 -0.22428674 -2.3019273 0.26609987
0000e0 2c 43 11 40 b5 d7 fc bd b3 b4 0d bf ca d7 d8 3e
       2.2697248 -0.1234583 -0.5535385 0.42352134
0000f0 c9 fb 1c 40 4b 71 12 bf 4f 7d f8 bd 60 7b a3 be
       2.4528677 -0.5720412 -0.12133276 -0.31930065

bias f4 [32]
000000 55 27 4c 3f 36 17 4c 3f 82 a8 28 be 6c e9 74 3f
       0.79747516 0.7972292 -0.1647053 0.95668674
000010 11 d9 28 3f 63 d4 78 3f 8c 45 db be 06 ec 7c 3f
       0.6595622 0.97199076 -0.42826498 0.98797643
000020 57 f3 8c 3e cb 39 35 bf 9b 2b 47 3f da a9 5e 3f
       0.27529404 -0.7079131 0.7780091 0.8697792
000030 dc ad 36 3f 06 50 e3 3e ea 12 b1 3e 40 2d a0 3c
       0.7135904 0.4439699 0.34584743 0.019552827
000040 1d 7e 5d 3d 0e 07 55 bf cb 8c 78 3e 9d eb 58 3f
       0.05407535 -0.8321389 0.24272458 0.8473452
000050 e4 ee 30 3f ad b3 5c bf cc 27 0f 3f d7 cb 67 bf
       0.6911452 -0.86211663 0.559201 -0.9054541
000060 7d e4 4b 3f a0 80 6e bd f8 21 12 3f 38 6a 32 bf
       0.7964552 -0.058228135 0.5708308 -0.69693327
000070 1e a0 22 3e af e1 84 bf f3 d9 ba 3f aa 7a 49 bf
       0.15881392 -1.0381373 1.4597763 -0.78702796

weight f4 [32, 32]
000000 a5 d7 9c 40 a6 35 4c 40 2c 17 e7 be e0 e5 00 41
       4.901324 3.1907744 -0.45134866 8.056122
000010 11 23 6a 3e 36 92 8c 40 a4 a4 9f be 27 76 30 3e
       0.2286494 4.392848 -0.31180298 0.17232572
000020 3d 64 c9 bf 61 d1 4d c0 32 67 13 40 b1 73 7e 40
       -1.5733715 -3.2159045 2.3031735 3.9758112
000030 ed 55 f4 3f 58 d7 3d 3f 60 6c 16 3f 17 04 26 c0
       1.9088722 0.74156713 0.5875912 -2.5939996
000040 73 07 95 40 0b 50 28 c0 13 84 54 bc dc fa ac 40
       4.6571593 -2.6298854 -0.012970942 5.4056225
000050 30 ab 5a 40 17 15 2c c0 6e 30 e9 3f ad 3b 75 c0
       3.4166985 -2.6887872 1.8217905 -3.8317673
000060 6b 1e c1 40 fc 6c 98 bf 17 3a b5 3f 19 ea 0b c0
       6.034963 -1.1908259 1.4158353 -2.1861632
000070 53 4a b6 be ba 3e 88 c0 ec 27 12 41 00 07 65 be
       -0.3560358 -4.257657 9.134747 -0.22365952
000080 54 92 8c 3e 5f c5 0c 3e 94 96 e2 3e 56 08 e6 3e
       0.2745539 0.13747166 0.44255507 0.44928235
000090 c3 ab 1b 3f 71 f7 77 bd 80 1f 49 be bc 61 4b 3f
       0.6080896 -0.060538713 -0.19640923 0.79446006
0000a0 6b 0e e8 3e 05 59 00 be 74 2c 26 3e c2 d3 9b 3d
       0.453235 -0.12533958 0.16227895 0.07608749
0000b0 db 21 98 3d d6 5c 8c 3f 58 5a ec be 0e 99 61 bd
       0.074283324 1.0965831 -0.46162677 -0.055077605
0000c0 7b c1 71 be 0b bb 70 be 14 c5 d3 3e 79 5f 33 be
       -0.23608963 -0.23508851 0.41361296 -0.17516889
0000d0 a8 e8 ae 3e 54 65 56 bd d6 1a 56 3f 83 be 07 bf
       0.34161878 -0.052342728 0.836347 -0.5302507
0000e0 d2 c3 2c 3f 4c 44 c2 3e f8 25 1d 3f aa bd d8 be
       0.674863 0.3794273 0.6138606 -0.42332202
0000f0 68 97 91 3e cd 1a 2a 3e de ed 13 3e 29 8d 6a bf
       0.28435826 0.16611786 0.14446208 -0.91621643
000100 68 b2 5a c0 7e 5d 19 c0 d6 89 d4 3e ce 2b c1 c0
       -3.417139 -2.3963313 0.4151141 -6.0365973
000110 94 91 5b be c4 f1 72 c0 97 e4 43 be 32 31 10 bf
       -0.21442252 -3.7960062 -0.19130169 -0.56325066
000120 d8 cf c8 3f 1e fe 18 40 a5 14 15 c0 59 d7 35 c0
       1.5688429 2.39051 -2.329385 -2.8412688
000130 41 ba d5 bf ec a7 31 bf ca f2 34 be 50 e7 24 40
       -1.6697465 -0.69396853 -0.17670742 2.5766182
000140 68 d8 78 c0 8c 95 0b 40 93 76 78 3c 58 93 8f c0
       -3.8882084 2.1810026 0.015164989 -4.4867363
000150 24 b6 38 c0 db d2 05 40 e8 4d e0 bf 23 5e 5b 40
       -2.886117 2.0909946 -1.7523775 3.4276206
000160 70 0d bb c0 66 af 4c 3f 14 b5 b5 bf 91 3b 09 40
       -5.8453903 0.79955137 -1.4195886 2.1442606
000170 75 d3 57 3f 90 18 52 40 c4 05 eb c0 98 e5 5b 3e
       0.8430703 3.2827492 -7.344454 0.21474302
000180 9b a3 e1 3d 48 ce f4 3e 5a b4 a4 3e b2 d6 3f 3d
       0.110175334 0.4781363 0.32168847 0.04683561
000190 3c 99 cc 3e 5e 30 b2 3e fb 97 04 bf 52 3c 05 3f
       0.3996066 0.34802526 -0.51794404 0.52045166
0001a0 5f 3c 9d 3e b8 66 c8 be 85 8a 75 3d ea 63 4b be
       0.30710122 -0.39140868 0.059946556 -0.19862333
0001b0 03 4b e0 bc eb 40 d4 3f d3 d1 e6 be 99 cb a1 3e
       -0.027379518 1.6582311 -0.45081958 0.31600645
0001c0 31 e0 02 be 6d 76 c9 be 9e c3 5d 3e 17 c7 ea 3c
       -0.12780835 -0.39348164 0.21656653 0.028659387
0001d0 e5 f2 21 3f 2d b5 95 bd 93 d8 37 3f 5c 9d 35 be
       0.6326125 -0.07309947 0.7181484 -0.17735809
0001e0 bc 6b 49 3e 44 83 80 3e 0d bf 37 3e 28 fb 73 be
       0.19670004 0.25100148 0.17943974 -0.23826277
0001f0 74 cc ac 3e c8 8c 95 3d 96 8b 9d bd cb 52 8a be
       0.33749735 0.073022425 -0.076926395 -0.2701629
000200 de de db 3b 2f e4 2a 3d 92 cd 36 3e ba f2 6c be
       0.0067099174 0.04172152 0.17851856 -0.23139468
000210 aa 4d 26 3f 46 4a 1a 3e ab e9 24 bf e3 03 68 3f
       0.64962256 0.15067396 -0.6441905 0.9063093
000220 d3 75 12 3d d1 47 71 bf f8 af 56 3e 01 94 87 bc
       0.035756897 -0.9425021 0.20965564 -0.016550066
000230 c8 a8 ee 3e ff 8a 6f 3f 81 fa e4 be 56 e1 af 3e
       0.46613145 0.93571466 -0.4472237 0.34351605
000240 4c af b0 bd 08 e3 e4 bd 69 47 9b 3e 17 af c5 bd
       -0.08627185 -0.11176115 0.3032792 -0.09652536
000250 f2 cc ce 3e f2 a9 c8 be 46 bf 4c 3f b7 6c e7 be
       0.40390736 -0.39192158 0.7997936 -0.4520013
000260 9b d3 02 3f 78 14 0d 3f 3d 2f df 3e 8c 1c 8d bd
       0.51104134 0.5510936 0.43590727 -0.068902105
000270 b9 d9 c5 3e 65 60 2a 3d 1c 2b bd 3e 08 9b 19 bf
       0.38642672 0.041595835 0.36946952 -0.60002184
000280 94 1b 4d be 8a eb b2 be 81 85 81 be 32 e2 2e 3e
       -0.20030051 -0.34945327 -0.25297168 0.17078474
000290 76 a3 39 bf 27 8b ec 3c 9d bf 82 3e 7a 66 1a bf
       -0.72515047 0.028874947 0.25536814 -0.60312617
0002a0 ab f1 e2 be 8e 3f d3 3c ca 3c 21 bc 6c bc 5d be
       -0.44325003 0.025787141 -0.009841153 -0.21653908
0002b0 c3 fe 97 be c3 b9 af bf 43 ea ae 3e dc 3e 9d 3d
       -0.29686555 -1.3728565 0.34163103 0.07678005
0002c0 48 b8 ea 3e f0 60 64 3e 35 5a 99 be b9 19 d3 bd
       0.4584372 0.22302604 -0.29951635 -0.103076406
0002d0 11 67 2a bf 44 69 37 3e bc 7c fa be 59 36 8d 3e
       -0.66563517 0.1791125 -0.4892329 0.27580526
0002e0 f5 37 a0 be c2 5c 32 bf 40 c1 09 bf 56 9b c1 3e
       -0.31292692 -0.6967279 -0.538105 0.37813824
0002f0 20 52 da be db b5 42 3e a3 47 c2 3c 54 73 2f 3f
       -0.4264078 0.19014685 0.0237158 0.6853535
000300 f2 81 7d c0 28 c7 8a c0 92 5a c5 3e 0b 41 c0 c0
       -3.9610562 -4.336811 0.38545662 -6.00794
000310 49 d0 73 be 75 77 2d c0 0b 62 0d 3f 70 dd 54 bf
       -0.23809923 -2.710416 0.55227727 -0.83150387
000320 e0 59 d9 c0 25 fb b8 40 85 01 a2 c0 0d e6 d1 c0
       -6.792221 5.7806573 -5.0626855 -6.5593324
000330 2a b3 db c0 0d 18 23 c1 d3 d4 14 be 32 c4 86 c0
       -6.8656206 -10.193372 -0.14534311 -4.2114496
000340 b4 4e 4a 40 3c dd af 40 6f 22 c9 be c6 66 86 c0
       3.1610537 5.495756 -0.39284083 -4.2000456
000350 19 59 eb c0 66 26 82 40 82 5e a7 c0 c9 63 b8 40
       -7.354626 4.0671873 -5.2302866 5.762181
000360 a5 57 af c0 05 ba a5 3f 8d 54 b7 c0 04 67 b3 40
       -5.479449 1.2947394 -5.729071 5.606325
000370 a3 65 44 c0 85 fc 23 40 d2 18 b5 c0 3c df 32 3f
       -3.0687034 2.5622876 -5.65928 0.6987188
000380 cf a1 f6 be 9e 1b 91 be d4 80 2e be d7 8f 62 be
       -0.48170325 -0.28341383 -0.17041332 -0.22125183
000390 e7 88 01 bf 6b ce 0e 3e 0e a6 ea 3e 11 87 da be
       -0.5059952 0.1394593 0.45829815 -0.42681172
0003a0 6d 6a ba be 37 a9 d8 3e 0b 5f 03 be b3 4f b2 3d
       -0.3640932 0.423166 -0.12829225 0.08706608
0003b0 8f 0d b8 be 2d 2c 8d bf 07 7f c7 3d 6d 05 9a 3d
       -0.35947844 -1.1029106 0.097410254 0.07520566
0003c0 6d 17 2c 3e 61 cb fa bd e3 60 04 bf a6 2a 26 be
       0.16805811 -0.12245823 -0.5171034 -0.16227207
0003d0 d5 fb ee be a1 df 5f 3e 65 4a 53 bf 25 cb 29 3f
       -0.46676508 0.21862651 -0.8253539 0.663256
0003e0 05 15 b2 be 88 27 20 be 53 4e e5 be ed 56 80 3e
       -0.34781662 -0.1564008 -0.4478632 0.2506632
0003f0 22 b2 25 bf ef 1a 01 bf 95 89 e1 3e e2 4f 68 3f
       -0.64724934 -0.5043172 0.4405028 0.9074689

bias f4 [32]
000000 cc b9 c3 3e fe 37 da 3e 20 b8 8a be 43 b9 ac 3e
       0.3822769 0.42620844 -0.270936 0.33735093
000010 8d 60 03 3f 6a a8 00 bf c8 d8 0e bf 42 3e c3 be
       0.513192 -0.5025698 -0.5579953 -0.38133436
000020 54 c7 cc be 43 dc 9f be 60 96 f5 bc 3e 39 82 3e
       -0.39995825 -0.31222734 -0.029978931 0.25434297
000030 ad a8 b0 bf f0 ce 1a 3e 79 91 dc be 9e 27 78 be
       -1.3801476 0.15118003 -0.43079737 -0.24233863
000040 4c e2 9d be 4b c6 c6 3e 38 93 2c be f8 30 c4 bd
       -0.30836713 0.3882316 -0.16853034 -0.095796525
000050 02 f3 1e bd 35 fd 41 3e cf 09 9c be bf 6d 9b 3e
       -0.03880597 0.18944247 -0.30476233 0.30357167
000060 0b 5a a3 3c ea 0f 1f 3e d9 62 fb be 23 34 09 3e
       0.019940397 0.15533414 -0.49098852 0.13398795
000070 fa a2 67 bd 7d cb 84 bd 0e 33 03 bf 4b ea 45 bd
       -0.05655191 -0.06484125 -0.5124978 -0.048319142

weight f4 [1, 32]
000000 ee 9e 1e 40 7a bf d7 bf 53 37 0e c0 c8 78 d4 bf
       2.4784503 -1.6855309 -2.2221267 -1.659936
000010 a2 36 a6 bf 5a 59 8f 3f 16 bf 7d c0 d8 e8 c5 3f
       -1.2985423 1.1199143 -3.964788 1.5461683
000020 d3 ac ca 3f d3 46 64 3f 3a 6b b1 3f 0e 16 d5 bf
       1.5833992 0.8917057 1.3860848 -1.6647356
000030 93 f0 b3 3f f9 f1 ae bf ed c4 dd 3f c5 b3 d9 3f
       1.4057792 -1.3667594 1.7325722 1.7007986
000040 57 07 c3 3e 20 3e bb bf 5a 49 c3 bf 7a 34 f5 bf
       0.38091537 -1.4628334 -1.525676 -1.915664
000050 04 fc dc 3f e5 a1 c4 3f cf 6e 93 3f 6b 9e be bf
       1.7264409 1.5361906 1.1518191 -1.4892095
000060 36 70 8e 3f 28 8c 02 c0 e8 d4 b2 3f 69 f0 27 c0
       1.1127994 -2.0398045 1.3971224 -2.6240485
000070 a2 b4 13 40 86 d1 2f c0 ba c9 e0 bf 67 ea d9 bf
       2.3079 -2.7471633 -1.7561562 -1.7024659
