models/dehnen.pt (torch, 6287 bytes, 5 tensors)

weight f4 [32, 2]
0	0x3df88399	0.12134475
1	0xbd9fcaf3	-0.07802381
2	0xc0aa41d0	-5.3205338
3	0x3f554f94	0.8332455
4	0x3e47042e	0.19435188
5	0x3d605d82	0.054776676
6	0x3f4c2a33	0.7975189
7	0xbef61bcc	-0.48068082
8	0xbf73264b	-0.94980305
9	0x3eb5b8a9	0.35492447
10	0x3ce72c5b	0.028219393
11	0xbd8c66b4	-0.068555266
12	0x3f4af156	0.792745
13	0x3e1cff0b	0.15331666
14	0x3dcd9343	0.100378536
15	0x3d963055	0.07333437
16	0xc08c780d	-4.3896546
17	0x3f988ffa	1.1918938
18	0x3e87e77e	0.26543802
19	0xbe9416e8	-0.28923726
20	0x3d2fac93	0.04288919
21	0x3e694920	0.22781801
22	0x3d9f2504	0.07770732
23	0x3e47b946	0.1950427
24	0xbe9c78f1	-0.3056102
25	0x3eadd2e0	0.33949947
26	0xc00b86ef	-2.1801107
27	0xbd103978	-0.035211056
28	0xbdbe788e	-0.09300338
29	0xbe81764d	-0.2528557
30	0x3f1a58a2	0.6029149
31	0x3cbb0d5d	0.02283352
32	0x3b85057d	0.004059492
33	0x3eea68c7	0.45783064
34	0xbf881cca	-1.0633786
35	0x3e1ae537	0.15126501
36	0xbcd62759	-0.02614181
37	0xbe434225	-0.19068201
38	0x3eeeae40	0.46617317
39	0xbf100c7c	-0.5626905
40	0x3bd9dd73	0.0066487133
41	0x3e3dad37	0.18523107
42	0x3ff617e3	1.922604
43	0xbdc22287	-0.09479242
44	0x40567567	3.3509157
45	0xbe525f7e	-0.2054424
46	0xbbeb4578	-0.007179912
47	0xbe0d523a	-0.13800898
48	0x3dc32484	0.09528449
49	0x3df65b5b	0.120291434
50	0x3cdb56f1	0.026774855
51	0xbebbdb6e	-0.3669085
52	0x3fecc1a7	1.8496598
53	0x3d9d727e	0.07687853
54	0x3fe437f5	1.7829577
55	0xbf4f2ed5	-0.80930835
56	0x3d5e0078	0.054199666
57	0xbe4d891e	-0.20071837
58	0xbef8c31e	-0.48586363
59	0x3e191909	0.14950956
60	0xc031e008	-2.7792988
61	0x3e1271c0	0.14301205
62	0xbfb21e53	-1.3915504
63	0x3ca09049	0.01960005

bias f4 [32]
0	0x3e1b4eff	0.15166853
1	0xbff677ea	-1.9255345
2	0x3f7c5a57	0.9857535
3	0x3e74dc1b	0.23912089
4	0xbeda8ff4	-0.42687953
5	0xbe6a8895	-0.22903664
6	0x3f215eff	0.6303558
7	0xbec2fe1a	-0.3808449
8	0xc03d1fa6	-2.9550567
9	0xbe970410	-0.29495287
10	0x3e978829	0.2959607
11	0x3e25e9df	0.16202496
12	0xbe97a746	-0.29619807
13	0xbf5c230b	-0.8599097
14	0x3e74c763	0.23904185
15	0x3f4b9ba9	0.79534394
16	0x3dbd79e3	0.09251764
17	0x3e469667	0.19393311
18	0xbea7bc89	-0.32761028
19	0xbe30dc72	-0.17271593
20	0x3eec0edf	0.46105096
21	0x3f1539bf	0.5829124
22	0x3ef03f44	0.46923268
23	0xbebaaa31	-0.3645797
24	0x3f0b4beb	0.54412717
25	0x3dd51b54	0.10405603
26	0xbeb71c64	-0.35763848
27	0x3fe28bff	1.7698973
28	0x3e7f5d13	0.24937849
29	0x3e2ab465	0.16670378
30	0xbe2b1b87	-0.1670972
31	0xbe255877	-0.16147028

weight f4 [16, 32]
0	0xbd39dc7f	-0.045376297
1	0x3ed6f61a	0.41984636
2	0x3e1d1ec6	0.1534377
3	0x3e4326ac	0.19057721
4	0x3ede909c	0.43469703
5	0xbd0abf0e	-0.03387361
6	0x3e378b63	0.17924266
7	0x3e517952	0.20456436
8	0x3ef677b1	0.48138192
9	0x3ee97a19	0.45600966
10	0xbdd923d2	-0.10602535
11	0x3e1f0452	0.15528992
12	0x3eb669d1	0.35627607
13	0xbe45c773	-0.19314365
14	0xbd705c3b	-0.058681708
15	0xbe9c4261	-0.30519393
16	0x3d50629a	0.050875284
17	0x3e6191a3	0.22028212
18	0x3eb8080f	0.35943648
19	0x3e94e52b	0.2908109
20	0x3dbbcfcc	0.091704935
21	0x3cc16f36	0.0236126
22	0xbe1c7a7a	-0.15281096
23	0xbe14f09c	-0.1454491
24	0x3eae0089	0.33984783
25	0xbe6390a0	-0.22223139
26	0xbea3f385	-0.32021728
27	0xbe848f36	-0.2589051
28	0xbda93799	-0.082625575
29	0x3f047d2e	0.5175351
30	0x3e23a0dc	0.15979332
31	0xbec9c696	-0.39409322
32	0x3f45c61f	0.77255434
33	0xc0466ae1	-3.1002734
34	0x3f064228	0.52444696
35	0x3f59cf27	0.85081714
36	0xbf23c0b7	-0.63965935
37	0xbe1f9c79	-0.15587033
38	0xbc47b709	-0.012189635
39	0xbe8914de	-0.26773733
40	0xc0333b9c	-2.8005133
41	0x3e34b25a	0.1764616
42	0xbee8c583	-0.4546319
43	0xbdbd5933	-0.09245529
44	0xbeb39441	-0.35074046
45	0xbf3f1c3f	-0.74652475
46	0x3e68d6d2	0.22738197
47	0x3e7d7fe0	0.24755812
48	0xbe3e6def	-0.18596624
49	0xbf2a87a3	-0.66613215
50	0xbe7db4f2	-0.24776056
51	0x3eb2baf8	0.3490827
52	0x3e432e73	0.19060688
53	0x3f8750bf	1.0571517
54	0x3fdae891	1.7102224
55	0x3e691a6e	0.22763988
56	0xbde77c02	-0.113029495
57	0x3e9b4476	0.3032567
58	0x3f5358a4	0.8255713
59	0x40017bd5	2.023183
60	0x3f0e2b42	0.55534756
61	0xbe2e87f5	-0.17044051
62	0xbfadf39d	-1.358997
63	0xbee1b334	-0.44082034
64	0x3e5c3b8a	0.21507087
65	0x3dfe6619	0.12421817
66	0xbf032855	-0.51233417
67	0x3e9098e6	0.28241652
68	0xbd8aaf1b	-0.0677168
69	0x3e9be05b	0.30444607
70	0xbbfdfba0	-0.0077509433
71	0x3d1813f2	0.037128396
72	0x3e17ea31	0.1483543
73	0x3f38da82	0.72208416
74	0xbf11d2dd	-0.56962377
75	0x3e61a0a2	0.22033933
76	0x3e1f94b4	0.1558407
77	0x3ecfb21b	0.4056557
78	0xbe1dc705	-0.15407951
79	0xbe0c6396	-0.13709864
80	0xbea7f167	-0.32801363
81	0xbc976519	-0.018480824
82	0x3e81ef0c	0.2537769
83	0xbd8f07c9	-0.06983907
84	0xbe6d0854	-0.23147708
85	0x3bbc8326	0.005752939
86	0xbe84f663	-0.25969228
87	0x3da1e140	0.07904291
88	0xbe3c91d5	-0.18415006
89	0x3c4dc531	0.012559221
90	0x3dd21b28	0.10259086
91	0xbe2089a5	-0.15677507
92	0x3dbca23d	0.09210632
93	0x3da934ca	0.08262022
94	0xbe8294ff	-0.255043
95	0x3dae068f	0.08497345
96	0xbd11ddf5	-0.035612065
97	0xbd1227a5	-0.03568234
98	0x3dcbd38a	0.09952457
99	0xbd7983d5	-0.06091674
100	0x3e2b6359	0.16737117
101	0xbebcba33	-0.3686081
102	0x3debf003	0.11520388
103	0xbe379b6c	-0.17930382
104	0x3e38f42e	0.18061897
105	0xbe948b4b	-0.29012522
106	0xbb5006bb	-0.0031742293
107	0x3e8e5280	0.27797318
108	0x3e3c53d6	0.18391356
109	0xbe44cc1d	-0.19218488
110	0x3debb026	0.11508207
111	0x3ea733fb	0.32656845
112	0xbca8ec48	-0.02062048
113	0xbd3e5364	-0.046466246
114	0x3d12abd0	0.035808384
115	0xbdf20f50	-0.11819327
116	0x3d88fb83	0.06688597
117	0x3f18f895	0.59754306
118	0x3ee24eda	0.44200784
119	0xbe433875	-0.19064505
120	0x3e431ff1	0.19055153
121	0x3ef38983	0.4756585
122	0xbc801efd	-0.015639776
123	0xbeaf0d1c	-0.3418969
124	0x3d2dccb0	0.042431533
125	0x3ea2cd42	0.31797224
126	0xbdb229b2	-0.08699359
127	0x3da6cba5	0.08144311
128	0x3e27a3d1	0.16371085
129	0x3ea5d66b	0.3239015
130	0x3de0a5c7	0.109691195
131	0x3d8ff7f5	0.07029716
132	0x3e06d8df	0.13168667
133	0xbebd8f01	-0.37023166
134	0x3ece7c90	0.4032941
135	0xbec9f639	-0.39445665
136	0x3eeeda08	0.4665072
137	0x3d593e8e	0.053038172
138	0x3df9c06e	0.12194906
139	0x3e22d1a7	0.15900289
140	0x3daaae34	0.08334008
141	0xbda87749	-0.08225877
142	0x3e66ae1e	0.22527358
143	0x3e6b4bb8	0.22978103
144	0xbef51574	-0.4786793
145	0x3caf5d29	0.021406727
146	0xbeaec7d8	-0.34136844
147	0x3dcd2b20	0.10017991
148	0x3d84ece1	0.064904936
149	0xbe06fc1d	-0.13182111
150	0xbe414574	-0.1887415
151	0xbeb04215	-0.34425417
152	0x3e159248	0.14606583
153	0xbc9f2b99	-0.019429969
154	0x3dc93abe	0.09825657
155	0xbe1e0546	-0.15431699
156	0x3e608ba6	0.21928272
157	0x3dc332e1	0.09531189
158	0x3ce6fef8	0.02819775
159	0xbf00fcbd	-0.5038565
160	0xbd4b387b	-0.04961441
161	0xbfd96b03	-1.6985782
162	0xbc94ea08	-0.018178001
163	0x3e14c826	0.14529476
164	0xbe71ceab	-0.23613994
165	0xbdaee372	-0.085394755
166	0xbd86871c	-0.06568739
167	0x3b1e141f	0.002412088
168	0xbf86a7af	-1.0519923
169	0xbe3bd986	-0.18344697
170	0x3e5cf16d	0.21576472
171	0xbe12e351	-0.14344527
172	0xbd7fbd98	-0.06243667
173	0xbdbe9ffd	-0.09307859
174	0x3ea52cf2	0.32260853
175	0x3ebde3eb	0.3708795
176	0x3e347e7d	0.17626376
177	0xbeb6e56c	-0.3572191
178	0xbe2bb310	-0.16767526
179	0x3daa87ed	0.08326707
180	0xbe228a39	-0.1587304
181	0x3f3f1f31	0.7465697
182	0x3f92e31e	1.1475561
183	0x3e11b0e2	0.14227632
184	0xbd981bc5	-0.074271716
185	0xbcfc1301	-0.03077078
186	0x3f7af7b6	0.98034227
187	0x3f2da11e	0.6782397
188	0xbeff7719	-0.49895552
189	0xbe23c5da	-0.15993443
190	0xbf55dd68	-0.83540964
191	0xbef355b0	-0.47526312
192	0x3ed3daff	0.41378018
193	0x3f529007	0.8225102
194	0x3efa51b8	0.4889047
195	0x3f638a8f	0.888833
196	0xbe0ea01e	-0.13928267
197	0xbded7a04	-0.11595538
198	0x3f342337	0.70366234
199	0xbed15500	-0.40885162
200	0x3fafc4ca	1.373193
201	0x3e22ff6b	0.15917747
202	0x3c7a9ac8	0.015295692
203	0x3d43e6e4	0.047827616
204	0xbf5b44a7	-0.8565163
205	0xbf130d76	-0.57442415
206	0x3eb8741c	0.36026084
207	0x3ee2efce	0.4432358
208	0xbed8e272	-0.42360264
209	0x3c999cb8	0.018751487
210	0xbe4971bb	-0.19672291
211	0x3efb23d1	0.49050763
212	0x3f19637f	0.59917444
213	0x3f0ec4ae	0.5576886
214	0x3f204df4	0.6261895
215	0xbf2218b9	-0.63318974
216	0x3edee90f	0.43537185
217	0x3e2ec299	0.1706642
218	0xbd398830	-0.045295894
219	0xbf0bd99a	-0.5462891
220	0x3f588069	0.8457094
221	0x3dea3c50	0.11437285
222	0xbed94f96	-0.42443532
223	0xbe9d3018	-0.30700755
224	0xbb9fdb7e	-0.0048784604
225	0x3d4d3dd4	0.050107792
226	0x3ea8ac6e	0.32944053
227	0xbe23071c	-0.15920681
228	0xbe117bee	-0.14207432
229	0xbe465c34	-0.1937111
230	0x3ea82f8c	0.32848775
231	0xbe8dee50	-0.2772088
232	0xbefff51e	-0.49991697
233	0xbf155910	-0.58339024
234	0x3ec83875	0.39105573
235	0x3e6a413f	0.22876452
236	0x3e6fe67d	0.23427768
237	0xbf5e3b74	-0.8680947
238	0x3d2d8959	0.042367313
239	0x3f2cca0f	0.67495817
240	0x3f24eb00	0.6442108
241	0x3e0eef48	0.13958466
242	0xbdd63d84	-0.10460952
243	0x3d64c2f7	0.055849995
244	0x3f5ac8b1	0.8546248
245	0x3eca7e00	0.39549255
246	0x3ee56b05	0.44808212
247	0xbf842c84	-1.0326085
248	0x3ed1912f	0.4093108
249	0xbee77262	-0.45204455
250	0xbbf7f9f3	-0.007567638
251	0x3e37b45b	0.17939894
252	0xbde6907c	-0.11258027
253	0xbf051748	-0.5198865
254	0xbe0fd700	-0.1404686
255	0xbf01eaf2	-0.50749123

bias f4 [16]
0	0x3e18c6af	0.14919542
1	0x3ea655d5	0.3248736
2	0xbecfb257	-0.4056575
3	0x3e866376	0.26247758
4	0x3e539f9f	0.2066636
5	0xbe2b1c5b	-0.16710036
6	0x3f187bc7	0.5956387
7	0x3edca630	0.4309554
8	0xbc232b2f	-0.009959026
9	0x3e083b53	0.1330388
10	0x3e242e89	0.16033377
11	0x3ecf0012	0.4042974
12	0x3ef31091	0.47473577
13	0x3d918626	0.07105665
14	0x3d9a0913	0.07521262
15	0x3efc9253	0.49330387

weight f4 [1, 16]
0	0xbf848e37	-1.03559
1	0x3f852b55	1.0403849
2	0x3faf1755	1.3678995
3	0xbfa16c54	-1.2611184
4	0xc013ba18	-2.3082333
5	0x3f57be72	0.8427497
6	0xbf7b12d3	-0.980756
7	0xbf9f0e90	-1.2426319
8	0xbfde3018	-1.7358427
9	0xbf25d311	-0.64775187
10	0x3fd7492c	1.6819205
11	0xbf47e3be	-0.7808188
12	0xbf6b07f6	-0.9180902
13	0xc0056e48	-2.084856
14	0xbf83a69c	-1.028522
15	0xbf93a488	-1.1534586
