models/dehnen.pt (torch, 6287 bytes, 5 tensors)

weight f4 [32, 2]
0	0x3d82c992	0.06386103
1	0x3c8d2051	0.017227324
2	0x409ca6a4	4.895342
3	0xbf3d1953	-0.73866767
4	0x3e5fa47f	0.21840094
5	0x3e6364d1	0.22206427
6	0xc076daf6	-3.8571143
7	0x3d1f0bac	0.03882949
8	0x3e32f520	0.1747632
9	0x3f72988f	0.94764036
10	0xbebe30a0	-0.37146473
11	0xbc083e21	-0.008315594
12	0xbc4bc19c	-0.012436297
13	0xbe58a0e2	-0.21155122
14	0xbec77ee3	-0.38963994
15	0xbe5de5ca	-0.21669689
16	0x3e94aba4	0.290372
17	0xbdae7b2d	-0.08519588
18	0x3e80a118	0.25122905
19	0xbd5bd542	-0.053670175
20	0xbc36f3a8	-0.011166491
21	0xbeef1bff	-0.46701047
22	0x3bad683f	0.005291968
23	0xbf63c42b	-0.88971204
24	0xc009ee57	-2.155172
25	0x3ce88c50	0.028387219
26	0x3d97bc08	0.07408911
27	0xbe4831e2	-0.19550279
28	0x3f3d7501	0.7400666
29	0x3e3bf2f2	0.18354395
30	0x3db7638e	0.089545354
31	0x3d94e9f9	0.07271189
32	0xbf0ebcd1	-0.5575686
33	0xbca86ef7	-0.020560725
34	0x3cb07cd8	0.021543905
35	0xbe09e777	-0.13467203
36	0x3e1c3b92	0.152571
37	0xbe262ab0	-0.16227221
38	0xbc21e729	-0.009881773
39	0xbe4558fc	-0.19272226
40	0xbcb9bb26	-0.022672247
41	0xbeafdbb0	-0.34347296
42	0xbef83e8b	-0.48485216
43	0x3e12b10e	0.14325354
44	0x3b3ed7db	0.002912036
45	0x3e451d4f	0.19249462
46	0xbf865b97	-1.0496701
47	0x3e4e0536	0.20119175
48	0xbff5f8fa	-1.9216607
49	0x3f335a8d	0.70060045
50	0x40000c35	2.000745
51	0xbf46c1ce	-0.7763947
52	0xbd040a43	-0.03223635
53	0xbe4c95ca	-0.19979015
54	0x3ed6ffcc	0.41992033
55	0x3e779259	0.24176921
56	0x3f689145	0.90846664
57	0x3dae31ee	0.08505617
58	0x3ca94139	0.020660983
59	0x3e729cdf	0.23692654
60	0x3e8095aa	0.25114185
61	0x3d63d429	0.055622254
62	0x3e7decd9	0.24797381
63	0xbed63d0a	-0.41843444

bias f4 [32]
0	0xbe6d729d	-0.23188253
1	0x3fc3e566	1.5304382
2	0x3e8a827c	0.27052677
3	0xbdfaf6d1	-0.12254108
4	0x3e5e491e	0.2170758
5	0xbe569467	-0.20955049
6	0xbe3d223b	-0.18470089
7	0xbf3e0d72	-0.74239266
8	0x3e57037a	0.2099742
9	0xbdafe681	-0.08588887
10	0x3d0da28c	0.034578845
11	0xbba6c3bd	-0.005089252
12	0x3dcdcacd	0.10048447
13	0x3d334565	0.04376735
14	0x3eeaf286	0.45888156
15	0x3ea965a8	0.3308537
16	0x3f11b5ab	0.5691783
17	0x3e3a2b49	0.18180574
18	0x3b9dbb6f	0.0048136036
19	0xbe717910	-0.23581338
20	0x3eb370f9	0.3504713
21	0x3e8d4f65	0.27599636
22	0x3e8d3ab8	0.2758386
23	0x3e38f66a	0.1806275
24	0xbfc8a85a	-1.5676377
25	0x3fe0d703	1.7565616
26	0xbe80ed72	-0.25181156
27	0x3e93b85e	0.28851599
28	0x3f442535	0.76619273
29	0x3e93ece8	0.28891683
30	0xbe931c0e	-0.28732342
31	0x3e5eedbd	0.21770377

weight f4 [16, 32]
0	0x3e7163e2	0.23573259
1	0xbe33fe73	-0.17577533
2	0xbd35bd00	-0.044369698
3	0xbe32d193	-0.17462759
4	0xbe0f5826	-0.1399847
5	0x3dc3abe3	0.09554269
6	0x3e1701be	0.14746758
7	0x3eacc0a6	0.3374073
8	0x3dac1456	0.08402316
9	0x3dc73503	0.09726908
10	0x3e1dd994	0.1541503
11	0x3e88f392	0.2674833
12	0x3de94563	0.113901876
13	0x3dc081bb	0.09399744
14	0xbe05028f	-0.12989257
15	0x3cdbf800	0.026851654
16	0xbdd658ad	-0.10466132
17	0xbe788a3e	-0.24271485
18	0x3bb6332c	0.0055602994
19	0xbcb3bee0	-0.021941602
20	0xbdf9e483	-0.12201788
21	0xbe4b7fd5	-0.19872983
22	0xbd8a1ff7	-0.06744378
23	0xbeaf352e	-0.3422026
24	0x3d3b739e	0.045764558
25	0x3da755ea	0.08170684
26	0x3e641212	0.22272518
27	0x3e970e5c	0.29503143
28	0xbc269770	-0.010167941
29	0xbf018015	-0.5058606
30	0x3e450d77	0.19243418
31	0xbe25117c	-0.16119951
32	0xbdbc3f0b	-0.09191712
33	0x3ef12586	0.4709894
34	0xbe47633d	-0.1947145
35	0x3e58d95e	0.21176669
36	0xbdd80161	-0.10547138
37	0xbe1d90df	-0.15387295
38	0xbdeee929	-0.116655655
39	0x3e9cd1e7	0.30628893
40	0xbef8972b	-0.48552832
41	0x3d34315e	0.043992393
42	0xbd4d1ef9	-0.050078366
43	0xbea4c313	-0.3218008
44	0x3df98bbb	0.121848546
45	0xbe21e061	-0.1580825
46	0x3e3437f7	0.17599474
47	0xbc844321	-0.01614529
48	0xbde7d42f	-0.11319768
49	0xbd818310	-0.06323826
50	0xbda10997	-0.07863157
51	0x3e82a35c	0.25515258
52	0xbdd1ff55	-0.10253779
53	0xbe679b40	-0.22617817
54	0xbe6c3de1	-0.2307048
55	0xbe2d3efa	-0.16918555
56	0x3d25b34b	0.04045419
57	0x3e3fffbe	0.18749902
58	0x3ebd29ec	0.36946046
59	0xbed120d8	-0.4084537
60	0x3c9da53c	0.019243829
61	0x3e295abd	0.1653852
62	0x3e5538fd	0.2082252
63	0x3e0081e6	0.12549552
64	0x3e558a27	0.20853482
65	0xbe71081e	-0.23538253
66	0xbdabb7f5	-0.083846964
67	0x3e984516	0.29740208
68	0xbe851418	-0.25991893
69	0x3ec2a0ba	0.3801325
70	0x3d931080	0.071808815
71	0x3cb4eba5	0.02208502
72	0xbd797dea	-0.060911097
73	0x3e92d94e	0.28681415
74	0x3dc34f12	0.09536566
75	0xbf04b7c3	-0.518429
76	0xbf01320a	-0.5046698
77	0xbddeb766	-0.10874824
78	0xbe85adbf	-0.2610912
79	0xbe88bef0	-0.26708174
80	0xbea2dbb4	-0.31808245
81	0xbdfe37b4	-0.12412968
82	0x3ea618f3	0.3244091
83	0xbd6f6526	-0.058446072
84	0xbec841f6	-0.39112824
85	0xbd60b260	-0.05485761
86	0x3da3c942	0.07997371
87	0x3d2fe3c4	0.042941824
88	0xbe113cc3	-0.14183335
89	0x3e946cb3	0.2898918
90	0x3df3297a	0.118731454
91	0xbdc9839d	-0.09839556
92	0xbe09ac05	-0.13444526
93	0xbef687da	-0.48150522
94	0x3da0e58c	0.078562826
95	0x3e610172	0.21973208
96	0xbd639f9c	-0.055572137
97	0xbeb28371	-0.34865907
98	0x3f0a388d	0.5399254
99	0x3e96ce9d	0.29454508
100	0x3f182973	0.59438246
101	0xbe862d15	-0.2620627
102	0xbee4f7c2	-0.44720274
103	0xbf27107a	-0.65259516
104	0xbe60a361	-0.21937324
105	0xbdc19e67	-0.09454041
106	0xbf29a7ae	-0.66271484
107	0xbc8bad69	-0.017050462
108	0xbcffd1a7	-0.0312279
109	0x3e4ca731	0.19985653
110	0x3eb66198	0.35621333
111	0x3ed7ee9f	0.4217424
112	0xbe8912e9	-0.2677224
113	0xbe51cbfb	-0.20487969
114	0x3f01fe93	0.50779074
115	0xbe880550	-0.26566553
116	0xbf01ecfa	-0.5075222
117	0xbea14072	-0.3149448
118	0x3f1b45ac	0.60653186
119	0xbdfc83f7	-0.12329858
120	0xbe3f45fe	-0.18679044
121	0x3e86892d	0.26276532
122	0xbf115c81	-0.56781775
123	0x3f0f0f03	0.5588228
124	0x3eeeb3cd	0.46621552
125	0x3ed94896	0.4243819
126	0x3d69c36c	0.057071134
127	0x3e888624	0.2666484
128	0x3ea68e83	0.32530603
129	0x3d545868	0.051842123
130	0xbdec5cef	-0.11541163
131	0x3caf9398	0.021432683
132	0x3e6a1efc	0.22863382
133	0x3b8d852d	0.0043188543
134	0x3e7a2dfa	0.24431601
135	0xbd209d9e	-0.039212815
136	0x3e0fc4e3	0.1403995
137	0xbe1a4a7a	-0.15067473
138	0x3f148a6f	0.5802373
139	0x3cfd0e45	0.030890593
140	0xbd9877ae	-0.07444702
141	0x3e576997	0.21036373
142	0xbef0b4ed	-0.47013035
143	0xbe7dbe27	-0.24779569
144	0x3da5cf4d	0.0809618
145	0x3dfb9798	0.122847736
146	0xbc507d36	-0.012725165
147	0x3e8ddae7	0.27706072
148	0x3dc42834	0.09577981
149	0xbec2350b	-0.37931094
150	0xbea0356b	-0.31290755
151	0x3ba49421	0.005022541
152	0x3e2f7a44	0.17136484
153	0xbeeee6d8	-0.46660495
154	0x3cb68b7f	0.022283314
155	0xbec63b8d	-0.3871731
156	0xbe20066b	-0.15627448
157	0xbe8be652	-0.27324158
158	0x3ed705f4	0.4199673
159	0xbdb500e0	-0.088380575
160	0xbec58eaa	-0.38585407
161	0xc01bd26f	-2.4347188
162	0xbe0fd8bd	-0.14047523
163	0x400338e6	2.0503478
164	0xbeda1611	-0.4259496
165	0x3f8eec14	1.1165795
166	0x3e378af5	0.17924102
167	0x3e50d15f	0.20392369
168	0xbf01c36c	-0.50688815
169	0xbf2fa5ff	-0.68612665
170	0xbd810e33	-0.063015364
171	0x3e9a388d	0.3012127
172	0x40206471	2.5061305
173	0xbd673ccb	-0.05645446
174	0xbe82c9ec	-0.2554468
175	0xbe5095aa	-0.20369592
176	0x3f6ed2aa	0.932902
177	0x3ea37686	0.31926364
178	0xbeb7a0da	-0.35864908
179	0xbe37d6aa	-0.17952982
180	0x3cbc4f57	0.022987051
181	0x3f65bc13	0.89740103
182	0x3e19d1d0	0.15021443
183	0x3f6c13eb	0.9221789
184	0x3f99fcc9	1.2030269
185	0xbfc65178	-1.5493612
186	0xbe2be5af	-0.16786836
187	0xbe2c588c	-0.16830653
188	0xbee1df82	-0.44115835
189	0xbee8b615	-0.45451418
190	0xbf8be0d5	-1.0927988
191	0x3dc7b52f	0.09751355
192	0xbee26037	-0.4421403
193	0xbda7887e	-0.08180331
194	0xbe271482	-0.16316417
195	0x3de9cc64	0.114159375
196	0xbd7d7c12	-0.0618859
197	0x3e0d7467	0.13813935
198	0xbdcf9f1d	-0.1013777
199	0xbe432e56	-0.19060645
200	0xbb8758cc	-0.0041304585
201	0xbbf509e9	-0.007477988
202	0x3ca4aa7d	0.020100826
203	0x3d131fdc	0.035919055
204	0x3e2050ed	0.1565587
205	0xbc1922fa	-0.009346718
206	0x3e6ff7ba	0.23434344
207	0x3e35acba	0.17741671
208	0x3d4a6009	0.049407993
209	0xbdfdaba6	-0.12386255
210	0xbe05778c	-0.13033885
211	0xbd8b9123	-0.06814792
212	0xbdacca0d	-0.08436976
213	0xbe42dc4a	-0.19029346
214	0xbd8f58c3	-0.06999352
215	0x3e3e1902	0.18564227
216	0x3e846918	0.2586143
217	0xbead3b9a	-0.33834535
218	0xbca4780a	-0.02007677
219	0x3eac442b	0.33645758
220	0x3e2ec48d	0.17067166
221	0xbe3ae312	-0.18250683
222	0x3dde56cf	0.10856401
223	0x3e142ac2	0.14469436
224	0x3e0d4827	0.13797055
225	0xbfb999f5	-1.4500109
226	0x3e33f0c3	0.17572312
227	0x3f4a7506	0.79084814
228	0xbe0e5682	-0.13900188
229	0x3f00cb1e	0.5030993
230	0x3d6d3078	0.05790755
231	0x3eb96e29	0.36216858
232	0xbed7285c	-0.4202298
233	0xbf4ee9c7	-0.80825466
234	0xbeb2169d	-0.34782878
235	0xbee5ae37	-0.44859478
236	0x3f0b34a8	0.5437722
237	0xbe1862a7	-0.14881383
238	0xbdf937a6	-0.12168817
239	0xbf098b2a	-0.5372797
240	0x3e36c810	0.17849755
241	0xbde5ed1d	-0.112268664
242	0xbdd9b553	-0.10630288
243	0x3e0c3043	0.13690285
244	0xbec52c5b	-0.38510403
245	0x3f45bba7	0.7723946
246	0x3d784a6d	0.060617853
247	0x3f1d5487	0.61457103
248	0x3fb29f01	1.3954774
249	0xbfd40628	-1.6564379
250	0xbdfb0fba	-0.12258859
251	0x3e540c21	0.20707752
252	0xbf8f78f7	-1.120879
253	0xbd186bc9	-0.037212167
254	0xbdb71b6e	-0.08940779
255	0xbe3ca8b9	-0.18423738

bias f4 [16]
0	0xbe53ff16	-0.20702776
1	0xbe4c7b68	-0.19968951
2	0xbe2a0fae	-0.16607544
3	0x3e28c837	0.16482626
4	0xbe66a274	-0.22522908
5	0x3dcfec05	0.10152439
6	0x3e4f3f86	0.20239076
7	0xbd3e53b7	-0.046466555
8	0xbebd3eb0	-0.3696189
9	0x3e3c2a23	0.18375449
10	0x3e8e0e2b	0.27745184
11	0x3ddd3389	0.10800845
12	0xbe52ddbc	-0.20592397
13	0xbdb1097d	-0.08644388
14	0x3e9154d1	0.28385022
15	0x3e89a428	0.26883054

weight f4 [1, 16]
0	0x3f545a29	0.82950073
1	0x3f278b10	0.6544657
2	0x3ecfdd31	0.40598443
3	0xbf1cffea	-0.61327994
4	0x3f7af4da	0.98029864
5	0xbfb07f8f	-1.3788928
6	0xbf8b056a	-1.0861027
7	0xbf91e658	-1.139842
8	0x3f3a52f6	0.7278284
9	0xbf269801	-0.6507569
10	0xbec613cd	-0.38686982
11	0x3d4b673f	0.04965901
12	0x3f144b80	0.57927704
13	0x3ef5cfb9	0.48010042
14	0xbf0af47d	-0.5427931
15	0xbf613857	-0.8797659
