models/dehnen.pt (torch, 36019 bytes, 11 tensors)

weight f4 [50, 2]
000000 87 e9 b5 be c3 5b 40 bc d9 47 a5 bf b8 31 45 bd
       -0.3552973 -0.011740628 -1.2912551 -0.04814312
000010 7c 80 b3 bf 64 8b 11 3e e7 56 aa 3f d7 93 7c bd
       -1.4023585 0.1421333 1.330777 -0.06166443
000020 79 3d b5 3f 48 45 06 3d 6b 68 92 3f 5d c2 73 3b
       1.4159385 0.032780915 1.1438116 0.0037194707
000030 05 93 c9 bf c9 a3 b3 3e d6 f3 87 bf 6e 84 e3 bd
       -1.5747992 0.35085896 -1.0621288 -0.11109243
000040 4a f2 ad 3e b3 2b 1d 3e 79 24 b2 3f 6a 85 a5 bc
       0.33973914 0.15348701 1.391738 -0.020205218
000050 a9 eb a5 3f a2 6c 4b 3e 2e 92 84 3f 9d d0 0a 3d
       1.2962543 0.19865659 1.035711 0.033890355
000060 98 0a 0f 3f 92 29 b1 3d b1 76 a8 bf 30 0b 34 bd
       0.5587554 0.08650507 -1.3161222 -0.04395598
000070 f6 32 01 3e d0 ce 80 3e 39 4a be 3f 6f fa 76 bd
       0.12617096 0.25157785 1.4866401 -0.060297426
000080 e0 cb 54 bf 1f 2b b2 bd c5 d0 a1 bf b5 03 de 3d
       -0.8312359 -0.08699631 -1.2641836 0.10840551
000090 03 26 c8 3f bf d4 81 bd 6c ae 9d 3f 8f d8 ce bd
       1.56366 -0.06339406 1.2318854 -0.10099899
0000a0 67 ce c4 bf 9a e6 32 bf fb 1d 8f bf 9a 0a e4 3b
       -1.5375489 -0.6988312 -1.1181024 0.0069592716
0000b0 a0 53 ae bf 14 c9 88 3d 4f 2b c2 3f 78 19 0e be
       -1.361927 0.066789776 1.5169467 -0.13876903
0000c0 87 81 36 3f e0 7e bd bd fa e0 cd be 8e 67 50 3d
       0.71291393 -0.09252715 -0.40210706 0.050880007
0000d0 d0 19 97 bf 3f 03 1d 3e c5 2f d5 bf 95 00 28 bd
       -1.1804752 0.1533327 -1.6655203 -0.04101618
0000e0 ec 7c d7 3e 72 78 40 3e 1e c4 a2 bf 3b f9 8e 3c
       0.42087495 0.18795946 -1.27161 0.017452827
0000f0 5a ea 7c 3f 79 76 18 be 92 40 b7 bc ae c2 93 3e
       0.9879509 -0.14888944 -0.022369657 0.28859466
000100 8b 9e b1 bf 8a fe ac bb 5a 57 97 3e 47 b2 e4 3c
       -1.3876508 -0.005279367 0.2955883 0.02791704
000110 ab 6b a2 bf d1 62 e6 bc 0d 35 d2 bf b7 91 0b 3c
       -1.2689108 -0.028123291 -1.642244 0.008518628
000120 ed da f2 be e4 a3 37 3c a4 7b a9 3d 90 25 06 bd
       -0.47432652 0.011208508 0.08275536 -0.032750666
000130 96 02 b2 3f 1a 1e da ba 7a 17 ef 3e c1 f2 de 3d
       1.3907039 -0.0016641051 0.466976 0.108861454
000140 4c 0a c1 bf 4c fa 9b 3d 5b 6f bf bf 05 40 89 3c
       -1.5081267 0.076161 -1.4955858 0.01675416
000150 8c dc b7 bf 68 ea aa bc 86 43 4d 3e 2b c9 d6 bd
       -1.436418 -0.020863727 0.2004529 -0.104875885
000160 53 53 75 3f 28 ee 20 3d 8c 49 cd bf b6 d1 b1 bc
       0.9583027 0.039289623 -1.603807 -0.021706443
000170 4e 84 8f bf 99 2c 3c bd c2 e7 be bf 26 b6 43 3a
       -1.1212251 -0.04594097 -1.4914477 0.0007465802
000180 37 ad 34 bf aa 80 b7 bd 8c 16 b1 3f 0a e2 4d bd
       -0.70576805 -0.089600876 1.3835006 -0.050264396

bias f4 [50]
000000 f2 82 c1 bd 78 46 10 be cc f9 8f be 07 aa 78 3e
       -0.09448804 -0.14089382 -0.28120267 0.2428361
000010 b1 cb 1e 3e 34 bb 74 3e 07 33 bb be e1 6e 0f 3d
       0.1550739 0.23899537 -0.36562368 0.03501785
000020 05 25 8b bd ba 65 73 3e 08 3d 04 be 68 74 ec 3d
       -0.0679417 0.23769274 -0.12913907 0.1154564
000030 99 a1 cb bc 2c e5 1c be 60 b6 4b 3e 5d b9 9e 3e
       -0.02485733 -0.15321797 0.1989379 0.31000796
000040 0c e0 04 bd 2b 2d 4a be 74 5c 43 3e 8b 54 63 3e
       -0.03244023 -0.19743793 0.19078237 0.2220022
000050 05 dc 07 bf f1 2c 66 be 83 5d 46 be d7 c7 8a 3e
       -0.530701 -0.22478081 -0.1937161 0.2710559
000060 de 38 70 bb 48 60 48 be 2e ac 93 be f4 8a 45 be
       -0.003665499 -0.19567978 -0.288423 -0.19291288
000070 80 85 7e be 09 a5 4e be 67 5f 52 3e 6c b1 c7 3d
       -0.24855614 -0.20180143 0.20544206 0.097506374
000080 0d 9f 66 be 2c 3c 2e 3d e4 80 38 be da 4c 5a be
       -0.2252161 0.042537853 -0.18017918 -0.21318379
000090 1e 32 41 bd a2 a0 e3 3d b5 f6 6f 3e e2 cf 71 bd
       -0.047166936 0.11114623 0.23433955 -0.059036143
0000a0 e8 44 6c be 61 a4 6e be aa 09 46 be 9b f2 84 3e
       -0.2307316 -0.23304893 -0.19339624 0.25966343
0000b0 a6 41 a7 bb e2 ad 1d be 97 7f 20 be 4e 0a 41 be
       -0.0051042615 -0.15398362 -0.15673672 -0.18851587
0000c0 76 50 39 be 81 bd 81 3e
       -0.180971 0.25339893

weight f4 [50, 50]
000000 7e 32 a0 bd 94 26 cc bc 4e b6 ae be c1 5b eb 3d
       -0.078221306 -0.02492074 -0.34123462 0.1149211
000010 d8 0d 35 be 93 bf 9e be f4 67 2c bf 1b b8 f1 3d
       -0.17681062 -0.31005535 -0.6734612 0.118026935
000020 e3 4c d0 bd 8a a9 7a 3c df 8f da be 75 f2 7b 3d
       -0.10170915 0.01529921 -0.4268789 0.061510522
000030 2d 07 85 be 1f a0 ea 3d eb ef aa bd cf d6 9f 3e
       -0.25982037 0.11456322 -0.08346542 0.31218573
000040 c1 d1 55 3e f3 0b 9b be e1 55 25 3e 80 c7 83 3d
       0.20880796 -0.30282554 0.16146041 0.06434536
000050 84 7b 41 be b2 b3 94 bc 57 b8 2c be 53 bc 34 3e
       -0.18894774 -0.018152092 -0.16867195 0.17649965
000060 d1 ed 1c 3e 6f 60 e2 be 3a e9 fc be 69 5a f6 3d
       0.15325095 -0.44214198 -0.49396688 0.12028963
000070 ff 7d ee be 6c 0b f8 3c 52 94 cf 3e 9f a7 16 3e
       -0.46580502 0.030278884 0.40542847 0.1471238
000080 8a f7 a3 3e 9b 20 b4 3e 49 2a fe bd 39 77 64 3e
       0.32024795 0.35181126 -0.12410409 0.22311105
000090 92 93 7f be 00 31 fa 3e 0e fb 29 3d 7a ab 7f be
       -0.24958637 0.4886551 0.04149919 -0.24967757
0000a0 3c bb bf be a6 72 99 3d 83 be 5a 3e 90 5a a0 3e
       -0.37447536 0.074925706 0.21361737 0.31319094
0000b0 74 16 aa be 6f 6c 85 3f dd fd c1 3e a3 1a 49 3e
       -0.33220255 1.0423716 0.37888995 0.19639067
0000c0 6c cf f4 3c eb e1 f5 3d c5 b0 10 3e c1 27 47 be
       0.029884063 0.12005981 0.14129932 -0.19448759
0000d0 66 f4 33 39 26 3e f5 be 06 98 c5 bd da d6 74 be
       0.00017161816 -0.47898978 -0.09648137 -0.23910084
0000e0 ef fb e6 3d e7 b8 c3 bd f9 ec 22 3e 0e 61 5e bf
       0.11278521 -0.09556752 0.1591071 -0.86866844
0000f0 6f 26 36 be d6 62 d3 3b e3 fc 18 3e d6 4c 60 bd
       -0.17788099 0.006450991 0.14940219 -0.054760776
000100 3c d5 8d 3d 7a 66 84 be 3a c3 81 bc e4 8c 4d 3d
       0.06925437 -0.25859433 -0.015840162 0.050183192
000110 7a 41 57 be 2a a1 c4 be e7 bc ca 3e bb f6 a1 3e
       -0.21021071 -0.38404208 0.39597246 0.31633553
000120 3a 51 0a be 0f 80 a7 bc 80 34 7c be e9 1e 1a 3e
       -0.13507548 -0.020446805 -0.24629402 0.15050854
000130 8a 1c 71 3d bf 49 21 3e 8b 0f b9 bd a0 50 03 3f
       0.058865108 0.15750788 -0.09036168 0.512949
000140 99 66 6d bd 7c e4 d6 bd 11 59 b3 3e 11 04 06 bd
       -0.057959173 -0.10492799 0.3502889 -0.03271872
000150 3e f6 10 3d df 8f 00 3f 12 ec e8 3c 85 9c 6f 3e
       0.035391085 0.5021953 0.02843288 0.23399551
000160 f7 b4 a9 be 4e 33 20 be 96 98 80 bd 0f 5f 15 3f
       -0.33145878 -0.15644571 -0.062791035 0.5834817
000170 f0 c4 9b 3e e2 28 26 3e 47 c8 c0 bb 81 9a 2d 3f
       0.3042369 0.16226533 -0.00588325 0.6781388
000180 a3 b5 3b 3e 06 d7 01 3f 8c 4d 0d be 50 b5 ab be
       0.18331008 0.50718725 -0.13799113 -0.33536768
000190 ca c3 ef 3e 51 af 13 3f d0 97 61 3d 58 84 2c bf
       0.46829063 0.57689387 0.05507642 -0.6738944
0001a0 a5 80 e9 be e7 3d 7e bf 25 92 c4 bd 24 48 cb 3e
       -0.4560596 -0.99313205 -0.09598187 0.39703476
0001b0 94 aa a5 bd 13 22 ff be 54 f9 08 bf 64 da e2 bd
       -0.08089176 -0.49830684 -0.53505445 -0.11076811
0001c0 ac f0 d1 be dc f8 06 3f 3f 52 d9 be 8a 7a b9 bd
       -0.4100393 0.5272348 -0.4244556 -0.090565756
0001d0 a3 08 fe 3e 75 ab 94 3d 87 ae 1d bf 26 5c 75 be
       0.49615964 0.07259265 -0.6159443 -0.23960933
0001e0 a7 1a f7 3d 98 ac 04 3f 18 e5 90 3e 89 26 f7 3c
       0.120656304 0.5182586 0.28299785 0.030169742
0001f0 1c 3f fa 3d cd 9e b5 3e e0 0b 76 3e a5 0b 4c 3f
       0.122190684 0.35472718 0.24027967 0.7970527
000200 b9 a0 79 be 6e a3 c6 3e 96 00 96 bd 08 d4 a0 bd
       -0.24377717 0.38796562 -0.073243305 -0.07852942
000210 13 e2 2b 3f 49 9a ac be a4 3c 75 3f 12 c3 93 3f
       0.67141837 -0.3371146 0.95795655 1.1543906
000220 08 ab 7c be 53 09 11 bd a1 6d 89 bf 67 25 64 be
       -0.24674618 -0.035409283 -1.0736581 -0.22279893
000230 55 80 21 3f d5 ea 5a 3f c9 42 0e 3f fe 14 87 bd
       0.63086444 0.85514575 0.55570656 -0.06595801
000240 90 7b a9 be 3a de f7 3f 6a 8f d4 3e b8 51 40 3f
       -0.33102083 1.9364693 0.41515666 0.7512469
000250 bd 9d 82 3e 00 a4 12 bf 0b e5 92 3e 94 d7 a6 bd
       0.2551097 -0.57281494 0.2869037 -0.08146587
000260 81 9e c6 3b c7 30 2b bf fa 50 39 3e 24 5f ef 3e
       0.0060613756 -0.66871303 0.18097296 0.46752274
000270 1b 0c 86 3e 62 2c 9c be b8 89 2d 3e 48 ae a8 be
       0.2618111 -0.3050261 0.16947067 -0.32945466
000280 49 85 33 3e 52 22 87 be 46 12 05 3d 15 ab da bd
       0.17531313 -0.26393372 0.03248813 -0.106771626
000290 ed 50 94 bd fa 51 cb be ed c7 3d be 7c 25 86 3e
       -0.07241998 -0.3971098 -0.18533297 0.26200473
0002a0 e3 6d c1 bd d0 ab fd bd de 96 11 3e c1 c9 40 3d
       -0.09444787 -0.12386286 0.14217708 0.047067408
0002b0 b0 3b c6 3e 10 c0 1a be 34 e6 2f be 3e 9e 1e 3f
       0.38717413 -0.15112329 -0.1717766 0.6196021
0002c0 62 93 8d 3e 5c 33 c8 be 16 b2 1b 3e df 70 62 bd
       0.27651507 -0.39101684 0.15204653 -0.055283424
0002d0 af 80 1d be a9 f9 d7 bd e3 07 c8 be e5 b2 8c bc
       -0.1538112 -0.10545666 -0.39068517 -0.017175147
0002e0 92 e0 a6 be 2d 07 30 be ad 74 dc 3e 09 4c 13 bf
       -0.3259321 -0.17190237 0.43057767 -0.57537895
0002f0 b1 22 05 3f 2f 73 82 3e b8 bd a5 3d c1 9c d6 bd
       0.5200606 0.25478503 0.080928266 -0.10479117
000300 cc 65 e0 be 0f 84 ec be 03 c7 24 bd 33 bd 6a be
       -0.43827665 -0.46194503 -0.040228855 -0.22923736
000310 1e 86 7f 3d f0 62 88 bd be c5 41 be ea 16 d1 bd
       0.062383763 -0.06659496 -0.18923089 -0.10209449
000320 a9 52 17 3d ec 2a 11 be 07 a6 5e bf 99 3f b0 3f
       0.036944065 -0.1417653 -0.8697209 1.3769408
000330 6d 8e 15 3f 2e a4 f8 3e 66 14 83 be 36 1f 15 be
       0.5842045 0.4856276 -0.256015 -0.14562687
000340 72 21 5c be e8 5b 83 3f b4 e2 d3 3d bf cc 29 3e
       -0.21497133 1.0262423 0.103459746 0.1658201
000350 85 94 78 bd 9b d2 e4 be 87 03 09 be d5 c9 36 3e
       -0.060688514 -0.4469193 -0.13380252 0.1785043
000360 97 aa 57 bd 67 c5 27 bf 76 73 b7 3f 78 7a 5a 3f
       -0.05265292 -0.6553559 1.4332111 0.8534312
000370 89 f1 12 bc c9 b0 24 bf 94 49 90 bf 27 5e 84 3f
       -0.008968719 -0.6433225 -1.1272454 1.0341233
000380 ee d1 a6 3e 19 bb 83 bf 7f 73 20 bf f7 50 23 bf
       0.3258204 -1.0291473 -0.62676233 -0.6379542
000390 76 10 b4 bd df 72 56 bf f9 5c 3c 3f 14 af 35 be
       -0.08792202 -0.8376903 0.73579365 -0.17742568
0003a0 5d 71 5a bf 2d f5 d0 bd e1 9c a5 be a4 21 89 bf
       -0.8532923 -0.102030136 -0.32346252 -1.0713391
0003b0 51 0c cb be 19 11 eb 3d 66 45 1c 3f 3c be 29 3c
       -0.39657834 0.114778705 0.61043394 0.010360297
0003c0 f8 41 bd bf 06 76 b1 bf 7e fd 55 bf ff 8c ff 3e
       -1.4785757 -1.3864143 -0.83589923 0.4991226
0003d0 09 75 18 3e 88 76 c9 bf 0b 40 72 be f2 fa 9e bf
       0.14888395 -1.5739298 -0.23657243 -1.2420332
0003e0 6f a1 09 be 11 7e 8a 3f 03 43 ad 3e 4e ba b7 3e
       -0.13440488 1.0819722 0.33840188 0.35884327
0003f0 a7 93 05 be dd 6a cf bc 19 e0 4b be b7 64 e1 be
       -0.13044606 -0.025319511 -0.19909705 -0.44022152

bias f4 [50]
000000 55 e2 7c 3e c0 e1 e1 bb cd 24 ae be 87 ac 22 be
       0.24695714 -0.0068933666 -0.34012452 -0.15886126
000010 60 d4 eb 3d ca ee f3 bd 62 85 11 3a 91 da 07 3e
       0.11515117 -0.1191078 0.00055511866 0.1326697
000020 0c 4f 0e 3d 02 28 99 3d 58 37 11 3e 7a 02 9c bd
       0.034743354 0.07478334 0.14181268 -0.0761766
000030 77 c5 5a 3d c7 b9 5a bd fd 18 49 bd 38 95 45 3e
       0.053410973 -0.053399827 -0.049096096 0.19295204
000040 16 10 12 3e dd 96 ce 3e f8 3c 7f 3d 9b 74 c7 bd
       0.14263949 0.40349475 0.062314004 -0.097390376
000050 8f 9a c8 bd e1 7c c3 bd ba 17 40 be 81 26 e8 3d
       -0.09795105 -0.09545303 -0.18759051 0.11335469
000060 56 b6 05 3e 33 75 bf 3d 52 02 4d 3e 0b 6e 0d 3e
       0.13057837 0.09348526 0.20020416 0.1381151
000070 cd 41 c2 bd 4e 39 08 3e 3c f1 e1 3d d5 8c 30 bd
       -0.09485207 0.1330311 0.1103234 -0.043103058
000080 2e 97 41 3e b5 eb 2f be 5f f8 93 bc 7a 5f 3f be
       0.18905327 -0.17179759 -0.018062769 -0.18688765
000090 32 cb d4 3c f0 c5 ef 3d 04 7f c5 3b 56 70 06 bf
       0.025975797 0.117076755 0.0060271043 -0.5251516
0000a0 a8 62 3d 3e 09 0c e0 bd e4 b7 37 bd 6f ff b3 bc
       0.18494666 -0.109397955 -0.044853106 -0.021972386
0000b0 08 b7 34 bd 4c 38 f5 bd 65 34 9e be e5 aa d5 3d
       -0.044119865 -0.119736284 -0.3089935 0.10432986
0000c0 1d 38 28 3e 9f 8f f0 bd
       0.16427656 -0.117461435

weight f4 [20, 50]
000000 b3 e3 e0 bd ca e8 0a 3e ae 2a a5 bd c8 47 5c 3e
       -0.1098093 0.13565364 -0.08064781 0.21511757
000010 9c 2b b2 3d 92 73 ab 3e 8c 65 80 3d 8e f7 79 bd
       0.08699724 0.3348661 0.062693685 -0.061027102
000020 fa 9e ed bd c2 b8 b9 3d 55 d6 67 be 10 d0 98 3d
       -0.11602588 0.09068443 -0.22640355 0.0746156
000030 12 fe e5 3e 07 cd b7 3d 81 d2 34 be c8 aa 1a 3c
       0.44920403 0.08974653 -0.17658426 0.0094401315
000040 66 66 da 3d 78 32 31 be 63 ef 4a 3d 6b 44 b7 bd
       0.10664062 -0.17304409 0.049544703 -0.089485966
000050 7c 67 e5 be 2c 5e 12 3e 4a 18 1e be 3d 29 7b 3e
       -0.44805515 0.14293736 -0.15438953 0.2452745
000060 5c d4 34 be 7b f1 7c 3e d8 97 1c 3e 85 aa 00 be
       -0.17659134 0.24701492 0.15292299 -0.12565048
000070 4c 7b 87 be 09 d0 46 3e b5 f7 b0 3c ce c8 1d 3d
       -0.26461256 0.19415297 0.02160249 0.03852158
000080 b9 1d c8 bb c1 21 2f 3e c7 99 4b 3d 6b 97 4f be
       -0.006107059 0.1710272 0.0497072 -0.20272605
000090 e9 26 75 bd 0f 3e b5 3e 90 e9 51 be ff 5d 12 3f
       -0.05985156 0.3539891 -0.20499253 0.57174677
0000a0 f3 05 6a 3e 2e 12 c8 be a5 d8 5f 3d 3c 53 05 bf
       0.22853832 -0.3907637 0.054649968 -0.5208013
0000b0 9e 61 38 3a a9 70 85 be a0 9e a9 be 33 76 1a 3e
       0.0007033589 -0.26062515 -0.33128834 0.15084152
0000c0 55 51 70 bd 01 f6 3a be b2 53 8f bd f4 96 3e bf
       -0.058671314 -0.18257906 -0.069983855 -0.74449086
0000d0 7f 9c d5 bc 03 5f a4 3e f3 6a 8c 3d 0b 57 67 bd
       -0.0260756 0.32103738 0.068563364 -0.056479495
0000e0 c5 3c a8 3d a6 b8 a9 3e 16 36 0b 3c f8 0d 40 be
       0.08214716 0.33148688 0.008496782 -0.18755329
0000f0 73 89 18 3e ef af 3c 3f 39 f5 48 be 00 40 cd bd
       0.14896183 0.73705953 -0.19624795 -0.10021973
000100 3c 5f 52 be 2c a1 07 3f 5d 92 5e be c8 fd a4 3f
       -0.20544142 0.52980304 -0.2173552 1.2889948
000110 8b 40 9a 3e 4d d5 91 3e 77 c9 9f bd 91 bb a2 bd
       0.30127367 0.28483048 -0.07802098 -0.07945932
000120 33 78 a6 3e 8f 8a 1d 3f 4d 85 9a be 7d 76 7b bd
       0.3251358 0.6153955 -0.30179825 -0.061392296
000130 0e 48 d4 bd 93 9c 78 bd 5c 7b fe be 1f e3 18 3e
       -0.10365306 -0.060696196 -0.4970349 0.1493039
000140 a4 0c 80 3e fc 2f 70 3f d6 d5 87 3f 93 cd 54 be
       0.25009644 0.9382322 1.0612133 -0.20781545
000150 e3 65 3b be 20 2c 42 bf 4f 1b fd 3e fd ab 74 3e
       -0.18300585 -0.7584858 0.49434897 0.23893733
000160 1e f5 91 3e bf 23 4f ba b5 46 d9 bd 4c fe 84 be
       0.28507322 -0.000790175 -0.106091894 -0.25975263
000170 9e 7b 8b 3e 48 20 22 3c 44 ca 4f bf 6d d1 a1 3e
       0.2724275 0.009895392 -0.8116801 0.31605092
000180 c4 90 54 3c ed 49 27 3e 16 0a 0c be c0 f2 7a be
       0.012973968 0.16336794 -0.13675722 -0.24506664
000190 8e 4d 12 3f cf 7f 26 3d c2 d2 c9 3e df d7 af be
       0.5714959 0.04064923 0.39418608 -0.34344384
0001a0 3d 9f 6d bf 20 90 aa 3e 25 f5 c6 bd 63 ad b1 bd
       -0.92821103 0.33313084 -0.09714726 -0.08675649
0001b0 86 d6 b6 bd 10 4b 4e 3e b6 09 81 3d fa 63 54 be
       -0.08927636 0.20145822 0.0630068 -0.20741263
0001c0 72 77 8a be 8b 9d ad bd d3 51 21 bd 1f 28 cd be
       -0.27044255 -0.084773146 -0.039384674 -0.40069672
0001d0 82 b1 a3 be b4 39 64 3e 56 95 4b bd 5a 6c c6 3e
       -0.31971365 0.22287637 -0.049702965 0.3875454
0001e0 40 bb 8a 3e c7 d9 77 3e e1 d4 4c be 81 97 ce bd
       0.27095985 0.24204169 -0.20003082 -0.10087491
0001f0 b8 9d 10 3f 68 cb a6 be aa dd 95 3c bf 07 d0 bd
       0.5649066 -0.32577062 0.018294174 -0.101577275
000200 83 0b 25 3f 1e 10 cd be bb 16 99 3d ea d7 7b 3d
       0.6447069 -0.4005136 0.074750386 0.06148521
000210 5d 17 10 3e 17 09 a3 be 81 79 81 bb ec 5c 62 3e
       0.14071412 -0.31842873 -0.003951252 0.2210576
000220 29 36 00 be 4c 6f 82 be 4d 64 7a be 9b 9b f6 bd
       -0.1252066 -0.25475538 -0.24452324 -0.12041398
000230 67 54 c8 be 34 ae ea 3e 99 bc 84 bd 6e e7 e7 3e
       -0.39126894 0.4583603 -0.06481285 0.45293754
000240 a2 73 57 b8 3c 40 25 bd 1d ca 6c 3e bd 6c a1 be
       -5.1367686e-05 -0.04034446 0.23123975 -0.31528273
000250 48 6e 32 3e 5a 00 2e 3f 90 59 b8 3e 5c 75 bc 3e
       0.17424881 0.67969286 0.3600583 0.36808288
000260 ed ab 40 bd a6 14 ea bd 87 44 c4 3c 11 9b 02 3f
       -0.04703896 -0.114297196 0.023958458 0.5101786
000270 88 02 62 3e 83 45 6d 3e 1d e6 83 3f 0c 96 8e 3e
       0.22071278 0.23171048 1.03046 0.27848852
000280 05 c2 36 3e 90 07 24 be bc bc 8e 3f b1 31 e7 be
       0.1784745 -0.1601851 1.1151347 -0.451551
000290 db 3c 29 bf 7d 25 55 be 37 b0 2d bc e9 ec ba be
       -0.66108483 -0.20815082 -0.010601095 -0.36508873
0002a0 ba e0 f4 bc cf 25 24 bf 6a ce 4b be b3 16 0e 3d
       -0.029892314 -0.6412019 -0.1990296 0.034689616
0002b0 30 6c 08 bd 59 23 7e 3d 75 3a 9a be 0e ec ec 3e
       -0.0333063 0.06204543 -0.30122724 0.46273845
0002c0 d0 92 73 3e f7 dc 51 3d 18 38 d4 be 47 3b 2f bd
       0.23786473 0.05123612 -0.41449046 -0.04278114
0002d0 c5 a4 80 bd 06 e9 17 3d 25 4a a9 bd 9a 14 b6 be
       -0.06281427 0.037087463 -0.08266095 -0.35562593
0002e0 cb 1c 8e be f7 06 64 3e b7 96 6e 3e 0b 7e 60 be
       -0.27756342 0.22268282 0.2329968 -0.21923082
0002f0 e9 12 e8 3d ed 02 34 bf 59 4f e5 3d e6 87 1e 3e
       0.11331732 -0.70316964 0.11196775 0.15481529
000300 c6 84 2c 3e 79 fe 8f be 23 b8 86 be 7d f5 5a bf
       0.16847524 -0.28123835 -0.2631236 -0.85530835
000310 51 7a e7 3d e2 26 85 be cf a6 8e 3e fe 29 ce 3b
       0.11302627 -0.26006228 0.2786164 0.006291627
000320 d9 62 09 3f 4a 36 76 be 28 61 85 3f 99 41 84 be
       0.53666455 -0.24044147 1.0420275 -0.25831297
000330 45 ab 79 bd b5 d5 13 3e e8 2f 2f 3e 87 ac 50 3e
       -0.06095435 0.14436992 0.17108119 0.20378314
000340 0b 7c ce 3e 32 40 e9 3d 5e fa f5 3e 6e d8 95 bd
       0.40329012 0.113891974 0.48042578 -0.07316671
000350 d1 37 af 3d 59 26 39 be e6 9e 27 be 6c 9f 64 3d
       0.08555568 -0.18081035 -0.16369209 0.0558161
000360 60 fb fb 3a 60 8c 28 3f 0b 7c b8 3e 27 6c dd 3d
       0.0019224696 0.65839195 0.36032137 0.10811644
000370 b2 e3 98 3e 10 fe 94 be 8d d4 a1 be c4 f8 92 bc
       0.29861218 -0.29100084 -0.31607476 -0.017940886
000380 b4 59 a3 3d 32 f9 ca 3e 84 a0 cb 3d 3e 61 12 be
       0.07976094 0.39643246 0.09942725 -0.14294907
000390 bb 30 b3 ba f1 27 5c be b9 16 37 3e ef d0 87 bd
       -0.0013671139 -0.21499611 0.17879762 -0.06631648
0003a0 96 7a 88 3e 25 0b 82 bf 07 2e ff bd 16 45 aa be
       0.26656026 -1.0159651 -0.12459951 -0.33255833
0003b0 21 df 36 3a 48 4d aa be 71 b8 96 3d 7f 0f 20 bf
       0.0006975998 -0.33262086 0.07359398 -0.62523645
0003c0 6c 12 03 bf 05 dc 64 3e 3b e2 20 be 4e 7a 59 3f
       -0.51199985 0.22349556 -0.157113 0.8495225
0003d0 65 c3 2d be dc 15 e1 be 5e d3 8c 3e 52 8a c4 3b
       -0.16969068 -0.4396199 0.2750501 0.0059979344
0003e0 54 9f 22 3e e8 ba d6 3e 0f 81 86 3e 01 df 80 3d
       0.15881091 0.41939473 0.2627034 0.062925346
0003f0 25 68 8c 3e df 5d 0a bf b8 b7 78 be 12 2f 65 3e
       0.27423206 -0.54049486 -0.24288833 0.22381237

bias f4 [20]
000000 20 24 94 bc 80 a9 c3 bc 8b de a6 3d f7 8d 62 be
       -0.018083632 -0.023884535 0.081479155 -0.22124468
000010 ef 59 23 3e ff 4d c2 bd 8f 1a ff 3d c9 4c 14 bd
       0.15952276 -0.09487533 0.124562375 -0.03620604
000020 6a ff 59 be 31 b2 26 bd 7a 7e 08 3e 61 3f 81 bd
       -0.21288839 -0.04069728 0.13329497 -0.06310917
000030 57 1b 2a be 3d 5e 77 3d 4d a1 08 3d 03 b1 a6 3d
       -0.16611992 0.060392607 0.033356953 0.08139231
000040 27 46 55 3c c9 61 13 be 8b 2d 08 3c 52 4f ae bd
       0.013017214 -0.14392771 0.00831164 -0.08511223

weight f4 [50, 20]
000000 e8 dc 23 be 7f 89 92 3d 22 d6 41 bd eb d6 9f bd
       -0.16002238 0.071551315 -0.047323354 -0.07804664
000010 5f d1 1f 3f 31 89 ec be 38 a2 80 3e c0 b1 d4 3e
       0.6242885 -0.4619842 0.25123763 0.41541862
000020 94 38 cb 3c 3f 46 74 bf a1 31 27 bf c4 17 67 bc
       0.024807252 -0.9541969 -0.653101 -0.014104787
000030 42 93 1f 3e 3c 86 21 3f b0 1e 46 bd ad 56 5c bd
       0.15583518 0.6309545 -0.04836911 -0.053793598
000040 2a 87 b3 3e ed 00 83 3e d7 3e 1b 3f 70 51 1f 3e
       0.3506406 0.25586644 0.6064276 0.1555841
000050 0d 38 df 3d b9 42 ea bd de 0b 1b be db 33 03 bf
       0.10899363 -0.114385076 -0.15141246 -0.51251
000060 ca f1 34 be fe 48 2b 3c 5c 23 bb be e9 58 40 3e
       -0.1767036 0.010454414 -0.36550415 0.18783917
000070 6f 24 8b be 7f 2b 2c 3d 67 01 7e be ab 08 a2 3e
       -0.27176234 0.04203367 -0.24805222 0.31647238
000080 03 fe 2d be a8 15 dd 3e 68 bc 87 be 93 c3 8b 3d
       -0.16991429 0.43180585 -0.2651093 0.06824412
000090 a8 b0 66 3d 16 e1 99 be d5 14 95 3e 03 b8 2a bf
       0.056320816 -0.3005454 0.29117456 -0.6668703
0000a0 63 15 c3 3e 96 de 4a 3e 7e a5 17 bf ae f8 a9 bd
       0.38102254 0.19811472 -0.59236896 -0.08299385
0000b0 30 64 2f bf b1 53 16 3d 09 f1 0b be 65 13 62 3e
       -0.6851225 0.036700908 -0.13666166 0.22077711
0000c0 bd cd 41 be 49 39 90 3e fb b9 8d 3e 53 a4 29 3d
       -0.18926139 0.28168705 0.27680954 0.041416477
0000d0 9b f7 1e 3d e9 e3 c3 3d 66 3f b3 bd 65 ea f9 3e
       0.038810354 0.09564955 -0.08752327 0.4881164
0000e0 43 a6 bd be 01 3f 04 bd 24 31 96 3e b0 dd 37 be
       -0.3704091 -0.032286648 0.29334366 -0.17955661
0000f0 e4 7d aa 3e 29 7d c2 bd b7 2c 98 be 76 e7 9a 3e
       0.33299172 -0.09496529 -0.29721615 0.30254716
000100 01 07 9e 3d 8d d4 5b bf ad 68 16 40 90 9f 96 bd
       0.0771618 -0.858712 2.350139 -0.07354653
000110 98 b5 19 3e c2 88 67 3d 03 a8 80 3c 2c ea 47 bf
       0.15010679 0.056526907 0.015705114 -0.7809169
000120 49 12 14 3e 6c 61 4c be 8a 4d 99 bc 0e e6 8b 3e
       0.144601 -0.19959038 -0.018713731 0.27323955
000130 3a f7 48 3c 41 85 5f 3e 29 d1 ed be 68 2f a8 3d
       0.012265975 0.21828176 -0.4644864 0.08212167
000140 03 aa 17 3d 69 7e 18 3f ae 14 b7 bd c2 7c 2f 3e
       0.03702737 0.59567887 -0.08939491 0.17137435
000150 52 6a 11 be 56 d8 84 be 73 59 bd 3e 2c f0 86 be
       -0.14200714 -0.259463 0.36982307 -0.26355112
000160 7b ee 94 3e 63 a2 2a bd 6c 41 05 bf 54 cf 33 be
       0.29088196 -0.04165877 -0.5205295 -0.17559558
000170 d3 f8 87 3e 5a a9 47 be e3 9c 0c be 99 36 d5 bd
       0.26557025 -0.19498196 -0.13731723 -0.10410804
000180 ee 91 04 bd 4a 51 84 be df 82 0e bf 33 83 cd 3e
       -0.032365732 -0.2584327 -0.55668443 0.4013916
000190 84 6a f8 bd 00 b3 f4 bd 70 35 e8 bc 61 b1 ad be
       -0.12129691 -0.11948204 -0.028345793 -0.33924392
0001a0 76 24 fb be 2a 9f 16 bd 8e ba a1 be 4b 54 68 3e
       -0.49051255 -0.036772884 -0.31587642 0.22688405
0001b0 f3 3e c8 3d 32 bb 06 3f fe 52 2f be 74 8b 70 bd
       0.097776316 0.5262939 -0.17121503 -0.058726743
0001c0 06 9a 4a be e4 5b 54 3c 95 b8 43 be 4d f3 b3 3e
       -0.19785318 0.012961362 -0.19113381 0.3514656
0001d0 27 59 36 3e 25 8f 51 be 85 92 fb 3d 9f 97 c4 bd
       0.17807446 -0.20464762 0.12283806 -0.09599232
0001e0 4d 36 b5 bd 4b f6 9f be ba 75 99 bc be 89 3c 3d
       -0.08848248 -0.31242594 -0.018732894 0.0460298
0001f0 27 85 ae 3d 3e 3f e7 bc 33 27 37 bf a2 e5 3f 3e
       0.085214905 -0.028228398 -0.7154419 0.18739942
000200 9f d4 eb bd 03 35 f1 bd 02 92 13 3d fa d3 41 3e
       -0.11515164 -0.11777689 0.036027916 0.18928519
000210 f5 de c6 be 98 93 94 3e 83 1d bb be f6 bb b8 be
       -0.38841978 0.29018855 -0.36545953 -0.36080903
000220 25 65 16 3e 72 05 83 bc 53 6c db 3e 32 2d 92 bd
       0.14687021 -0.015993807 0.42856082 -0.071375266
000230 1a d5 10 be 1e 98 85 be 24 81 20 3e ec 73 7c bb
       -0.14143792 -0.2609262 0.15674263 -0.0038521243
000240 f6 22 9c 3e dc 26 a1 3e 41 c7 db be 36 2d 0b 3f
       0.30495423 0.3147496 -0.42925456 0.5436586
000250 a5 20 4a be 08 7a 96 be 8e 1f 50 bd 3f 1e ef 3c
       -0.19739015 -0.29389977 -0.050811343 0.029189227
000260 5c e6 39 be 91 56 c7 3e ad cc 86 3c 5a 93 fd bd
       -0.18154281 0.38933232 0.016455019 -0.12381621
000270 72 59 41 3e 78 69 a4 3d 03 cc 47 3e a2 b9 c9 3d
       0.18881777 0.08027929 0.19511418 0.0984986
000280 cf 70 75 3e e6 e4 fe be f0 41 35 be 2e 11 92 be
       0.23968814 -0.4978401 -0.17700934 -0.28528732
000290 73 2f 0b bf da 6d 16 be 01 73 06 be e6 ea 0a 3e
       -0.54369277 -0.14690343 -0.13129808 0.13566169
0002a0 05 91 a0 bd 1c f3 93 bd 83 f1 1c 3f e6 94 24 bd
       -0.0784016 -0.07224104 0.6130602 -0.040181063
0002b0 2f e7 f0 3d 50 86 05 be 8b c0 17 be 28 79 43 3e
       0.11762845 -0.13039517 -0.14819543 0.19089186
0002c0 aa 5a 40 3b bb 20 5f 3d 19 71 91 3e 53 68 56 3d
       0.0029350915 0.054474574 0.284066 0.052345585
0002d0 20 e2 6a be 4a 7f 3e 3d 14 79 36 be 03 be a3 3e
       -0.22937822 0.04650811 -0.17819625 0.31980905
0002e0 1c c4 06 be 00 0f 2f be 5e e1 e9 3e 15 a6 2e bf
       -0.13160747 -0.17095566 0.45679754 -0.6822217
0002f0 b1 fc 53 3e 11 20 bc 3d cb 2b 78 bd f4 67 a6 be
       0.20701863 0.09185804 -0.06058864 -0.32501185
000300 3a 2b 7a 3e 69 c2 cb bd a1 77 d3 3d e4 64 f9 3b
       0.24430552 -0.0994919 0.10325552 0.007610904
000310 81 2d f3 3d f3 f1 d7 3d 09 e0 9d bd 6a 31 c5 3e
       0.118739136 0.10544195 -0.07708747 0.38514262
000320 ba b0 53 3e b7 e6 38 3e 39 05 b3 be 84 4c 48 3e
       0.20672885 0.1805676 -0.34964922 0.19560438
000330 6f fe 95 be df 42 5c be dd a7 39 3f 26 e1 0f be
       -0.2929568 -0.21509884 0.72521764 -0.14050731
000340 85 7e 0e 3d e6 9c 1b bd b2 37 36 be eb 04 43 be
       0.034788627 -0.037991427 -0.17794684 -0.19044845
000350 7c 98 60 bd 3b 3c ea bd dd bc 38 3e b5 8d d9 3d
       -0.05483292 -0.11437269 0.18040796 0.106227316
000360 bb 7a ab be b4 43 08 3e 63 00 e8 bd dc 78 a7 3e
       -0.33492073 0.13307077 -0.11328199 0.32709396
000370 45 ac 33 3d ca 73 4d be 8e 27 4c bd 77 91 c7 be
       0.04386546 -0.20063701 -0.04984241 -0.38978168
000380 77 cb 63 be db d4 7e bc 94 ce b5 be e5 26 99 3e
       -0.22245584 -0.015553678 -0.3550917 0.29912487
000390 04 02 4c be ba ee 49 3e 9c 24 2c 3e 13 1b b6 be
       -0.19922644 0.19719973 0.1681084 -0.3556753
0003a0 47 3c 2e bd d5 28 ec bc 7d af 55 3e 05 67 e1 3d
       -0.042537954 -0.028828064 0.20867725 0.110059775
0003b0 fa ec 7e be a8 94 38 3e 20 2f 08 3f e1 72 d9 be
       -0.24895087 0.18025458 0.5319691 -0.42470458
0003c0 ee 1f 49 be 71 9d a1 bd 3f 52 57 be 66 06 8d bd
       -0.19641086 -0.07891358 -0.21027468 -0.06885986
0003d0 1a 53 ac 3e ba 6c 7e 3e 4e 70 12 be 9a 9f 00 3f
       0.3365715 0.24846163 -0.14300653 0.5024353
0003e0 ef 38 42 be 87 fa 1a bf f5 1b 9c bd e6 52 f1 3e
       -0.18967031 -0.60538524 -0.0762252 0.4713356
0003f0 f7 2c 82 be 7d 42 79 3e 0c 50 42 bb 71 0e e4 ba
       -0.2542493 0.2434177 -0.0029649762 -0.0017399323

bias f4 [50]
000000 99 04 d1 bd da 9c 61 bb f5 ec 99 3d a4 22 1e 3d
       -0.10205955 -0.0034425766 0.07515899 0.038607255
000010 5e 02 3b bd dc 58 5f 3d 86 2b 86 bd 81 45 25 3d
       -0.045656554 0.054528102 -0.0655127 0.040349487
000020 83 ac 1c bd d9 64 a1 bd a5 23 a7 bc 3c 99 2c bd
       -0.038250457 -0.07880563 -0.020402739 -0.042138323
000030 66 15 a5 3c 89 e2 ab 3e cd 0e 4d be d0 94 d2 bc
       0.020151805 0.3357127 -0.20025177 -0.025705725
000040 6d 47 e3 3d cf 89 7c bd 3c d8 b6 3d 6d 8d d0 3d
       0.11097608 -0.061654862 0.08927962 0.10183225
000050 6a 25 90 bd 41 99 e1 bd a5 3d 77 3e ed 56 b9 bd
       -0.07038386 -0.11015559 0.2414461 -0.09049783
000060 4e 93 18 3d 4f dd 47 3c 85 67 a5 3d 5b f1 b7 be
       0.037249856 0.01219876 0.080763854 -0.35926327
000070 9e 1c 43 be 6f 67 99 3d 27 7d f8 3d da 27 ad bd
       -0.19053885 0.074904315 0.12133246 -0.08454867
000080 0c f7 0a 3e b3 9f b0 bc e7 85 a8 3d 57 ba 29 3c
       0.13570803 -0.021560526 0.08228665 0.010359368
000090 1a 09 05 3e e3 0b b6 3d 09 7a 02 bd 7e b4 a6 3d
       0.12991753 0.08888986 -0.031854663 0.08139895
0000a0 31 ca 36 3d 6a b1 86 3e 1f 77 2a b9 e3 3d 01 be
       0.04462642 0.2630723 -0.0001625684 -0.12621264
0000b0 71 57 72 3e 74 b7 f3 bc e5 dc 60 be e5 37 8c 3e
       0.23666169 -0.029750563 -0.21959265 0.27386394
0000c0 5d a2 99 bd 37 f0 a0 3e
       -0.075016715 0.3143327

weight f4 [50, 50]
000000 9b 42 23 3d cf 27 95 3e d1 da 9e 3e de 60 53 bd
       0.03985844 0.29131934 0.3102632 -0.05160605
000010 9f 32 fd be 2d bb bd 3e 77 40 fc 3e 12 9b a9 be
       -0.49452683 0.37056866 0.49267933 -0.33126122
000020 62 be c6 3e da 83 56 be f3 a9 d7 bb 52 b3 86 bd
       0.38817126 -0.20948735 -0.006581539 -0.065771714
000030 a5 b9 a0 bd 5a 52 e2 bd 95 0e a9 bc af 16 b1 bd
       -0.07847909 -0.110508636 -0.020636836 -0.08646905
000040 5c 9a 38 be 93 29 99 3d c3 04 34 bd ed 1d a4 3e
       -0.18027633 0.07478633 -0.043949854 0.32054082
000050 7f d2 c2 3c de 1f e0 be e1 6e 9c 3e 9a db 43 bd
       0.023782013 -0.43774313 0.30553344 -0.04781685
000060 8b c7 b1 3c 93 9c 08 3e 72 29 d1 bd 18 e0 ac bd
       0.021701595 0.13340978 -0.10212983 -0.0844118
000070 0d 2a 26 3e 44 7e 2e 3f 5a bd 41 3e bc 9d b8 bd
       0.16226979 0.68161416 0.18919888 -0.090144604
000080 0d c9 77 3e 99 53 31 be 11 52 01 3e bb ae 38 3d
       0.24197789 -0.17317046 0.12628962 0.04508851
000090 4a cf 52 3e b0 79 30 3f a4 04 ba ba 98 47 8c 3e
       0.20586887 0.6893568 -0.0014192057 0.27398372
0000a0 eb 6e 0a 3e c8 2e fc bd cc 2b b6 be 5f 34 17 3c
       0.13518874 -0.1231361 -0.3558029 0.009228795
0000b0 4d 34 1d 3f 65 4d 51 bd 7f 4a 43 be 8f 73 13 3e
       0.6140793 -0.0510992 -0.19071387 0.14399551
0000c0 15 ed 66 be 02 01 dc bd 47 1d 9c be 69 97 ba 3f
       -0.22551377 -0.1074238 -0.30491087 1.4577457
0000d0 75 8b ee 3d 1c c8 8d bc c8 d9 33 be cb 9a fb 3e
       0.11647693 -0.017307334 -0.17563546 0.49141535
0000e0 cb 53 23 3f 3a b7 12 3d 5d d0 e4 3e 6c bc 1e bf
       0.6379973 0.03581927 0.4469022 -0.6200626
0000f0 6b b8 b6 be 7a 06 ba 3e 85 9f 90 bd d6 bd b7 3d
       -0.35687575 0.36333066 -0.07061676 0.08971755
000100 37 89 8f 3d fd 24 b3 3b e6 03 9b 3e a4 a2 02 bf
       0.070085935 0.005467056 0.30276412 -0.5102942
000110 f4 a7 89 3e 42 18 9b 3f 00 db 8d be 7e 6d 87 bf
       0.2688595 1.2116778 -0.27706146 -1.0580289
000120 b1 89 40 3e ad 74 32 be 3f 67 2c 3e d6 ff 74 3b
       0.18802525 -0.17427321 0.1683626 0.0037383935
000130 24 e2 a8 3d 73 1c 3f be bd 07 ec 3e ea aa 96 3f
       0.08246258 -0.18663196 0.46099654 1.1770909
000140 bc 6b 7f 3d 25 7f 63 bf 22 08 9e 3e f7 e1 78 be
       0.062358603 -0.8886588 0.3086558 -0.24304949
000150 74 f7 6e 3e a3 1b 78 3f 83 9b 93 3e 11 f8 0d 40
       0.23336583 0.9691717 0.28829584 2.2182658
000160 47 12 33 bf 39 aa 85 bd 0a 33 5f 3f db 6e 71 be
       -0.69949764 -0.06526608 0.87187254 -0.23577444
000170 95 44 74 be 7c 6e 7c 3e 1d 4f e4 3e 4d f6 1f bd
       -0.23854287 0.24651521 0.4459161 -0.03905325
000180 d6 6b d7 bd a5 c8 43 3e 9b 42 c2 be ba 32 1f 3d
       -0.10518615 0.19119509 -0.3794144 0.038866736
000190 5a 83 e0 3b cf 59 35 bd 5f ee 84 be 8e ee 0f bf
       0.006851596 -0.0442751 -0.25963113 -0.5622338
0001a0 27 f4 08 bd 88 71 c9 bd e9 0c b3 bd 00 ee 5c 3f
       -0.033435967 -0.098361075 -0.08742697 0.8630066
0001b0 d1 d4 8f bd be 12 f3 bf fa 3a 43 bf e6 17 4e 3e
       -0.070230134 -1.8990095 -0.76261866 0.20126304
0001c0 79 a2 76 3f 1e c6 ad be 16 a3 f8 bf 47 37 98 3f
       0.96341664 -0.33940214 -1.942477 1.1891869
0001d0 51 f2 5e 3e e5 e7 2a bf 50 e4 ad 3d 8e 53 eb 3e
       0.21772124 -0.6676009 0.08490813 0.45962185
0001e0 d5 f4 d2 3e 86 19 b8 bd 8c 03 5c ba 7c cd 85 3e
       0.41202417 -0.08989243 -0.00083928625 0.26133335
0001f0 21 5d 29 3f 21 4d b7 3f 18 ac 7d 3f 81 7e af be
       0.6615773 1.4320413 0.9909072 -0.34276202
000200 0d 97 2e 3f f8 da 5d 3e 30 68 35 bd 76 8b 1a bf
       0.68199235 0.21665561 -0.044288814 -0.6036905
000210 e6 a7 54 be e9 15 92 bd b2 4b 5f be d0 e8 86 3e
       -0.20767173 -0.07133085 -0.21806219 0.26349497
000220 98 70 da be a5 fa 33 3e 72 92 6f be 3c 90 64 be
       -0.42664027 0.17576082 -0.23395708 -0.22320646
000230 5e 34 db 3e fc cf 2c be 2c 1c 99 bf e5 6f 28 be
       0.4281339 -0.16876215 -1.1961722 -0.16448934
000240 8c 30 0d 3e 5a 1b b6 3e be da ac 3e a7 88 4d 3e
       0.1378805 0.35567743 0.33760637 0.2007166
000250 11 b8 c9 bd 06 7e dd be ec cd a3 3e 1e aa bb 3d
       -0.09849561 -0.4326021 0.31993043 0.09163307
000260 2e c6 2c be 2f 19 18 bf 41 13 eb 3d ba 6c 1a bd
       -0.16872475 -0.5941343 0.11478282 -0.037701346
000270 44 05 36 be 0d eb f6 3e a7 fb 09 be ff 1b a3 be
       -0.17775446 0.48226205 -0.13474904 -0.31857297
000280 d7 c5 8f 3c 33 f3 99 be 18 b8 31 3f 19 0e 57 be
       0.017550392 -0.3006836 0.6942153 -0.21001472
000290 d2 b9 82 be 05 44 b4 3e fd 39 b7 3e a8 b5 18 bf
       -0.25532395 0.35208145 0.3578643 -0.59652185
0002a0 d3 24 89 3b b1 c8 72 3e ef 7d ab bc a0 fd f7 3d
       0.004185298 0.2370937 -0.020934073 0.12108922
0002b0 be a3 d5 bd 02 0b 93 3e bc a1 93 3e 79 bd 35 3e
       -0.10431622 0.28719336 0.2883433 0.1774806
0002c0 7f a5 94 3e a6 05 c9 be 9d c4 ad 3d 8a 8a 40 3d
       0.29032513 -0.39262122 0.08484767 0.04700712
0002d0 34 a3 77 be 8c b9 2e bf 0b d7 b3 bd b1 90 e0 be
       -0.24183351 -0.6825187 -0.087812506 -0.4386039
0002e0 20 71 9a bd 90 17 2b 3d 33 f1 0a bf da 04 e4 bd
       -0.07541108 0.041770518 -0.5427429 -0.11133738
0002f0 eb ec 38 be 00 1f ae bd 43 aa 40 3e 35 82 0c bd
       -0.18059127 -0.085020065 0.1881495 -0.034303863
000300 9e d2 91 be 94 47 ca be 33 d1 36 3e 09 e8 2c 3f
       -0.28481 -0.39507735 0.1785324 0.6754156
000310 51 ec 3c 3f 3e 3f c7 3d 72 79 2d bc d0 66 b4 be
       0.7379809 0.09728859 -0.010588037 -0.3523469
000320 72 c8 83 be 9c 89 d3 bd 73 d6 d9 3e 8c 3d 48 3f
       -0.25738865 -0.10328981 0.42546424 0.78218913
000330 63 8f d8 bd 9a f1 5f 3e b2 e4 34 bd 2c 04 f7 bd
       -0.10574224 0.21869507 -0.044163413 -0.120613426
000340 60 5a a4 3e 93 f0 58 3f 2f c7 43 3e 90 d2 42 3e
       0.321002 0.8474209 0.19118951 0.19025636
000350 8f f7 0c bf 79 69 88 3f 45 a4 f3 3e 64 c4 e0 be
       -0.55065244 1.0657188 0.47586265 -0.43899834
000360 eb 24 d7 bd bf 30 3e 3e 0a fd 9b 3e 4d 20 3a be
       -0.105050884 0.18573283 0.3046649 -0.18176384
000370 8d 41 ec be e6 46 d5 ba 60 8b a8 3e 2c cf d1 be
       -0.4614376 -0.001627174 0.32918835 -0.40978372
000380 c6 e0 58 bf 76 25 18 bf 13 c6 e1 bd a3 5e ab 3d
       -0.8471798 -0.5943216 -0.11024108 0.0836766
000390 27 29 be bf 56 89 a8 3e 49 61 14 3e 88 95 bd 3e
       -1.4856309 0.3291728 0.14490236 0.37028146
0003a0 ca 57 4f 3e 51 9a 75 3e 0b ca c3 3e a2 94 0c 3e
       0.20248333 0.23984648 0.38240084 0.13728574
0003b0 7f b6 b0 3e 1c e3 7e be b1 de 4f 3d c2 55 03 3f
       0.34514233 -0.24891323 0.050749484 0.5130273
0003c0 64 6f ff bd 78 37 ab 3e 40 24 8b 3f 45 e9 01 3f
       -0.12472418 0.33440757 1.0870438 0.50746566
0003d0 08 32 11 3e 2b f2 4c bf 40 8e 34 3e 90 0d 12 3e
       0.14179242 -0.8005702 0.17632389 0.14262986
0003e0 03 80 2d be aa ae c6 3e 3d e6 b9 3d fe 64 27 3e
       -0.16943364 0.38805133 0.090771176 0.16347119
0003f0 53 27 3a be 01 38 04 bf 79 41 d5 3d 5d df d5 bd
       -0.18179063 -0.51647955 0.104128785 -0.10442994

bias f4 [50]
000000 c5 d5 9a 3e f8 1b 8d 3e 02 5b 1a 3c dc 18 68 bc
       0.30241218 0.275604 0.009421112 -0.014166083
000010 d2 35 af 3d f3 36 30 bd 66 0d 53 3e 6f 37 8e be
       0.08555187 -0.043021154 0.2061058 -0.27776667
000020 2d 6c 9d be 15 5c 8f 3e 24 98 89 be 47 f3 ce 3d
       -0.30746594 0.2799994 -0.26873887 0.10104995
000030 82 55 2a be 8f 1f 51 3d 6e a3 81 3e 46 6b a4 bb
       -0.16634181 0.051055487 0.2532 -0.005017671
000040 bd 12 84 3e f1 61 83 3d 67 e3 90 be 7c 5f 87 be
       0.25795546 0.06415165 -0.28298494 -0.26440036
000050 71 1c a7 3b 86 ab 75 be b0 5b 62 bc e9 f5 88 3e
       0.005099826 -0.23991212 -0.013815805 0.26750115
000060 56 e4 71 3e 91 69 3d bd e0 03 9e 3e 4a 84 02 3d
       0.2362226 -0.046243254 0.3086233 0.031864442
000070 94 57 77 bd 13 c6 b8 bd 54 29 f0 bc d0 a9 3a 3e
       -0.060386255 -0.09022155 -0.029316582 0.18228841
000080 45 b9 a5 be 08 07 ba bd 1e 0a 82 3e 48 00 47 3e
       -0.32367912 -0.09083372 0.25398344 0.19433701
000090 33 38 03 be 38 46 6b bd e4 24 9f be 59 6d 66 be
       -0.12814407 -0.057440013 -0.31082833 -0.2250265
0000a0 3d 5c 8a be 6c ec 72 3e eb 9e 71 be dc ea 1a 3e
       -0.27023497 0.23723 -0.23595779 0.15128654
0000b0 e7 88 a0 3d 7b 5b 89 3e 41 e6 33 3e 62 55 32 3d
       0.07838612 0.26827607 0.17568304 0.04353846
0000c0 48 c2 1b 3e 7c a8 85 3e
       0.15210831 0.26105106

weight f4 [1, 50]
000000 5a 6f 30 c0 01 5d 48 c0 dd 67 1d bf 3a a4 d8 be
       -2.7567964 -3.1306765 -0.6148661 -0.42312795
000010 a8 b4 7b 3c 42 6e 19 bf 41 76 ee bf a1 1a 19 40
       0.015362896 -0.59933865 -1.8629838 2.3922503
000020 fe c8 05 3f c0 d7 f1 bf b3 27 12 40 d2 0c 30 3f
       0.52259815 -1.8893967 2.283673 0.6876956
000030 e2 9d ef 3e 9b 15 e6 be 57 93 0f c0 d9 91 97 bf
       0.46800143 -0.4493836 -2.243368 -1.1841384
000040 7f 88 04 c0 01 e1 19 bf d8 d1 2d 40 c6 31 29 40
       -2.070831 -0.60108954 2.7159328 2.643663
000050 35 11 a2 bf 35 07 2d 40 84 5b a3 bf bb 51 f2 bf
       -1.2661501 2.703565 -1.2762303 -1.8931192
000060 23 e6 20 c0 73 83 62 be 0c a2 ef bf 78 b2 e1 3f
       -2.5140464 -0.22120456 -1.8721328 1.7632589
000070 84 7b 2e 3f 74 64 03 bf d9 ae 65 3f 6f 6b 8f bf
       0.6815722 -0.51325154 0.8971992 -1.1204661
000080 9c b0 ec 3f 4f 89 93 bf 79 7e 07 c0 b6 11 d5 bf
       1.8491397 -1.1526278 -2.1170943 -1.664603
000090 d0 42 1a 3d a5 a3 28 3f 91 36 f2 3f ab 27 fe 3f
       0.037661374 0.658747 1.8922902 1.9855856
0000a0 f0 6b 0c 40 36 12 0a c0 8d 05 f9 3f 78 b0 54 bf
       2.194088 -2.1573615 1.9454819 -0.8308177
0000b0 f7 b4 12 bf 05 32 0b c0 d9 39 ee bf 0b 3d 95 3f
       -0.5730738 -2.174928 -1.8611404 1.1659254
0000c0 70 89 26 3f c7 f6 f0 bf
       0.65053463 -1.882531
