models/dehnen.pt (torch, 5967 bytes, 5 tensors)

weight f4 [32, 2]
0	0xbf94d2df	-1.1626853
1	0xbef6c7b1	-0.48199227
2	0xbf868539	-1.0509406
3	0xbed85000	-0.42248535
4	0xbdecf1e0	-0.115695715
5	0x3dc54d62	0.096339
6	0xc00a5e7c	-2.1620169
7	0x3c8aceb2	0.016944263
8	0xbd440402	-0.047855385
9	0x3eaae9f3	0.33381614
10	0x3f026c16	0.50946176
11	0xbe762af8	-0.24039829
12	0x407d3535	3.9563725
13	0xbe5e1e18	-0.21691167
14	0xbe9626da	-0.29326516
15	0x3e4e44b8	0.20143402
16	0x3d80026c	0.06250462
17	0x3e139550	0.14412427
18	0xbd615ac5	-0.055018205
19	0xbe794b57	-0.24345146
20	0xbeb8a419	-0.36062697
21	0xbe6c2f7c	-0.23064989
22	0x3d072466	0.032993697
23	0xbf0e5d09	-0.5561071
24	0x3b8e9a0a	0.004351859
25	0xbfb257ae	-1.3933008
26	0x4097b843	4.741243
27	0xbe21c676	-0.15798363
28	0xbd5aff0e	-0.053465895
29	0xbc8542af	-0.016267149
30	0x3d4748ae	0.048653297
31	0xbefe59c7	-0.4967787
32	0x3f98fa5b	1.1951402
33	0xbea1389e	-0.31488508
34	0x3edf0f7d	0.43566504
35	0xbdc0b918	-0.09410304
36	0xbef8dcc2	-0.48605925
37	0x3ea03205	0.31288162
38	0x3d410ae4	0.047129527
39	0xbe0cf67f	-0.13765906
40	0x3fb1a12d	1.3877312
41	0xbe9a4800	-0.30133057
42	0xbfda1646	-1.7038047
43	0x3eaddd5d	0.3395795
44	0xbd8038c7	-0.062608294
45	0x3e78d2ab	0.24299113
46	0xbed95a9d	-0.42451945
47	0xbee21a5d	-0.4416074
48	0x3e4aadb1	0.1979282
49	0xbe671694	-0.22567207
50	0xc022419b	-2.5352542
51	0x3f54ffe8	0.8320298
52	0xc073a783	-3.807099
53	0x3e98afb1	0.29821542
54	0xbd0fbb03	-0.035090458
55	0xbf01a62c	-0.50644183
56	0xbee2853b	-0.44242272
57	0x3e42cd61	0.19023658
58	0xc0cc6ce2	-6.3882914
59	0x3e25f848	0.16207993
60	0x3f5f966c	0.873389
61	0xbe8171e4	-0.25282204
62	0xbed17311	-0.409081
63	0xbeb623a0	-0.35574055

bias f4 [32]
0	0xbeabd749	-0.33562687
1	0xbfc8567f	-1.5651397
2	0x3ebda9a2	0.37043482
3	0x3d6c9bf6	0.057765923
4	0xbe77035f	-0.2412238
5	0x3d803561	0.06260181
6	0x3e65b8df	0.22433804
7	0xbe4c7b55	-0.19968922
8	0x3ebfa0e1	0.37427428
9	0x3e80af3a	0.25133687
10	0xbbf1c886	-0.0073786406
11	0x3fdaff76	1.710921
12	0x3dace2b3	0.08441677
13	0x3f183c33	0.59466857
14	0xbf3c5a92	-0.735757
15	0x3e67897c	0.2261104
16	0x3f449aa8	0.76798487
17	0xbdf75c4f	-0.12078153
18	0xbeebd9c3	-0.46064577
19	0x3f394356	0.7236837
20	0x3ecc49f9	0.39900187
21	0xbf5a813f	-0.85353464
22	0xbed027e8	-0.40655446
23	0xbfc44b46	-1.5335472
24	0x3eb3f154	0.35145056
25	0xc0085f0d	-2.1308014
26	0xbf8febf4	-1.1243882
27	0x3fcc2976	1.5950153
28	0xbdf3ba72	-0.11900796
29	0xbf2db2aa	-0.67850745
30	0x3e834ea9	0.2564595
31	0xbfa4051f	-1.2814063

weight f4 [16, 32]
0	0xbf6e43d0	-0.93072224
1	0xbed93884	-0.4242593
2	0x3e1acba5	0.15116747
3	0x3fd93642	1.6969683
4	0x3c706cb4	0.014674354
5	0x3f3f2c37	0.7467684
6	0xbecfb636	-0.40568703
7	0xbf84b860	-1.0368767
8	0x3eec171d	0.46111384
9	0xbd61d52f	-0.05513495
10	0xbfacb668	-1.3493166
11	0x3fb8eb3e	1.444679
12	0x3f9978b2	1.1989958
13	0xbe3aeb3f	-0.18253802
14	0xbf4dd9a6	-0.8041023
15	0xbea8f0cc	-0.32996213
16	0x3e7767c9	0.24160685
17	0x3f18503c	0.5949743
18	0xbecc5bea	-0.39913875
19	0x3f495816	0.78650033
20	0x3e8485fe	0.25883478
21	0xbea9d854	-0.33172858
22	0xbeafd37b	-0.34341034
23	0xbf3dc933	-0.7413513
24	0x3f3f3d83	0.74703234
25	0xbe3e2017	-0.18566929
26	0x3f0dd6d4	0.55405927
27	0x3f2b7016	0.66967905
28	0xbf7f68ed	-0.9976948
29	0x3f52ca38	0.8233981
30	0x3fac54c4	1.3463368
31	0xbf5dbf4d	-0.86620027
32	0x3f086750	0.5328264
33	0x3f8e5f0b	1.1122755
34	0xbe940033	-0.28906402
35	0xbf02886d	-0.5098942
36	0x3e90acde	0.28256887
37	0x3f2422fa	0.6411587
38	0xbe8fbe4d	-0.28074875
39	0xbe1222f1	-0.14271142
40	0xbf60a4b9	-0.87751347
41	0x3f526684	0.82187676
42	0x3fc1204b	1.508798
43	0xbf00565f	-0.5013179
44	0xbf3212b3	-0.6955978
45	0xbf977ee0	-1.1835594
46	0x3f9c1380	1.2193451
47	0x3f59913b	0.8498723
48	0xbefd9249	-0.4952567
49	0x3f5ef15a	0.87087023
50	0x3e265b2f	0.16245721
51	0xbf5c6005	-0.86084014
52	0x3e151092	0.14557102
53	0x3ea401d4	0.32032645
54	0x3e78b70e	0.2428858
55	0x3fcbdc47	1.5926598
56	0x3d313671	0.04326481
57	0x3dc0d1f6	0.09415047
58	0x3ebf347c	0.3734473
59	0x3f42648b	0.75934666
60	0xbe8450dd	-0.25842944
61	0xbd65f269	-0.056139383
62	0x3ed8b5e7	0.4232628
63	0x3f8a9323	1.0826153
64	0x3f4e2556	0.8052572
65	0x3f0229c0	0.50844955
66	0x3d6c5b8a	0.057704486
67	0x3f9c7a49	1.2224818
68	0x3e61f10c	0.22064608
69	0xbef5f284	-0.48036587
70	0xc0794afe	-3.8952022
71	0x3f9307d5	1.1486765
72	0x3dba6848	0.09101921
73	0x3ed90d8c	0.42393148
74	0xbe758898	-0.23977888
75	0xbf3ba399	-0.73296505
76	0xbe65e5a5	-0.22450884
77	0xbf83fedd	-1.0312153
78	0xbe9032a2	-0.2816363
79	0x3f11b736	0.5692018
80	0xc0861a7e	-4.190734
81	0xbf00fa95	-0.5038236
82	0x3e912176	0.2834584
83	0x3d84476f	0.064589374
84	0xbfc6005c	-1.546886
85	0x40ae9296	5.455394
86	0x3ed23cd0	0.4106202
87	0x3e8ff2b5	0.28114858
88	0xbf27f8b5	-0.6561387
89	0x40057a56	2.0855918
90	0x400e8fea	2.2275338
91	0xbfd9970c	-1.6999221
92	0x3ea12fc6	0.3148176
93	0x40822191	4.0665975
94	0xbf2cbd78	-0.67476606
95	0x3eb1896d	0.3467516
96	0x3f6e9a6c	0.9320438
97	0x3f86e7b3	1.0539459
98	0xbf4f54dc	-0.8098886
99	0x3eeb62fe	0.45973963
100	0xbea6fba4	-0.32613862
101	0x3f5dfa9c	0.86710525
102	0x3e6b079a	0.22952119
103	0x3bc38e6b	0.0059679053
104	0xbfbb51a8	-1.4634295
105	0x3ed91995	0.4240233
106	0x3f6fab78	0.93621016
107	0x3eaf9c9a	0.34299165
108	0xbf54125c	-0.82840514
109	0xbe725b6b	-0.23667686
110	0x3f8dc61d	1.1076084
111	0x3f855b14	1.041842
112	0xbed3c966	-0.41364592
113	0x3f6c68de	0.92347515
114	0x3d853e18	0.06505984
115	0xbfc25a76	-1.5183856
116	0xbeb0fd55	-0.34568277
117	0x3ebf36eb	0.37346587
118	0x3e6e78a9	0.23288216
119	0x3f56b715	0.8387311
120	0x3db2bbe5	0.08727244
121	0x3f0811de	0.53152263
122	0x3f155957	0.58339447
123	0x3e778017	0.24169956
124	0xbe548105	-0.20752342
125	0x3eae739b	0.34072575
126	0x3e90d887	0.28290197
127	0x3f901873	1.1257461
128	0xbf19a515	-0.6001752
129	0xbf100fc2	-0.56274045
130	0x3ed08670	0.40727568
131	0x3e67df97	0.22643887
132	0xbf3b8556	-0.7325033
133	0x3df78092	0.1208507
134	0xbf5ebc91	-0.8700648
135	0xbe005487	-0.12532245
136	0x3d518549	0.0511525
137	0x3f6b04dc	0.9180429
138	0x3dd26b10	0.10274327
139	0x404bb8dc	3.183158
140	0xbe27645a	-0.16346875
141	0xbead48bd	-0.33844557
142	0xbf01899a	-0.5060059
143	0x3f06f6dc	0.5272043
144	0x3e8166c6	0.25273722
145	0xbf06a04c	-0.52588344
146	0xbf1bd955	-0.608785
147	0x3f476920	0.77894783
148	0x3e286568	0.16444933
149	0xbe8a1bdd	-0.26974383
150	0xbf531e95	-0.8246854
151	0xbeb31f5e	-0.3498487
152	0x3eb3ec4e	0.35141224
153	0x3f2158c9	0.630261
154	0x3f02aac0	0.51041794
155	0x400391f3	2.055783
156	0xbb79ffc3	-0.003814683
157	0x3e15428a	0.14576164
158	0x3cd4759c	0.025934987
159	0xbeb2e103	-0.34937295
160	0xbe5d2cd8	-0.21599138
161	0xbefbc481	-0.49173358
162	0x3e861de8	0.26194692
163	0xbe0f211a	-0.13977471
164	0x3e6c2c53	0.23063783
165	0xbe432a97	-0.19059215
166	0x3e99a057	0.30005142
167	0x3e5ab515	0.2135814
168	0x3ed42ddb	0.41441235
169	0xbd9dc57b	-0.07703682
170	0xbbe39115	-0.0069447854
171	0xbf1b6998	-0.60708
172	0x3f8103e4	1.0079312
173	0x3ec7f0cc	0.390509
174	0xbdf04e2a	-0.117336586
175	0xbeaca845	-0.3372213
176	0x3e167b53	0.14695482
177	0xbe6d6363	-0.23182444
178	0x3da82a78	0.08211225
179	0x3e589e2e	0.21154091
180	0xbeda71c8	-0.42664933
181	0xbdcfb4c3	-0.101418994
182	0x3e238a42	0.1597071
183	0x3d06af94	0.032882288
184	0xbe8774bc	-0.2645625
185	0x3f9a5697	1.2057675
186	0x3f1d0fea	0.6135241
187	0xbefd88d6	-0.4951846
188	0xbe7dec82	-0.24797252
189	0x3ebb8d18	0.36631083
190	0xbea6fd09	-0.32614926
191	0xbe96ea90	-0.29475832
192	0x3e47602e	0.19470283
193	0x3e991260	0.29896832
194	0xbe2cf62a	-0.16890779
195	0xbf23aec8	-0.6393857
196	0x3f2c2a4a	0.6725203
197	0xbeff6fba	-0.49889928
198	0x3f8a6859	1.0813094
199	0x3f9405d9	1.1564285
200	0x3e79676d	0.2435586
201	0xbec35f27	-0.38158533
202	0xbe3fc6cb	-0.18728177
203	0xc072fe16	-3.7967582
204	0x3ea99423	0.33120832
205	0xbe8139ca	-0.25239402
206	0x3f1e611a	0.61866915
207	0xbee5f063	-0.44909963
208	0xc046bd79	-3.1053145
209	0x3b52fd04	0.0032194266
210	0x3f7a2edc	0.9772775
211	0xbf50455d	-0.8135584
212	0xbfdc1dba	-1.7196572
213	0x40681cd9	3.6267607
214	0x3f5f124a	0.8713728
215	0x3f1d5204	0.6145327
216	0xbf34f4a6	-0.70685804
217	0x41432df5	12.19872
218	0x4022a966	2.5415893
219	0xc0375070	-2.8642845
220	0x3e60efba	0.21966448
221	0x3fcc9905	1.5984198
222	0xbf5fb438	-0.87384367
223	0x3f33a534	0.70173955
224	0x3f1fc99d	0.6241701
225	0x3e394182	0.18091395
226	0xbddc9ed9	-0.10772485
227	0xc0eb1717	-7.3465686
228	0xbdd2e9ce	-0.10298501
229	0x3f0c5ec5	0.54832107
230	0x40ae2a31	5.4426503
231	0xbef715ed	-0.48258916
232	0x3dca07ae	0.09864746
233	0xbe4e3beb	-0.20140044
234	0x3d9b979c	0.075972766
235	0xc0f9fccb	-7.8121085
236	0xbebefcc5	-0.37302223
237	0x4144983e	12.2871685
238	0xb90a79ba	-0.00013206052
239	0x3ecbbaba	0.397909
240	0x40919e53	4.5505767
241	0x3e5185a4	0.20461136
242	0x3ebfa088	0.37427163
243	0xbea3924d	-0.31947556
244	0x3fcb2b5d	1.5872608
245	0xc0d5e6bb	-6.6844153
246	0x3f05d6a1	0.5228062
247	0x3e652b94	0.22379905
248	0xbe51e831	-0.2049873
249	0x4027a99f	2.6197278
250	0xc11330e8	-9.19944
251	0xc0da937d	-6.830504
252	0xbe5e73a9	-0.21723808
253	0xc123efa7	-10.246009
254	0x3f8d258f	1.1027087
255	0x3ef8cd46	0.4859411

bias f4 [16]
0	0x3f33e724	0.7027457
1	0xbf59579f	-0.84899324
2	0xbe1e37e3	-0.15451007
3	0xbfad15b0	-1.3522243
4	0x3f5c7342	0.8611337
5	0x3eacec70	0.33774137
6	0xbf3a9983	-0.7289049
7	0xbe6a67d5	-0.22891171
8	0xbef5c194	-0.4799925
9	0xbf16b664	-0.58872056
10	0x3f847522	1.0348246
11	0x3f05fec5	0.5234187
12	0x3fc28804	1.5197759
13	0x3f050efd	0.51975995
14	0x3f034dd6	0.51290643
15	0x3f1c85fd	0.6114195

weight f4 [1, 16]
0	0xc046f17d	-3.1084893
1	0x403affe1	2.9218676
2	0xc1185b8c	-9.52235
3	0x40216ab0	2.5221367
4	0xc0453384	-3.0812693
5	0xc04d9b59	-3.2126067
6	0xc0e6aff3	-7.208978
7	0x410ef08d	8.933728
8	0x40724ffb	3.7861316
9	0x40222245	2.5333416
10	0xc031f65c	-2.7806616
11	0xc027617d	-2.6153252
12	0xc03c7d2d	-2.9451401
13	0x4089e76f	4.309501
14	0xc01eb46e	-2.4797626
15	0xc02dc276	-2.714994
