models/exp_disc.pt (torch, 19027 bytes, 9 tensors)

weight f4 [32, 2]
00000000: 9694 7abe 8e66 54be 336d d9bd aa5b 95be
00000010: f45e 3fbe c34c 483e cac9 e13e 1d4f a2bd
00000020: fd55 44bd a3d5 0cbd 66a7 a13e 5dd8 14be
00000030: ceed 993e 782e 023c 8950 4f3e 53bf 8b3e
00000040: dbc4 c0bd 91d3 a83d fe33 543e a9c0 123e
00000050: 7ad3 53be ea96 f2ba 9a3a 7d3e 3201 8c3e
00000060: e1ae aebe 778b 01be 577a df3d 732d 9d3e
00000070: 35eb 7bbe 57ce 10be 3483 493c 9896 d7bc
00000080: b49f e83e c9ff 09be 6ef1 0a3e fb16 a43e
00000090: a1ac dabd 80c6 42be 2429 16bf 682c 1d3e
000000a0: 339e 0f3e a523 223e 6c40 be3d b1d1 703e
000000b0: a0d0 b53e 59d6 193d 8423 37be 7e66 3abe
000000c0: 1b14 46bd 4b53 f9bb e7c9 0dbe 6b0d 0dbe
000000d0: 07b5 15be 79c7 73be ae3f 913e 1a4a 49be
000000e0: f20f e03d 8720 4f3e ba56 e5be 04d0 743d
000000f0: d9d1 6f3d 5089 e73e c74e 34be 6e9d f73e
-0.24470744 -0.20742247 -0.10616531 -0.29171497 -0.18688565 0.19560532 0.44099265 -0.07925246
-0.047933567 -0.034383427 0.31573027 -0.14535661 0.30064243 0.007945649 0.20245565 0.27294406
-0.09412547 0.08243478 0.20722958 0.14331307 -0.2068614 -0.0018508111 0.24729386 0.27344662
-0.34117797 -0.12650858 0.10912006 0.30698738 -0.24601443 -0.14141212 0.012299348 -0.026316926
0.45434344 -0.1347648 0.1356866 0.32048783 -0.106774576 -0.19021034 -0.58656526 0.15348971
0.14025192 0.1583391 0.09289631 0.23517491 0.3551073 0.037557933 -0.17884642 -0.1820316
-0.048359018 -0.0076088062 -0.13846551 -0.1377465 -0.14619838 -0.23806562 0.28368896 -0.19657174
0.10940541 0.20227252 -0.4479273 0.05976869 0.058549736 0.4522195 -0.17608176 0.48362297

bias f4 [32]
00000000: fc9a 7fbc a7e1 043a c078 babb 32ce d63c
00000010: 76c4 04bd 6c6a 0b3c 2e24 42bc 7217 b33c
00000020: 9b57 e0bc df92 dcbc 3618 bb3c dfbc 3a3c
00000030: f85b 87bc 4c6b 3b3c 78f5 74bc 6a80 2e3c
00000040: 36ab ad3c 6b49 bd3b 2e16 03bc b8e3 163c
00000050: 103c 283c 04ca 43bc bcdb 923c 55b1 0dbb
00000060: 089a 23bd 5190 adbc 1b40 213b a37d b23c
00000070: 1920 873c c990 c9bb 77a9 f03c e24b 33bd
-0.015600916 0.0005069025 -0.005690664 0.026221368 -0.032413922 0.00850926 -0.011849446 0.021861766
-0.027385524 -0.026925502 0.022838693 0.011397569 -0.016523346 0.011439156 -0.014951102 0.0106507335
0.021199804 0.0057765744 -0.0080008935 0.009209566 0.010268226 -0.01195002 0.017927043 -0.002162059
-0.039941818 -0.02118698 0.002460486 0.021788424 0.016494798 -0.006151293 0.029377682 -0.04377354

weight f4 [32, 32]
00000000: 697d 0c3d f2e0 93bd 50be d03c 8dc2 8c3d
00000010: 7335 60be 65ea 18be c9a7 c43d 241f 603d
00000020: f29e 5dbd 61c8 163d ad5f 173e 980e 703e
00000030: 2df5 c53d 19c0 c13d d543 03bf c255 a8be
00000040: fb04 c8bd a6d4 0bbe ad19 dcbe 58ff 07bd
00000050: a120 02be e613 ffbd a645 39bd fffa 49be
00000060: 8c90 233c 1beb 523d d7f8 0e3e d75e 64bd
00000070: 8b60 5e3d 3d7c 9cbe 8061 bfbc 8f1c 483e
00000080: 7e21 83bb 31da 2a3e 7cab 0bbd 6335 01be
00000090: 2ea7 d8bb e69c c7bd fb94 de3d babb e8bd
000000a0: 5021 343e 1e2c 873d fe4d 383d 557c 973e
000000b0: ebcd 8d3e 4185 7ebe 20ad 163d b4c6 94be
000000c0: 7124 033d 9d24 8cbc 9b30 3abe fd0a 09bd
000000d0: a5fe 75bc be78 a73d 94bf 333e e089 0f3e
000000e0: 5085 41be e781 4bbe e02f 99be 533b 213e
000000f0: 5a12 a2bd 9e30 ddbc 7795 573e 5740 ba3e
00000100: b5d9 9a3d 32e1 d73d f624 c3bd 1bbc 7c3d
00000110: 4071 a6bd a1e5 f93d 03e8 f0bd 5f0d 933d
00000120: 16c5 0d3d 3127 073e 70db 753e 3606 4b3d
00000130: bbb2 65be c382 353c 09df 813c ca37 8d3e
00000140: 95ba a3bc c72e 2d3e f033 d9bc 003e 9cb9
00000150: eea5 32bd ac53 3e3e 6042 f0be c0b5 013e
00000160: 3335 cbbd 8dc9 b6bd 062a 193d b3f1 86be
00000170: ee8e e23d a068 0f3e 4396 febd 46b9 4fbd
00000180: 6c1d 35bc a5bd 01bb b55a 5c3d 6670 bebd
00000190: c5d7 a63b 3d57 93be 42b4 02be be2e 2ebe
000001a0: cf5a b43e 5e13 37be 657a 49be 4506 f9bd
000001b0: 2987 91bd 0734 9dbe e8c6 37bd 7312 e33c
000001c0: 4b8f 8e3d e8a9 0c3f ee22 8dbc 6c16 98be
000001d0: 2818 4c3e 7bd5 81bd 1d71 813e bcd4 bb3e
000001e0: 06e6 36be b5ab 06be 875c 21be b3e5 673e
000001f0: bc5f f43d 95e3 0bbe 077d 7ebb 97b3 d53b
00000200: 161f 8b3d b21f 5abe d155 85be c4ce 5a3d
00000210: 5bb0 3fbd aa0b 49be da0d b63d e96e 933e
00000220: cd31 363e 79c5 913d 5830 8ebe 1179 e23c
00000230: 9e5f 0abc 4fc7 9ebc c201 71be 9e62 aa3e
00000240: 6ffa d43d 2f02 463d ed56 efbc cf93 a13e
00000250: 941f 64be 461a 9abd bd73 ff3c 2fb7 ab3e
00000260: 6d63 86bd fff9 e5bd 044f 01be 10c0 5d3d
00000270: 221c 63bd 1e24 61be 3f76 3cbe fc32 acbd
00000280: 05b2 15ba dba1 633d 202b f5bd 7a15 723a
00000290: 1391 6d3c 71d2 823d e92e 8bbd 0471 acbc
000002a0: 07ef 1ebe 1dd5 8dbe 8eeb 073e bd88 a2be
000002b0: ce7e ef3d 6bd3 55bd 4c0b 913e fc26 023e
000002c0: c39a 6b3d f0e6 2c3e 8d7f 823d d822 23bd
000002d0: f8d9 15be 0058 6a3e 0858 553d ca03 873e
000002e0: bbc3 b4bc c279 7e3d 63b0 c13d 5cd1 b2bd
000002f0: 7e82 1e3e 6d34 39be 58da 983e 9edc cebd
00000300: da4d 22bd cae1 80bc 21dd 9cbe 1fe5 cbbb
00000310: d551 4d3d ae1f d73d f893 1bbd 1ac4 9dbe
00000320: aad6 b53d 6d30 39bd 02a6 8cbd db9a 99bc
00000330: e8e9 833e 8173 a6be 6f3e e5bd aeef 9abc
00000340: 6f92 a4be bc91 47bd e859 d1be 1a06 74bc
00000350: b541 6fbe ced3 9cbd 204a 02be 59a7 663e
00000360: 6d02 e33b f4df b73d af81 edbd 5025 bf3c
00000370: 50ca 43be 4772 5e3b 33b2 443c c4d5 1bbe
00000380: f73f 91be 68df c13d 8c88 75be d0c9 4e3e
00000390: 8e27 d33d 98f3 9fbe 0279 00bf fbb0 893d
000003a0: 69b6 30bd 28c6 ecbe fccb 353c 1147 9c3e
000003b0: 3d7e 5abd b821 56be 7df5 e5bd c872 0ebe
000003c0: 510d c23e 36c6 84be 0972 31bd 5f4b 4a3e
000003d0: 4ca7 ea3e 2769 99bc eafa 373b 3abd 433c
000003e0: ea39 3dbd e76d 88be 4190 2a3d 8b52 e9bc
000003f0: fc28 223e dfc9 b3bc 47b3 a73d c191 1bbe
0.034299288 -0.07220639 0.025481373 0.06873045 -0.2189539 -0.14933164 0.09602315 0.054717198
-0.05410666 0.03681219 0.14782591 0.23443067 0.09665904 0.09460468 -0.5127538 -0.32877928
-0.09766575 -0.13655338 -0.4298834 -0.0332025 -0.1270776 -0.12454967 -0.045232438 -0.19724654
0.009983193 0.051493745 0.13962112 -0.05575451 0.05429129 -0.30563536 -0.023361921 0.19542144
-0.0040017953 0.16684796 -0.034099087 -0.12618022 -0.0066117262 -0.09746723 0.108682595 -0.11363931
0.17590833 0.066002116 0.044996254 0.29587045 0.27696165 -0.2485552 0.0367862 -0.29057848
0.032017175 -0.017107302 -0.18182604 -0.033457745 -0.015014325 0.081773266 0.1755355 0.14017439
-0.18898511 -0.19873773 -0.29919338 0.15745287 -0.079136565 -0.027000722 0.2105311 0.36377212
0.075610556 0.105409995 -0.09528534 0.06170283 -0.081270695 0.12202001 -0.11763003 0.07180285
0.034611784 0.13198544 0.2400949 0.04956647 -0.22431462 0.011078539 0.015853422 0.27581626
-0.01998643 0.16912375 -0.026514024 -0.00029800832 -0.043615274 0.18586606 -0.4692564 0.12666988
-0.09922256 -0.089251615 0.037393592 -0.26356277 0.11062418 0.14004755 -0.12431004 -0.0507138
-0.011054378 -0.0019796875 0.053797442 -0.09298782 0.0050916397 -0.28777495 -0.12764075 -0.17010018
0.3522553 -0.17878482 -0.19675596 -0.12159399 -0.07105858 -0.30703756 -0.044867426 0.027718758
0.06960925 0.54946756 -0.01722857 -0.29704607 0.1993109 -0.06339546 0.2528161 0.3668574
-0.17861184 -0.13151439 -0.15757953 0.22646217 0.119323224 -0.13661034 -0.0038831846 0.006521653
0.067930385 -0.21301153 -0.26042035 0.053419843 -0.046799045 -0.19633356 0.08889361 0.28795555
0.17792435 0.07117743 -0.27771258 0.02764562 -0.0084456485 -0.019382147 -0.23535827 0.33278364
0.10399329 0.048341926 -0.029216254 0.31558082 -0.22277671 -0.075245425 0.031183118 0.33538195
-0.06561933 -0.112293236 -0.12627798 0.054138243 -0.05544675 -0.21986434 -0.18404482 -0.08408162
-0.0005710426 0.05557428 -0.11971116 0.00092347676 0.01449992 0.06387795 -0.06796057 -0.021049984
-0.15520869 -0.27701655 0.1327345 -0.31744948 0.11694108 -0.052203577 0.2832893 0.12710184
0.05752064 0.1688497 0.06371985 -0.03982815 -0.1463393 0.22885132 0.052085906 0.26370078
-0.022065988 0.062127836 0.09457471 -0.087313384 0.15479466 -0.18086405 0.29854083 -0.10100673
-0.039625026 -0.015732665 -0.30637458 -0.0062223817 0.05012687 0.10504089 -0.03798291 -0.30813676
0.088788345 -0.045212198 -0.06867601 -0.018750599 0.25764394 -0.32509997 -0.11193549 -0.018913116
-0.3214297 -0.048722968 -0.40888906 -0.014894033 -0.23364909 -0.07657586 -0.12723589 0.22524776
0.0069277794 0.089782625 -0.11597001 0.023333222 -0.19120145 0.0033942626 0.012005377 -0.15218264
-0.28369114 0.094664395 -0.2397787 0.20194173 0.10310279 -0.31240535 -0.50184643 0.067232095
-0.04314271 -0.4624493 0.011095997 0.3052297 -0.053343046 -0.209113 -0.11228464 -0.13910973
0.37900785 -0.25932473 -0.043321643 0.19755314 0.45830762 -0.018726898 0.002807314 0.011946971
-0.04619781 -0.2664635 0.041641477 -0.028481742 0.15835947 -0.021946846 0.08188491 -0.1519232

bias f4 [32]
00000000: 6f88 3a3c 5bb8 26bd 659c 07bc 1817 b93b
00000010: 6f56 a4b9 110b 673b 508e 21bc da0f 053d
00000020: 54e8 8d3c ddf8 44bc 55bd 0a3c 916d ecb9
00000030: 944d 39bc 2039 ffbb 06a6 d2ba 9bb0 2d3c
00000040: 58ae fa3c f6a5 00bc 9c53 b03c 7da7 b63c
00000050: aae6 5abc 26d7 583c d54c 2c3b 5dd9 74bb
00000060: 0176 013d 81d7 65bc e349 ab3b f8e7 1e3c
00000070: adc8 3f3c a702 c3bc 638c 25bc 9a7b c13b
0.011385067 -0.04070316 -0.008277033 0.005648505 -0.00031344916 0.0035254399 -0.00986059 0.03248582
0.017322697 -0.012022224 0.008467992 -0.0004509506 -0.01131 -0.0077887923 -0.0016071207 0.010601188
0.030600712 -0.007852068 0.021524243 0.022296662 -0.013360659 0.013234889 0.0026290913 -0.0037361004
0.031606678 -0.014028431 0.005227314 0.00969886 0.01170556 -0.023804976 -0.010104272 0.005904627

weight f4 [32, 32]
00000000: db1c 06bc c41c b5be b80a 9b3d 69a7 a23e
00000010: 7475 e33d 1e1b 633e a632 babe 7552 223c
00000020: 2613 d03c 49cd a33d 825f 04be a04e b93d
00000030: 8802 53bd 8449 eabc 1f54 debd 8de4 ef3c
00000040: 78fc 413e e7de 3abe 5183 8d3d b2f0 1ebe
00000050: 5bfa 8fbb 4fee bf3e 9fc9 e6bb 75d5 20bd
00000060: f262 603d ca7a a2bd 8044 0fbe 27ca e43d
00000070: 248d 803e 3a68 13bd 5b3d 9dbe 96fb 183e
00000080: b6d0 333d 00d7 a23c 5417 0dbe 31ce f33d
00000090: 1d74 11bd e891 2cbe 612d 283c 0be0 263e
000000a0: 14ae d53d 924a 8b3e caaa 403e 95ad 9ebc
000000b0: dce9 25bd fba5 b1bb d3fb 953c 6ccd 10be
000000c0: 02b9 a73d 163b 3fbe be9c 973b f711 8e3d
000000d0: bc9b c7be bf9f 953c 25a0 07be 2ebe a6be
000000e0: ebdf 983e 553f 36bd 2839 bdbd ff8d a9be
000000f0: f6bd c3bd d9ca 7fbe 28ad 35be 064a bfbd
00000100: 49e1 6dbe ea50 333e b632 153d c15c 9e3c
00000110: 0cb7 f1bd b6ad be3b ac5b 21be d82c 8ebd
00000120: b813 3fbd 58d8 ffbd 7d2c 9dbc 5b21 383d
00000130: 377e 85be d1ac b03d 5b40 1e3e 01f1 543e
00000140: 1cb7 993e a483 7e3d bb39 8b3c c20c 2abc
00000150: 21a8 f93d 9ca9 1abe 3a48 94be dc09 d93d
00000160: 9d48 263e f167 9fbc 9e73 843c 54a9 81bc
00000170: 59eb 45bd b400 413d e360 e93d 987c b03c
00000180: 2e64 973d 9f29 243d 94b8 f73d 0e65 9cbd
00000190: 7f5a d4be 7bbb 323d b39c d6bd dd11 98be
000001a0: 5f36 6ebe 158c 38be 63b7 d33d 0bf0 df3d
000001b0: 8453 cbbc 627e be3e 1029 b93e 4f25 a6be
000001c0: 8222 1d3e 2c62 4b3e 3996 0ebe f81f 9dbd
000001d0: aac2 8bbd 89b3 a6be 8cf3 43be ea90 8bbe
000001e0: 4609 053d c4ac 453d d7e1 20be 8c7f 193d
000001f0: 86e4 03be e585 643e d59b e13c 52b8 00bd
00000200: 55c1 6bbe 227f 16be d9db 3f3e 4e61 423e
00000210: ba6d a53d f2d1 8abe c287 623c 82bb 86be
00000220: c9dd 01bd 4abf 3dbe 9bec 033f ef03 9e3d
00000230: 10ab 803e 9816 c13c 9f4b 003d 29cd 77bd
00000240: 213d 90be 06dd d3bd bd30 6e3b 4ea6 3c3d
00000250: f9f7 233e 2aca be3b 3cfa f6be b51c 63be
00000260: 64d6 9d3d 1c09 2cbe 535d 2d3a eaf8 bf3d
00000270: 47e0 3e3e 996f d73e 616d 333e 2862 8f3e
00000280: f656 61be 17e4 633e c886 0cbe 3cf6 b4bd
00000290: 23d0 bbbd 644d cdbc eb6e a63d 3f18 bd3e
000002a0: de50 4cbe 9eb2 523e 920c 2cbe 8ede ff3c
000002b0: f26e f23d c30a dcbd 509f f93c 56dc 2b3d
000002c0: 9fa0 333d e6d0 f93d 3c18 69be 17e2 6ebd
000002d0: 9183 15bc 8e74 0abd adc0 e3bd 7c79 29be
000002e0: ccd0 c5bd 29e7 58be 2a60 883e ab0e d7bd
000002f0: 3b71 b8be c1cf ce3d 8b22 ac3d ec0c e93c
00000300: 3a73 813e ec1e 79be 04b4 963d e4f5 2e3d
00000310: 64c5 eebc f987 823e 79cc 123d 5dc7 de3d
00000320: 7dfc 81be 5611 e2bd dd63 4cbc 4910 d33c
00000330: 045a bbbe d7b0 9b3e 32ac 5b3e 9679 34be
00000340: 8625 3f3e dc04 403e e0f2 25bd 08cc 62be
00000350: eb29 5b3e 9cc8 e6bc b8bb 273e 7ee7 1dbd
00000360: 9583 3c3e 71f5 13bd 8647 6c3e 0efa 32be
00000370: 6874 613e 965d e5bc f1d3 53be 461f 15bd
00000380: 18b9 0d3e 2817 8abd 6aee 3f3d c6b7 aebc
00000390: 2918 b73c c876 9dbd 8b2b ca3e af3c 1f3e
000003a0: e392 a1bd b5b5 70bc 30c7 883e c7b2 5d3c
000003b0: 88c8 c8bd 3024 60be e2d8 0dbe c0e9 e53d
000003c0: 8ea0 ebbc 3d0c 0f3e 0f5d 8e3c f23f d63e
000003d0: 4ad8 953e a3eb 693e ed78 363e c201 5bbb
000003e0: 8206 153e 1149 723e 36c4 703e 970d 2c3e
000003f0: 93ff 18bd c6b4 1dbe bc38 6bbd 8295 aa3c
-0.008185591 -0.3537351 0.07570404 0.3176835 0.11106387 0.22178313 -0.36366767 0.009907355
0.025399756 0.079981394 -0.12927058 0.090482 -0.051516086 -0.028599508 -0.108558886 0.029283786
0.18943965 -0.18249093 0.06909812 -0.15521505 -0.0043938584 0.37486503 -0.007043078 -0.03926607
0.05478186 -0.079335764 -0.13990974 0.1117137 0.25107682 -0.03598807 -0.30710873 0.14939722
0.043900214 0.01987791 -0.1377843 0.11904562 -0.035511125 -0.16852534 0.010264725 0.16296403
0.104335934 0.2720533 0.18815151 -0.01936988 -0.04050623 -0.0054213977 0.018308556 -0.14140862
0.08189584 -0.18674883 0.0046268394 0.0693702 -0.38986003 0.01826465 -0.13244684 -0.3256697
0.29858336 -0.044493992 -0.09239417 -0.33116147 -0.095577165 -0.24979724 -0.17741835 -0.09340291
-0.2323047 0.17511335 0.036425315 0.019331338 -0.118024915 0.005819048 -0.15757626 -0.06942147
-0.046649665 -0.12492436 -0.019186253 0.044953685 -0.26072857 0.08626712 0.15454237 0.2079506
0.30022514 0.06213726 0.016995301 -0.010379018 0.12190271 -0.15103763 -0.28961354 0.10597584
0.16238637 -0.019458743 0.016168412 -0.015827812 -0.04832015 0.04711981 0.11395433 0.021543786
0.07392155 0.040078755 0.12095752 -0.07636462 -0.41475293 0.043635827 -0.10479107 -0.2970113
-0.23262928 -0.18022187 0.103377126 0.109344564 -0.024820097 0.37205797 0.3616414 -0.3245034
0.15345195 0.19861668 -0.13924493 -0.07672113 -0.068242386 -0.3255885 -0.19135875 -0.27258998
0.032479547 0.048260465 -0.15711151 0.037475154 -0.12880144 0.22316702 0.027540127 -0.03142578
-0.23022969 -0.14696935 0.18736209 0.18982431 0.08077569 -0.271133 0.0138263125 -0.26314932
-0.03170565 -0.18530002 0.51532906 0.07715594 0.2513051 0.023570344 0.031322118 -0.06049839
-0.28171638 -0.10344891 0.0036344968 0.046057038 0.16012563 0.0058224397 -0.4823779 -0.2217892
0.077069074 -0.1680035 0.00066133327 0.093736485 0.18640243 0.4207733 0.17522193 0.28004575
-0.22005829 0.22254978 -0.1372329 -0.08836028 -0.09170558 -0.025061317 0.08126625 0.3693256
-0.19952723 0.2057595 -0.1680167 0.031234052 0.118375674 -0.1074424 0.030471474 0.041958176
0.043854352 0.12198047 -0.22763151 -0.058321085 -0.009125606 -0.03380256 -0.11120734 -0.16550249
-0.096589655 -0.2118193 0.26635867 -0.105008446 -0.36023888 0.1009822 0.08405026 0.028448544
0.25283223 -0.24328202 0.07358554 0.04271497 -0.029146858 0.25494364 0.03583953 0.10877869
-0.25387946 -0.11038463 -0.012474981 0.025764601 -0.36592114 0.30408356 0.21452406 -0.17624506
0.18666658 0.18751854 -0.040514827 -0.22148144 0.21402709 -0.02817183 0.16380203 -0.038550846
0.1840957 -0.036122743 0.23074159 -0.17478201 0.22017062 -0.027998727 -0.20686318 -0.036406778
0.13840139 -0.06742698 0.04685823 -0.021327864 0.022350388 -0.07688671 0.39486346 0.15550493
-0.078893445 -0.01469176 0.26714468 0.013531393 -0.09803873 -0.21888804 -0.13852265 0.11226225
-0.028763082 0.13969512 0.017378358 0.4184566 0.29266578 0.22843795 0.17819567 -0.0033417796
0.14553264 0.23660685 0.23512349 0.16802059 -0.03735311 -0.15400991 -0.057427153 0.020823244

bias f4 [32]
00000000: dc1b 523c 73ec 1c3c 4593 fd3c e3ff fdb8
00000010: f7e3 0e3c b109 26bc 3de1 e5bb 8f11 bd3b
00000020: aeb6 3c3c 2ea4 afbc 3077 d439 61a7 773c
00000030: f20c 1ebc 2946 473c b664 483b 389c c33c
00000040: ceb5 353c f72a 403c 2cc7 783c e90e 603c
00000050: 6e57 633c d81c adba dc7a 463c cf11 11bb
00000060: bc48 0c3d 6477 87bb 049b 8cbb 1034 41bb
00000070: 09be 1d3a 5cb0 03bc c44d 89b8 5864 b3bb
0.012824025 0.009577858 0.030954013 -0.00012111643 0.008721343 -0.010134147 -0.007015376 0.0057699154
0.011518164 -0.021440592 0.00040524593 0.01511559 -0.009646641 0.012162724 0.0030577607 0.023878202
0.011090709 0.011728994 0.015184205 0.01367543 0.013875825 -0.0013207449 0.012114253 -0.002213586
0.034249052 -0.0041341055 -0.0042909402 -0.0029480495 0.0006017392 -0.008037653 -6.547154e-05 -0.0054746084

weight f4 [32, 32]
00000000: a3a2 0fbe 42d8 eb3d e1ec 183e f072 9fbd
00000010: fffe e13c 4fdc 703e 93f9 b63d f4d6 d33d
00000020: 9c0b e9bd 029c fbbd d8c8 293e 687f febc
00000030: 36d6 bcbd d1ef a3be 7331 373e 0f88 ba3e
00000040: 8fef a1be fa6f 63be 82d3 69be 4e23 27bc
00000050: ae06 34bd 23ad c1be 0cb5 ed3c f9fd b3be
00000060: 4279 a53d 6713 75be 355e aa3e 76a0 783e
00000070: fef7 d2bc 8ef2 973e 687b 1d3e d5f8 993e
00000080: 834d a03d fb4a 833e d055 9cbe e1aa 62be
00000090: 3189 a43e 1788 d4bd c334 76be 2be3 45be
000000a0: dc8a 9cbd fc7f e2bd a023 65bd bbb1 3bbe
000000b0: 3021 42be 4975 27be 02b1 843e 1534 0b3e
000000c0: 2b49 09be 02ae 29bc 4196 93bd 38b0 8bbe
000000d0: 1eab 303e 8c80 943d b16c 60bd c1a7 9e3d
000000e0: b368 b4bd 3653 c63d 534e e33d b378 5d3e
000000f0: a70d 443e 4c4c 42be 29d9 dd3d cef7 4b3e
00000100: 9813 50be 5041 aebd 1dae 9e3e 258f 4cbd
00000110: 71b3 603e 7aa0 89be 8077 b03b 73e0 1f3e
00000120: ee3a 043e bbbc a9bc 16ee 25be 9879 7a3e
00000130: 6b17 e53c 93bc 0ebd 46db 843e 1e2a 0e3f
00000140: ecd6 e0bd fae3 ac3d 2da3 263e 1433 3bbe
00000150: 8191 cdbd d8e3 5e3d ae9a efbd 2959 3e3e
00000160: bfae d23d 2a0d 02be f56d f6bd 4306 17be
00000170: 7a44 4abe c429 56be e724 a4b9 84ab 193e
00000180: 094f 053e a1a1 27bd c66f 43be 4eab 3cbe
00000190: 0513 9f3e 7164 a0be f067 173e eb44 cf3b
000001a0: 7196 453e 1421 ffbd f788 4c3e f77f 94be
000001b0: 6f3c 933d e4f5 72bd afee f23d bc51 7e3e
000001c0: 0f7f c6be 358a 0d3e 388b 43bb c2da 10bd
000001d0: 1e05 cfbe 2bb4 4dbd 390c f93c 27d9 62be
000001e0: 9d34 d2b9 a419 35bd 8407 853e edc3 efbb
000001f0: 76b3 163e 21c2 25be e6ee f93d aa51 9a3e
00000200: f2f9 153f 4e9c a6be 2664 af3d 92cd 31bd
00000210: 2fda e2bd c827 8dbe dd91 2c3e 4fd5 9bbd
00000220: 9e88 5e3c d58d 92be 2c2c c3bd da8d 143e
00000230: 6e8a d2bd 7b70 273e 0d03 f83a c2b1 ebbd
00000240: 9b0a a33d 05e3 a43d 1a82 26bd 5b14 eb3c
00000250: 112d d43b 95fb 1a3e f860 f43d e9ef 1c3e
00000260: cae5 c83d a7e5 a03e 7991 8cbe c7cd cb3d
00000270: 3326 443e 81e6 123d 1c98 cfbd 0883 d7bd
00000280: 67ad d33d dbed d1be b3ee fd3c 3c63 c93e
00000290: 4ecf e03d 281e ddbe 6494 bd3d 2c4a 7e3e
000002a0: ff9e 0a3e e964 8c3c f875 6cbc 0b79 533e
000002b0: 1001 87bd 6a01 183e d0ef e73d 3183 5a3e
000002c0: c166 a2bd 2320 68be 6e0f 523e 007b 4f3d
000002d0: 0d02 c33e d7db e93c 6869 093e c6fc 863e
000002e0: 3530 293d c082 7b3d a429 cbbe dec8 82be
000002f0: 54cd 3ebd 8def 3bbe 878d ba3d db96 7abe
00000300: a1be 85bc 49fe 5e3d e224 78bd d89b 8f3e
00000310: 4ccb 8cbe 574a ffbd 90ec 78be d820 293e
00000320: 5273 a53d 73ad ed3d 8e25 e1bc 834a 14bd
00000330: 6f94 4f3d 99bc ac3d bc46 6a3e 45b9 5b3e
00000340: 9832 023e 09b0 38be 9ddb 61bd 2e1a 113d
00000350: e184 41bc f5a2 f93d e617 673e c1e3 603d
00000360: 71c6 ff3d 3e7f c93e 750c 923e 487e 89be
00000370: cfc5 cbbe 693e 60bd bb4b 74be 6815 473e
00000380: 7338 d33e 4c84 8abd 0566 7ebe 08bf 04be
00000390: ef3c e8be 9e42 f53d 8c46 00be ef24 afbc
000003a0: aef5 e93d 1522 b93d 1e7e debe 5da1 d9bd
000003b0: 2cab 9b3c 3ed1 a6bd fa41 ac3e 9d3e a6bd
000003c0: 1023 803d 770c e23e dd87 e63d 6e7e 323e
000003d0: a200 bbbe 9921 733d 5127 893e 2b65 ea3d
000003e0: 0b36 33be 6287 253d f997 95bd ff41 1f3e
000003f0: 3c12 743e 485a d4bc 1c17 26be 6ea3 80be
-0.14026885 0.11515857 0.14934112 -0.077855945 0.027587412 0.23521541 0.08934321 0.103437334
-0.113791674 -0.122856155 0.16580522 -0.031066611 -0.09220545 -0.32018903 0.17889957 0.3643193
-0.3162808 -0.22210684 -0.2283459 -0.010201288 -0.043951683 -0.37827405 0.029016994 -0.35154703
0.08079769 -0.23933183 0.33275 0.24279961 -0.025753018 0.29677242 0.15379107 0.30072656
0.07827284 0.25643143 -0.3053422 -0.22135498 0.3213592 -0.103775196 -0.24043564 -0.19324939
-0.07643673 -0.11059567 -0.055942178 -0.18329518 -0.18957973 -0.16353334 0.25916296 0.13594086
-0.13406818 -0.010356428 -0.07206393 -0.27282882 0.17252776 0.07251081 -0.054791156 0.0774684
-0.08809032 0.0968384 0.110989235 0.21628074 0.19145833 -0.18974417 0.10832436 0.19918749
-0.20319974 -0.08508551 0.30992213 -0.0499412 0.21943451 -0.26880246 0.0053853393 0.15612964
0.12913105 -0.020719877 -0.16204104 0.24460447 0.027965268 -0.034847807 0.25948542 0.55533016
-0.10978493 0.084419206 0.16273184 -0.18281204 -0.10037518 0.054416507 -0.11699425 0.185887
0.102872364 -0.12700334 -0.120326914 -0.14748482 -0.19752684 -0.2091437 -0.00031308012 0.15006834
0.13018431 -0.040925626 -0.19085607 -0.18424723 0.31069198 -0.3132663 0.14785743 0.0063253543
0.1929567 -0.12457481 0.19974123 -0.2900388 0.07189261 -0.05931653 0.118619315 0.24835867
-0.38768813 0.13822253 -0.002983762 -0.035364874 -0.40433592 -0.05022065 0.030401336 -0.2215315
-0.0004009352 -0.044213906 0.25982296 -0.0073170573 0.14716896 -0.16187336 0.122037694 0.3014043
0.5858451 -0.32541126 0.08564024 -0.043408938 -0.110767715 -0.27569413 0.16852517 -0.07609045
0.013582377 -0.28623834 -0.095299095 0.14507237 -0.102803096 0.16351502 0.0018921808 -0.11508514
0.07961007 0.08051113 -0.04065142 0.02869623 0.006475099 0.15135033 0.11932558 0.15325893
0.09809454 0.3142521 -0.27454737 0.09951358 0.19155197 0.035864357 -0.101364344 -0.10523039
0.10335808 -0.41001782 0.03099761 0.39333522 0.1097704 -0.4318707 0.09256819 0.24832982
0.13537215 0.017137961 -0.014432423 0.20651643 -0.065919995 0.1484429 0.113250375 0.21339108
-0.07929755 -0.22668509 0.20513698 0.05065441 0.38087502 0.02854721 0.13419116 0.26364726
0.04130574 0.06140399 -0.39680207 -0.25543875 -0.046582535 -0.183531 0.091090254 -0.2447161
-0.01632625 0.054441724 -0.06058205 0.28048587 -0.27498853 -0.12465351 -0.24308991 0.16516435
0.08078636 0.116053484 -0.027483728 -0.036203872 0.050678667 0.0843441 0.22878546 0.21457393
0.12714612 -0.18035902 -0.05514108 0.035425358 -0.011811466 0.12189285 0.2256771 0.054904703
0.124890216 0.3935489 0.2852513 -0.26854157 -0.39799353 -0.05474702 -0.23857014 0.1944176
0.41254005 -0.06763515 -0.24843605 -0.12963498 -0.4535899 0.11975597 -0.12526911 -0.021379916
0.11423813 0.09039704 -0.43455595 -0.10626481 0.01900252 -0.081453785 0.33644086 -0.08117411
0.06256688 0.44150135 0.112563826 0.17431042 -0.3652392 0.059358213 0.2678781 0.114450775
-0.17501085 0.040412314 -0.07304377 0.1555252 0.23835081 -0.025921956 -0.16219753 -0.25124687

bias f4 [32]
00000000: 697e babb 4d7b b3bc 3bfd b6bc f1af 413c
00000010: cd91 033c b1c3 393c 46c6 11bc 3443 3839
00000020: 49b1 ed3b 3796 48bb 8133 143b 8b08 1abc
00000030: cc40 6d3c 9dfa 3f3c fd72 823a d40d 22bb
00000040: 9f3c 8a3b e8c4 6b3b d728 a43c 76e8 63bc
00000050: a2fb c1bb 8071 493b 5d01 f1bc 360b 6abc
00000060: 9fdd 97bb fe82 3e3c 014f 38bc d6a9 b93c
00000070: eac2 1ebb 5f1b 1d3c 44fc e8bb 13ab 5bbb
-0.005691339 -0.02190938 -0.022337547 0.011821733 0.008030367 0.01133816 -0.00889737 0.00017572643
0.0072538 -0.0030607113 0.0022613707 -0.009401451 0.014480781 0.011717466 0.0009952482 -0.002472748
0.0042186524 0.003597552 0.020039005 -0.0139104035 -0.0059198895 0.0030737817 -0.029419595 -0.014284899
-0.0046345736 0.011627911 -0.011249305 0.022663992 -0.0024225065 0.009589045 -0.0071101505 -0.0033518716

weight f4 [1, 32]
00000000: 8d41 2a3c 964e f23c d982 e73d e67c 5d3e
00000010: 9510 46bd ee24 51be d697 67be 6139 6a3d
00000020: edba 85bd a18e 9e3d 84f7 b73c 7e51 a03e
00000030: 73d7 91be f43c c5be 5b8b a3be 13ce ccbe
00000040: 2a04 403d affe de3d be67 3cbd bec3 f63d
00000050: 808a f33d 6aaa 08bd 5422 cb3e a0ff b0bd
00000060: 9ef1 c33d 3826 9dbe 7012 723d 0099 16be
00000070: 9230 bc3d 7e4f 8dbd 1241 963d a84a a63c
0.010391605 0.029578488 0.11304254 0.21629676 -0.048355658 -0.20424244 -0.22616515 0.057183627
-0.06529794 0.07742048 0.022456892 0.31312174 -0.28484687 -0.38523066 -0.31942257 -0.40000972
0.04687897 0.10888421 -0.045997374 0.120490536 0.11891651 -0.033365645 0.39674628 -0.086425066
0.09567569 -0.3069322 0.059099615 -0.14706802 0.091889516 -0.068999276 0.0733663 0.02029927
