models/exp_disc.pt (torch, 13913 bytes, 7 tensors)

weight f4 [32, 2]
00000000: f922 163f 4435 0fbe 8b33 ccbd 0d55 c63d
00000010: c960 48be 5bd9 763e ddfe 483d b9a8 cc3e
00000020: e194 ffbe 8ace e8be 73f4 c4be 92d3 6ebd
00000030: e43d ef3e d9f3 2e3e a0a1 17be a7eb 563e
00000040: 7c09 4c3e f02f c3be f626 4cbe e3e4 963a
00000050: fea4 903e f78a aa3e 94c1 493d 4c6f 71be
00000060: 2278 c53e 38bf babd fd96 273e 5121 4b3e
00000070: a098 a83e c919 d33e 412a 163e 0293 e7be
00000080: 55da 0b3e 7813 86be 3886 8b3e a0c1 46bd
00000090: 773c fd39 9026 953e 4917 14be c739 a43e
000000a0: 340b a63d 34ca b73d ce22 013d 6d5e 7ebe
000000b0: a67e 633e 0c43 87bd 2f3f e4bc c56d 9a3d
000000c0: 6741 d9bd b9c7 0ebf a971 acbe 2455 2f3e
000000d0: 1aed 2cbe 70a1 3cbc f6d3 833e e3e1 30be
000000e0: 5bd3 8bbe add5 b2be 3fd3 f03d 3fb8 c23d
000000f0: bff5 993e 15c3 973e a4de bebe 6b3e 02be
0.58647114 -0.13985163 -0.099707685 0.09684191 -0.1956817 0.24106352 0.04907118 0.39972475
-0.49918273 -0.45470077 -0.3846775 -0.058307238 0.46726906 0.17085208 -0.14807749 0.20988332
0.19925493 -0.3812251 -0.19936737 0.0011512305 0.2825088 0.33309147 0.049256876 -0.23577613
0.38568217 -0.09118503 0.16366191 0.19836928 0.32928944 0.4123061 0.14664556 -0.45229346
0.13657506 -0.26186728 0.27250838 -0.0485245 0.0004830097 0.29130983 -0.14462008 0.3207533
0.081076056 0.08974114 0.031527333 -0.24840708 0.22216281 -0.06604585 -0.02786216 0.07540468
-0.10608178 -0.557735 -0.33680466 0.17122322 -0.16887322 -0.011513099 0.2574765 -0.17273669
-0.2730969 -0.34928647 0.11759042 0.095077984 0.30070302 0.29641023 -0.37279236 -0.12719123

bias f4 [32]
00000000: 023d 833d a230 3c3c af23 0c3d c8e9 393d
00000010: 93bd 27bd 8d75 48bc dae8 9cbc c801 9dbc
00000020: a4ad cfbc 1e3a 31bc 1c3a 513d 8d06 333d
00000030: 855f 343d 2aec e23c dfd1 81bc cb35 f23c
00000040: 1042 bdbc 1192 9e3c f9c3 0dbd 5add 00bd
00000050: 5d5f 2d3c fa60 28bd f4c6 d03c 8c44 163c
00000060: 3715 92bd c503 f2bc fedd a4bb 855d b1bc
00000070: a2b2 35bd a11c 623c 6cb6 803c f3b3 debb
0.06408121 0.011486204 0.034213718 0.045388967 -0.040952276 -0.012235058 -0.019154001 -0.019165888
-0.025351353 -0.010817079 0.051080808 0.04370742 0.044036407 0.027700502 -0.015847145 0.029566666
-0.02310279 0.01935676 -0.034610722 -0.031461097 0.010581818 -0.04110811 0.025485493 0.009171616
-0.07132953 -0.029542813 -0.0050313463 -0.021651039 -0.04435981 0.013800771 0.015711986 -0.006796354

weight f4 [32, 32]
00000000: 2948 61be d110 a9bd 6ffe 4bbd e477 e03d
00000010: 0535 76bc c4da 04be e4d7 97be a2fc e2bd
00000020: 9d69 28be 711e 8c3e c334 873d 16e8 6e3d
00000030: f202 5a3e 022b 18bd 3c18 87bc 1de1 a3be
00000040: e494 0abe b478 06be c48b 82be 1bc9 fa3d
00000050: a9ae 123e 1cb9 b7be aff0 eb3d bcdc 8dbe
00000060: 4a0a 5c3e 2622 ca3d afb1 a5bd 9402 5b3e
00000070: 4fa4 b53e bfce cfba d7c2 3cbe 1cb9 b43c
00000080: b13d 8abe eef3 513e 9262 b5bc ba45 fabc
00000090: 5bf1 50be 3030 90be f6c0 663e 4682 403e
000000a0: 93ed c13e 33dc a03d 07ee c1be 6cd5 ac3d
000000b0: 2472 af3c e8f8 80be e4f9 67bd e5d7 3e3d
000000c0: 565b 5c3e 38cd 30bc 0088 1b3a 8d0d 223e
000000d0: 97b7 a0bd bd31 513e a7f1 943d a123 d8bd
000000e0: 5eb4 a93d 90f8 e7bd 40f4 46be 9ea7 5b3d
000000f0: 0f33 db3e 4704 503d 610a ffbd 5765 b5bd
00000100: 99dd da3d 5ecf f0bd 000b f73d abf3 963e
00000110: 7c83 acbe a84d c9bc a1fb cebe ffc6 0e3e
00000120: a902 bbbe e85c bcbd 43c9 153d c617 6bbe
00000130: 3cf8 00bc e4d0 9f3c a651 63bd 9e63 0fbe
00000140: 65ad 3fbd 8fb6 3a3e 8d61 8f3e ab2d 30be
00000150: 2c54 e2bc d669 733d eba7 253d 371c e13d
00000160: a85c b73d 6a53 263d 7d1b 53be 34e2 533e
00000170: 43e2 6abd 9952 80be fad0 653e e3a6 853c
00000180: ea04 d5bc ebc1 ee3d 1c1f 02be 0ac0 183e
00000190: de36 383e 4876 a73e 5a64 ccba ea9a 1c3e
000001a0: 7d07 173e c271 7ebd c612 853e c3c7 4e3e
000001b0: 6506 ff3c 3b7a 303e 89fa 173e 1a78 78be
000001c0: 4a91 483d 485e 2e3e 93aa a6be 3304 80bd
000001d0: 4ae8 b43e c21f 3b3e 7137 c03c 9461 103b
000001e0: 7b23 d53d 0ea0 9b3e 654d 8c3e d9c3 293e
000001f0: 4b35 713e 484a a03e c1ed a33b e2fb 643e
00000200: c117 49be ebf0 f33e 6981 2b3c 1607 86be
00000210: db17 c2bd 2a4c 823e a7fb 863d a0f2 2cbe
00000220: 261b 75bd 8910 46bd 49c8 a1bd d614 a8bb
00000230: 03e3 113e 0430 c3bd 615c 16be 1378 42be
00000240: 04b0 b6bd f22a 2b3e 0aab 52be 1ae8 8cbe
00000250: 6b6e 12bd ce85 0dbd cc47 0a3e c114 44be
00000260: b862 8d3e be35 88bd 8c44 d23d 4fe1 8bbd
00000270: b569 e23d 3496 683e 6327 503e ea6e b93e
00000280: eace 6c3d 1077 8b3c 8338 96be a240 e63d
00000290: d357 1fbe 079f 0e3e 34a7 123e fe9b c5bd
000002a0: 0104 12be 4e14 883e ddc9 603e 0b54 5f3e
000002b0: 7e01 58bd 2341 3b3e 193c 4dbe 961c 453e
000002c0: 005c 80be 1f59 f33d d26c 073c 1a48 0b3e
000002d0: 0dda 4e3d ede2 4ebe 0de1 4dbe 242b 71be
000002e0: 9562 bcbc d929 3b3d 2e35 f03d 1041 833e
000002f0: ce6b 883d 8ec7 643d f1b0 f3bc df7e 6abe
00000300: 7df8 00be e9a8 8ebd 242b e43b c9d8 74bd
00000310: e906 1bbe 403f 05be f1b7 9bbc 3fe3 cabc
00000320: 5889 243e 1a96 2bbe a016 7f3e 45c7 0b3e
00000330: edac 39bb 703c 913e 3fce 9ebd dec5 49be
00000340: 3eb3 66bd 09cd bfbc 1012 16be d020 7abc
00000350: 78d6 c73d 35b9 e5bd 0e3d 073e ec48 813e
00000360: a1ad c53d 12b1 de3d 6c3c 593e d88c 183c
00000370: ed67 e63d 8e2c 54be cf4f f83c 57a9 1cbd
00000380: 13bd 34bd 9566 283d 82be 503d 17c5 133d
00000390: 689c 62bc c498 dfbe 008d 403d a19e 2cbe
000003a0: 565b 2c3e 7ae5 3a3e 47d3 703c 1501 40bc
000003b0: 76e2 483e 5337 eebc e111 b7bd 3cf1 3f3d
000003c0: 494e fe3d 0a6b 16be 87a5 7c3e 8aa3 923e
000003d0: 461b 4e3d 1941 1a3e 1950 a03c 8e7d ce3c
000003e0: 59fc bebc 8b0f 4d3d b292 89be f5a2 97bd
000003f0: 1faf e3bd 04cf 92bd 7b5c c03e 5c05 c9be
-0.22000183 -0.082551606 -0.049803194 0.10960367 -0.015027289 -0.12974077 -0.296569 -0.11083342
-0.16446538 0.27366975 0.066018604 0.058326803 0.21290186 -0.03715039 -0.016491048 -0.32007685
-0.1353336 -0.13131982 -0.25497258 0.12245389 0.1432444 -0.35883415 0.11520516 -0.2770747
0.214883 0.098697945 -0.08090531 0.21387702 0.3547692 -0.0015854462 -0.184337 0.022060923
-0.27000192 0.20503208 -0.022141729 -0.030550826 -0.2040457 -0.28161764 0.22534546 0.18799695
0.37876567 0.078545 -0.37876913 0.084391445 0.021416731 -0.251899 -0.0566348 0.04659261
0.21519217 -0.010791115 0.00059330463 0.15825482 -0.07847517 0.2042913 0.07272654 -0.10553671
0.082863554 -0.113267064 -0.19429111 0.05362665 0.42812392 0.05078533 -0.124531515 -0.0885722
0.10686798 -0.11758302 0.12062645 0.2948278 -0.33694065 -0.024573162 -0.40426353 0.13943098
-0.36525467 -0.09197408 0.03656889 -0.22958288 -0.007871684 0.019508786 -0.055497788 -0.14002845
-0.04679622 0.18233703 0.28004113 -0.17204921 -0.027628027 0.059427105 0.040443342 0.1099171
0.0895322 0.040606894 -0.20615955 0.20691758 -0.057344686 -0.25063017 0.22443 0.01631493
-0.02600332 0.11658081 -0.1270718 0.14917007 0.1798968 0.3270743 -0.0015593872 0.1529347
0.1474895 -0.062120207 0.25990885 0.2019339 0.031130979 0.17234127 0.14841665 -0.24264565
0.048966683 0.17028153 -0.32552013 -0.06250801 0.35333472 0.18273833 0.023463937 0.0022030817
0.10407158 0.3039555 0.27402797 0.16578616 0.23555486 0.31306672 0.0050027077 0.2236171
-0.19637968 0.47644743 0.0104678655 -0.2617728 -0.09477206 0.25448734 0.065909676 -0.16889429
-0.059840344 -0.048355613 -0.078995295 -0.005129437 0.14246754 -0.09530643 -0.14683677 -0.18991117
-0.08920291 0.16715601 -0.20573059 -0.2752083 -0.035749834 -0.034551434 0.13503951 -0.19148542
0.2761438 -0.066508755 0.102669805 -0.068300836 0.11055318 0.22713548 0.20327525 0.36217433
0.057814516 0.017024547 -0.2933999 0.112427965 -0.15560846 0.13927852 0.14321595 -0.09648894
-0.1425934 0.2657799 0.21952005 0.21809404 -0.052735798 0.18286566 -0.20042457 0.19249186
-0.2507019 0.11882233 0.008265691 0.13601723 0.05050092 -0.20203753 -0.20105381 -0.23551613
-0.022996226 0.045694206 0.11728893 0.25635576 0.06661187 0.055854373 -0.029747458 -0.2289996
-0.12594791 -0.06965811 0.0069631506 -0.059777055 -0.15139355 -0.13012409 -0.019008609 -0.024766563
0.16068017 -0.16756478 0.24910975 0.13650234 -0.0028331832 0.28366423 -0.07754182 -0.19704387
-0.056323282 -0.023413198 -0.14655328 -0.015266612 0.097577035 -0.11216966 0.13206884 0.25250947
0.09652258 0.10873617 0.21214455 0.0093109235 0.11250291 -0.20720121 0.030311493 -0.038247433
-0.044125628 0.041113455 0.050962932 0.03607663 -0.0138312355 -0.43671238 0.047009468 -0.16857387
0.16831717 0.18251601 0.01469881 -0.011719008 0.19617638 -0.029079115 -0.08938957 0.04686092
0.124172755 -0.1468927 0.24672519 0.28640395 0.05031898 0.15063895 0.019569444 0.025206354
-0.023313688 0.05006365 -0.26869732 -0.074041285 -0.11117386 -0.07168391 0.37570557 -0.392619

bias f4 [32]
00000000: 30ed ef3a 7c79 a7bc c9c6 f43c 64ec 1dbd
00000010: 08c6 903c d745 023d 535b 643c 9667 823c
00000020: 47ac f3bc 0421 91bc 862c 1cbb 1d3b ca3c
00000030: 3018 61bd a576 463c bf84 10bd 6f57 5bbb
00000040: 8358 7e3d 938c 32bc 8444 bd3c bdbe 2e3d
00000050: 1831 fabc 0fa9 80bc d5ae 953b 4161 933c
00000060: cda5 08bd 105c 863d 051c 743b 12bd 983b
00000070: 67b7 0ebd 1d48 43bc f526 a03a 9109 0b3b
0.001830494 -0.02044367 0.029879944 -0.038555518 0.017672554 0.031804886 0.013937789 0.015918534
-0.029745234 -0.017715938 -0.002383025 0.02468639 -0.054954708 0.012113248 -0.035282847 -0.0033468863
0.06209613 -0.010897773 0.02310396 0.04266237 -0.030540988 -0.015705613 0.0045679607 0.01799071
-0.033361245 0.06560528 0.0037248146 0.004661211 -0.034842875 -0.011919049 0.0012218641 0.0021215419

weight f4 [32, 32]
00000000: 4ac1 873e 5ca0 83bd 0703 853d 7e0a e23d
00000010: ef16 923e fd1f 513e bb7c 2ebd 8ea0 6bbd
00000020: 21ab 0e3d cfdd f43d ca41 5c3e 42b3 3e3e
00000030: cbe0 1a3d d178 ab3d 5fd6 0abe f6e4 8e3e
00000040: 13dd d83d aa73 7bbe 0aec c13d 1aa7 b8be
00000050: 6a8f aebc e476 3f3e 421c 203e 9b91 db3d
00000060: d50c 973d feba 353e c430 fd3d 0901 07be
00000070: b661 80be 4f23 5dbe 4b06 9d3d 67b8 9fbd
00000080: 56e9 0d3d 1a73 003e ca3b 78be 8e21 d43d
00000090: dcf9 9a3d 0428 37be 14a0 7a3d ca3d 073e
000000a0: c775 25be 1163 313a 65e3 8d3d c798 99bc
000000b0: afcf 7e3e 586c 30be c886 e23d c676 febd
000000c0: ee6e 6bbd 258a 9f3d 9d03 e8bd 7adb 9dbe
000000d0: 2b61 7abd a205 9ebe a0b0 1abe 3540 493b
000000e0: aa2b de3d 8840 703e 4d01 5ebe a23e 41bc
000000f0: 1788 85be 4af3 f33c 19a3 193e bcf7 063e
00000100: 4a78 d9be 492b 0f3e ddca fdbc 1c53 7c3e
00000110: cb8d 7c3e 4326 513a 9120 b03d bab6 aa3d
00000120: 7712 7fbe 339d f93d 0997 42bd 1345 5d3d
00000130: dc1d 9a3d e823 183e 2d54 acbd 6585 843b
00000140: 0471 9b3d 2f41 8abe fe72 c2bd 8248 913d
00000150: aeb4 29bd 82df 96bd e687 9ebe 5a38 f63d
00000160: c8e0 213e ecca 65be eee7 54be 1601 0cbe
00000170: 0ac1 cf3d 1322 46be 874b 4c3d eb99 993d
00000180: bcb6 0bbe 7235 2b3e 242a 54bb 2c41 cebd
00000190: cb74 bb3d 0324 553d e6ae 3ebe 6ab1 ac3d
000001a0: aee6 883c 6f36 aebe b0db 86bd a056 263e
000001b0: 5791 9d3c e264 4a3e e605 143e 45e2 0abe
000001c0: 77ef f73d e2a2 4e3e e233 da3c 3ce1 b5bd
000001d0: c773 5c3e bd1d 133d b9a6 c5be 186e 563d
000001e0: b853 703d 20a1 283e 1d90 e03c cc80 eabd
000001f0: 7c82 f73d b0ff 80be ab7d cd3d 5612 3f3d
00000200: a892 19be 94a9 69be 6442 dabe c860 463e
00000210: 7bc4 c9bb 9b79 5d3d ef97 1abe 3624 173e
00000220: a46f 24be 6fe9 a03e ea51 9abe 9712 973e
00000230: 332a b4bd efad 873e a263 4fbe de3b 00bd
00000240: ff53 513d c550 473e a6d4 2fbe 24ce 3bbe
00000250: 90a7 183e ea38 983e ecec d63e 75c5 bdbd
00000260: 235c 8a3d 400b 3cbe e37a 8a3e 56e6 8cbe
00000270: b503 09bd 9f05 94be 2ecb a6bd 4934 563d
00000280: 9708 28be 5255 c63b 61a0 123e b4f0 6e3d
00000290: 9919 793e ed3f 49be 4634 0f3c d688 9d3d
000002a0: 9439 9cbd 253c 833d bf2e 22be 6d8d 8b3d
000002b0: a30e ffbd 8bb9 db3e c57c f3bd 4a8e 8ebc
000002c0: 61ce 7b3b 4856 f2bd 623a 193e ce04 443b
000002d0: df1e d8be e2e7 d4bd 7a38 7f3c dcad 1c3e
000002e0: 33ea 693d 1446 0abe 9ccc edbd 269f cfbd
000002f0: 6412 e1bd e322 65bd a6d2 d53d d210 39be
00000300: c69e 363e b5b7 8bbd 544f c7bc ef1b cc3d
00000310: d403 7b3d e0a1 3a3e 3abf 4dbd ef28 38be
00000320: f535 e0bc 7154 81bd 646d 31bd e87b 663a
00000330: bedf 943c b4e1 4bbc 8597 54bd 422b bcbe
00000340: 0e9f bebe 38e9 753d 77eb c83d 537b 39be
00000350: 2678 163e f963 8e3d e97b ad3e 5575 243d
00000360: 03b6 2bbd 6d33 34be 82e1 ea3d 6c74 dcbd
00000370: f71f 123d ba0d 0ebd a2ba 61be 3173 723e
00000380: ea9a a63d 435a 453e 1e06 bcbe c77f d1bd
00000390: 569e 4fbe 798e 803c 75b2 cbbd 844a ff3c
000003a0: 77d5 f63d 5a0c 953e f6b1 00be 7670 1abd
000003b0: 9ebd 4c3e 518f b23d 0266 fb3c 51c2 45be
000003c0: 0656 aabe 7b5f 993e f818 4e3d 5a1b 47be
000003d0: 3c28 0abe 7b97 a73e 9343 debc 9c0f 3bbe
000003e0: 527e a8bd 6a7f f4bd 79d5 f5bc b511 433d
000003f0: ffb5 2f3e 2d42 9cbe 73fb 79be db8d 1f3e
0.26514655 -0.064270705 0.06494718 0.110371575 0.28533122 0.20422359 -0.04259942 -0.057526164
0.03483117 0.11956369 0.21509472 0.18623069 0.037812036 0.08372653 -0.13558339 0.27909058
0.105890416 -0.24555841 0.09468849 -0.36064988 -0.02130862 0.18697697 0.1563578 0.107211314
0.073754944 0.17747113 0.12362817 -0.13183989 -0.25074548 -0.215955 0.07667216 -0.07798844
0.034646355 0.12543908 -0.24241558 0.103579625 0.07567188 -0.17886358 0.06118782 0.13207164
-0.1615821 0.0006766776 0.06928138 -0.018749608 0.24883913 -0.1722883 0.11060864 -0.12424998
-0.057478838 0.07790021 -0.11328814 -0.3083151 -0.061127823 -0.30863672 -0.1510644 0.0030708436
0.10848172 0.23462117 -0.21680184 -0.011794718 -0.2608039 0.029779095 0.15003623 0.1318044
-0.42474586 0.13981356 -0.030980522 0.24641079 0.24663465 0.0007978419 0.085999615 0.083356336
-0.24909388 0.121881865 -0.04750732 0.054020952 0.075252265 0.14857447 -0.08414493 0.004044222
0.075899154 -0.27002856 -0.09494589 0.07093908 -0.041432075 -0.073668495 -0.30963057 0.12022467
0.15808403 -0.2244069 -0.20791599 -0.13672289 0.10144241 -0.19348936 0.049876716 0.07500061
-0.13643926 0.16719607 -0.003237375 -0.10071024 0.09153136 0.052036297 -0.18621406 0.084322765
0.01671156 -0.34025905 -0.06584871 0.16243982 0.019234343 0.19765046 0.14455375 -0.13562877
0.12106221 0.20179322 0.026636068 -0.08880851 0.2152854 0.035917033 -0.38603762 0.052351087
0.05867359 0.16467714 0.027412469 -0.11450347 0.12085435 -0.25195074 0.10033735 0.046648346
-0.14997351 -0.22818595 -0.42628777 0.19372857 -0.0061574555 0.05407105 -0.1509702 0.14759907
-0.16058213 0.31428096 -0.3014062 0.2950637 -0.08797111 0.26499888 -0.2025285 -0.031307094
0.051105496 0.19464405 -0.17170963 -0.18340355 0.1490767 0.29730922 0.41977632 -0.092661776
0.06755855 -0.18363667 0.2704688 -0.27519482 -0.0334508 -0.2891054 -0.08144222 0.052295957
-0.16409527 0.0060526514 0.14318992 0.05833502 0.24326171 -0.19653292 0.00874049 0.07692115
-0.0762817 0.06407956 -0.15838145 0.06814084 -0.124539636 0.42914996 -0.11889032 -0.017401833
0.0038422572 -0.11832863 0.14963678 0.002991009 -0.42211053 -0.10395791 0.01557743 0.15300697
0.057108115 -0.13503295 -0.11611292 -0.10137777 -0.10989836 -0.055941474 0.104405686 -0.18072823
0.17834005 -0.06822149 -0.024329819 0.099662654 0.061282948 0.18225813 -0.050231196 -0.17984365
-0.027369479 -0.06314934 -0.043317214 0.0008792267 0.018173095 -0.012443949 -0.051902313 -0.36751753
-0.37230724 0.060036868 0.09810536 -0.1811345 0.1469427 0.06952662 0.33883598 0.04015096
-0.041921627 -0.17597742 0.114687935 -0.10764393 0.035675015 -0.03468106 -0.22043851 0.23676755
0.08135016 0.19272713 -0.36723417 -0.1022945 -0.20275244 0.015692936 -0.09946147 0.031163462
0.12052434 0.29110986 -0.12567887 -0.037704907 0.19994208 0.08718742 0.03068829 -0.19312407
-0.33268756 0.29955658 0.05031678 -0.19444028 -0.1349191 0.32732758 -0.027131831 -0.18267673
-0.08227219 -0.11938365 -0.030009018 0.04762431 0.1715927 -0.30519238 -0.24412327 0.15581457

bias f4 [32]
00000000: 2c9d 003d bddd ac3c cbe2 453d 553a f0bb
00000010: f0c6 d3bc 5c40 313c bbde 8fbc a64d 56bc
00000020: df50 013c c1a7 103d 010b 233c c6f7 87bc
00000030: 7eb9 c83b e12e 343b 2529 bc3c 5531 3dbd
00000040: d9c9 8cbc 8cc3 383c c855 11bc 9918 5c3d
00000050: 82ea e73c 1986 99b9 5c36 693c fead efba
00000060: e44b 9d3c 6812 593d a18e 2a3c c045 acbc
00000070: 460c 50bd 1bdd 863c 170a 073d 3f91 f5bb
0.03139989 0.021101827 0.04831199 -0.0073311725 -0.025851697 0.010818567 -0.01756226 -0.013080036
0.007892816 0.035316233 0.009951354 -0.01659764 0.006125628 0.0027493762 0.022968838 -0.046189625
-0.017186092 0.011277091 -0.0088705495 0.053734396 0.028310064 -0.00029282345 0.014234152 -0.0018286107
0.019201227 0.05299607 0.010409982 -0.021029353 -0.050792955 0.016462853 0.032968607 -0.0074941213

weight f4 [1, 32]
00000000: 054a 3dbe 03bd c8bd c778 b8bd 0ddf 823e
00000010: 4ab3 313e 00c7 71be ba4a 593c 36bb 113e
00000020: 6d37 69be a533 a0bd 96e4 723e b36f 543e
00000030: 8399 3fbe c614 fc3d 36df d7bd b662 433c
00000040: f134 4b3d c1bd 2abe 414b b73e d822 8cbe
00000050: 0bfa 11bf daff 58b9 cfac c4bd 5f76 d5be
00000060: 925d 04be 4c64 cebd 60bc 433f 364b c9b9
00000070: a4cf 56be 2187 b8be 26ad 25be 389d 563e
-0.18485267 -0.09801676 -0.090074115 0.255608 0.1735355 -0.23611069 0.013262445 0.14231572
-0.2277505 -0.078223504 0.23720011 0.20745735 -0.18710904 0.1230865 -0.10540621 0.01192539
0.049611036 -0.16673948 0.35799602 -0.27370334 -0.5702216 -0.00020694677 -0.09603273 -0.41691872
-0.12926319 -0.10077724 0.7645931 -0.00038393744 -0.20977646 -0.36040595 -0.16179332 0.20958412
