models/exp_disc.pt (torch, 6623 bytes, 5 tensors)

weight f4 [32, 2]
00000000: 7115 4bbe 3392 84bd 7a75 3dbe 94bc b13e
00000010: b27b 2cbe 8598 b43e 0266 95bd 9cd6 31be
00000020: 9539 e23d ad4b 1fbf adc1 22be 3fd7 28be
00000030: f058 eabc b22b 37bd c53d 24bf 10e6 b63d
00000040: b186 3d3d 437a 7e3e 9219 07be 1245 efbd
00000050: 15cf 7ebd e4b3 f63d e968 073d 78a4 4c3e
00000060: 16a0 d1be ac5c 11be 53b0 74bc 38f7 fcbd
00000070: fc61 0bbd 4f59 0b3d bb4e 31be 01d3 7bbe
00000080: 8ad0 933c aa62 8b3d 47c2 d8bc 3d3a 0bbe
00000090: ea81 23be cb70 eabd cb73 cf3e 1170 d0be
000000a0: cb7d 7a3e 5870 11be dd7c 2a3e 9b55 143d
000000b0: e784 20be d4e4 1cbe 6d9e fd3c 5c3d d13e
000000c0: e688 67bd 29e2 82be 9957 1d3c ee85 0abe
000000d0: 2738 97be 2f0c a0be 0981 1e3e f433 583e
000000e0: cc9f 7b3e 1621 8e3e 7357 52bc dc91 173f
000000f0: 6a10 1fbe dcfa df3e b46d 84be ff0e 2bbe
-0.19832398 -0.06473198 -0.18501845 0.34714186 -0.16844061 0.35272613 -0.07294847 -0.17367023
0.11046139 -0.6222485 -0.15894194 -0.1648836 -0.028606862 -0.044719405 -0.6415675 0.089306
0.04627103 0.24851327 -0.13193348 -0.11683096 -0.062209208 0.1204603 0.033059034 0.19984615
-0.40942448 -0.14195508 -0.014934617 -0.12351841 -0.034028992 0.03402072 -0.1731519 -0.2459221
0.018043775 0.06805928 -0.026459826 -0.13596435 -0.15967527 -0.11447295 0.4051803 -0.407105
0.24462049 -0.14203012 0.16649194 0.036214452 -0.15675698 -0.15321666 0.030959332 0.40867126
-0.05652704 -0.25563172 0.009603404 -0.13527653 -0.29535028 -0.31259295 0.1547891 0.21113569
0.24572676 0.27759618 -0.012838232 0.5920694 -0.15533605 0.43746078 -0.25864947 -0.1670494

bias f4 [32]
00000000: 65ad 9b3d 12af 903c e71a 6a3e 9723 c0bd
00000010: 9737 14be 1f2c 423d 14c0 25bd 7bcd 25bb
00000020: 65b5 6abd c79e 663b 8746 5dbd 00bf 52bd
00000030: f800 123e de7e df3b 4375 34bc 6d30 d43b
00000040: a0f4 d1bb b0e4 0a3d 2a72 dfbc 41ef b7bd
00000050: 64b1 6cbd ff30 6ebd 02c8 863d f498 5cb9
00000060: b76c 313d 7f93 1abd 663a f33d a6d3 b7bc
00000070: 29f5 38be 89bc 673e 8a4a 853e b9cf f93b
0.07601432 0.017661605 0.22861825 -0.09381788 -0.14474331 0.04740536 -0.040466383 -0.0025299478
-0.057301898 0.0035189854 -0.05402234 -0.051451683 0.14258182 0.0068205437 -0.0110142855 0.0064754994
-0.0064073354 0.0339095 -0.027276117 -0.08981181 -0.05778636 -0.058152195 0.06581117 -0.00021037814
0.04331657 -0.03773832 0.11876373 -0.022439789 -0.18062271 0.22630514 0.2603343 0.0076236394

weight f4 [16, 32]
00000000: 620b 393e da5b 30be e679 68be 252a e1bc
00000010: 6f17 b23d 980b 913e c045 0bbe fee5 2f3e
00000020: 8635 da3c 2870 96be a6c1 6cbd aa6a f33d
00000030: 0368 07be 99a4 a6bd bc3a 083e 4976 76bd
00000040: 2756 e53c b18e 59be 4b9a e1be e17c 223e
00000050: 6b34 7d3e 2e8e 7bbe 61d3 05be 1f72 26be
00000060: 08c1 2a3e de60 523e c255 983d 3f87 ee3c
00000070: e7c5 b1bd 694b 80bd d909 6dbe db0c 963d
00000080: 3c53 b03d 255f 993e 1df3 04be 6d4d 9fbe
00000090: d99f 5f3d 568c 1dbd 6dab 0abd c56f 733e
000000a0: 5a81 aa3e 4182 09be 78e0 95be 7b44 923d
000000b0: c999 b2be 24d3 a6be bf90 f03d 2df1 8c3c
000000c0: 9e03 223e 1cd1 b33d f980 9e3c bba0 e3bd
000000d0: 22b1 8c3d 98c3 283e 0305 693e 44f3 2d3c
000000e0: ba02 0dbf ab4e a53c b7e3 293d f92d 3b3e
000000f0: 873c 86bd 6d1e 263e c042 bbbe dbe6 a5bd
00000100: c5a1 613e de35 5abe 49e7 60bd b9ab e1be
00000110: 09bf cdbd d9c7 993d d727 883d 0a31 e03d
00000120: 5d04 3dbe a066 23be 8875 a03e a0b8 01bf
00000130: fe17 8dbe 8285 2dbe 6b1c a33d 1c1c 583c
00000140: 3e31 b03c 6671 a73d fd1f abbe 9ce3 debd
00000150: dc17 093e 9f4f 8a3d 8df7 133d 489b e43e
00000160: ddf4 5c3e 463c cbbc 317f 5d3d ba98 a3be
00000170: 5f1e 283e 5230 963d daa6 503d b703 c1bd
00000180: 1df7 923d 531c 5dbd 645c 573d 37a0 a9bd
00000190: 237f a1be 75a6 4a3d c510 29bd 7ea9 5b3d
000001a0: e10d 6fbe 663e e4bd 6fe0 4d3e d478 3a3e
000001b0: d12b babd 52b4 a0bc 6b9b e93e e280 b4bd
000001c0: 182c fbbd 7151 e7bc 2c15 823e ab05 21be
000001d0: 1dc2 6abd ef5a 9cbe 0d8f f23e 222f 973d
000001e0: 35f4 843d a5a2 82be c5ac 79be e22b e73d
000001f0: 7729 0ebe 028c 963e 67d3 2e3c 0555 323e
00000200: 9b3d 5ebe 065a 6abe 1193 a73c 2c52 32bd
00000210: b6ba 99bd 277a 173e 8b5f 873d 8283 dcbd
00000220: 4e8f 073f 1cd7 073e df80 dabd 46e0 23bd
00000230: 1cc2 fbbd 4711 8bbd 53b1 c83e d731 0ebe
00000240: 67c7 f8bd 4622 9b3e cc61 8dbd 65e2 3d3e
00000250: 2419 6ebe bceb c0be e8c4 b5bb 4716 55be
00000260: 8685 993c 6bdf f8bd 76c7 64be 092a 5dbd
00000270: cb40 b43b 4306 563e 6127 91bd a703 b23d
00000280: d537 5cbe 9a09 a9bc e962 b73d d3df efbc
00000290: a99a b0be 43c1 d43e 3033 d33e 9a19 babd
000002a0: 7c21 b2be 1f5c 0cbe 3618 93bc 10fc b5bd
000002b0: 3f77 ecbc 6159 da3d 783b 8c3d 9354 823e
000002c0: 4175 59bd f172 073f 4283 383e a256 0c3f
000002d0: 9740 bfbd 63b1 973e 1632 9f3e 9277 bfbe
000002e0: cbf3 c7bd 45d7 123d 093c 393d 3543 3a3e
000002f0: 9e81 713e c039 0c3e 2958 e53e b819 95bd
00000300: 4b10 cf3d 7963 f6bd eb89 ae3e fba0 42be
00000310: be41 8abe 1380 023e 22d2 00be 1497 6a3e
00000320: 5eda 243d 8624 d33d c21f f8bc cb9a 373e
00000330: 2d2f 113e 1a98 2c3e cc72 1a3e 27bf 843e
00000340: a374 47bc 6ee3 82bc 4749 87bd f77e fbbd
00000350: 0981 343e 8ee5 8fbd 9c3e d13d b697 ccbd
00000360: e443 58be 710c 00be 605a c93d c801 893e
00000370: afd3 1e3e 7bac 023e 1ad0 74be b144 1f3e
00000380: 5578 4cbd 9730 9f3e caf3 f83d 8e40 df3e
00000390: d010 cf3e 9237 fa3e f7f2 03be 2d8d b8be
000003a0: bfb1 513d 394e 203d 761e ca3e c582 5d3e
000003b0: ba57 a6bd b04b 213e b7bc 6c3e 1dbd 8a3e
000003c0: 399c b73d 3592 b6be 7ddf 713e 03d0 97bd
000003d0: a862 833b 8edd ecbe 7e3a a03e 53af c3be
000003e0: 1e94 833d 7661 43bc 215e d53c 6788 d5bd
000003f0: 809f 0e3e 63a9 cabc 1267 69be 0031 48be
0.18070748 -0.17222539 -0.2270275 -0.027485916 0.08695876 0.28329158 -0.13600826 0.17177579
0.02663685 -0.29382443 -0.057801865 0.11885579 -0.13223271 -0.08136863 0.13303655 -0.0601714
0.027995182 -0.21245839 -0.4406303 0.1586795 0.24727027 -0.24565956 -0.13068916 -0.16254471
0.16675198 0.20544764 0.07438232 0.029117225 -0.08680325 -0.06264383 -0.23148288 0.07326671
0.08609626 0.29955402 -0.12983365 -0.3111376 0.054595802 -0.038463913 -0.03385489 0.23773105
0.33301812 -0.13428594 -0.2927282 0.07141968 -0.34882954 -0.32582963 0.11746358 0.017204845
0.15821692 0.08780119 0.019348608 -0.11114641 0.06869723 0.16480863 0.22755818 0.010617081
-0.55082285 0.020179113 0.04147693 0.18279256 -0.065545134 0.16222544 -0.36574364 -0.08100673
0.22034366 -0.21309611 -0.05490807 -0.44076326 -0.10046203 0.07508821 0.06648224 0.109468535
-0.18458696 -0.15957117 0.3133967 -0.5067234 -0.27557367 -0.1694546 0.07964405 0.013190296
0.021507856 0.08175926 -0.33422843 -0.10883257 0.13388008 0.06753468 0.036124755 0.4464972
0.21577783 -0.024809014 0.054076377 -0.3195246 0.16417836 0.07333435 0.050940372 -0.09424537
0.07176039 -0.05398209 0.052578345 -0.08282512 -0.3154231 0.049475152 -0.04127576 0.053628437
-0.23345138 -0.11144714 0.20105146 0.18210155 -0.090903886 -0.019617233 0.45626387 -0.08813645
-0.122642696 -0.028237076 0.25406778 -0.15724818 -0.057314027 -0.30538127 0.47374764 0.07382037
0.06491891 -0.25514713 -0.24382313 0.11287667 -0.13883005 0.29403692 0.010670519 0.17415245
-0.21703188 -0.22885904 0.020455869 -0.043535396 -0.075063154 0.14792691 0.0661002 -0.107672706
0.5295304 0.13265651 -0.106691115 -0.040008806 -0.12292883 -0.06790405 0.39197788 -0.138862
-0.12147408 0.30299586 -0.06903419 0.18543394 -0.23251778 -0.3767985 -0.0055471547 -0.2080928
0.018740427 -0.121519886 -0.22341713 -0.053995166 0.005500888 0.20900826 -0.07087589 0.08692103
-0.21505673 -0.020634461 0.089544125 -0.029281532 -0.34492996 0.41553697 0.4124999 -0.09086914
-0.34791172 -0.13707016 -0.01795588 -0.08885968 -0.028865455 0.10661579 0.0684728 0.2545515
-0.053090338 0.5290976 0.18018821 0.5481969 -0.093384914 0.29627523 0.310929 -0.37395912
-0.09763297 0.03584983 0.04522327 0.181897 0.23584601 0.13693905 0.44793823 -0.07280296
0.101105295 -0.12030692 0.34089598 -0.19006722 -0.27003282 0.12744169 -0.1258016 0.22909194
0.040247314 0.10309701 -0.03028858 0.17930143 0.14178152 0.16854897 0.15082854 0.25927088
-0.012173804 -0.015977588 -0.066057734 -0.12280076 0.17627348 -0.07026206 0.1021702 -0.09989874
-0.21119648 -0.12504746 0.09831691 0.2675917 0.15510438 0.12761109 -0.2390751 0.15553547
-0.049919445 0.3109176 0.12155874 0.4360394 0.40442514 0.48870522 -0.12885652 -0.3604521
0.051194903 0.0391371 0.39476365 0.21631916 -0.08122201 0.15751529 0.23118864 0.27097407
0.08965344 -0.35658422 0.2362041 -0.07412722 0.0040095635 -0.46262783 0.31294626 -0.382197
0.064247355 -0.011925092 0.02604586 -0.10426407 0.13928032 -0.024738973 -0.22793224 -0.19549942

bias f4 [16]
00000000: 4de0 0c3b 7656 b13c f775 1abd c146 953d
00000010: 5421 f7bc 5ca8 57bd f474 e83a 6851 25bc
00000020: f9f6 03be 564c acbc 0791 87bc 890e 06be
00000030: 65fe 1bbd 81e6 d9bb fd37 80bd 0b15 a4be
0.0021495998 0.021647673 -0.037710156 0.07288886 -0.03016726 -0.052650794 0.001773505 -0.01009021
-0.12887181 -0.021032494 -0.016548647 -0.13091482 -0.038084406 -0.0066497927 -0.06260679 -0.32047305

weight f4 [1, 16]
00000000: 7985 04bf 9f6e 20bd 57a0 09be 77de b93d
00000010: f758 10bf 2eab cbbe acbb b73d 1f34 eb3e
00000020: 2c94 ea3d 0d4b 3a3e e44b 45be eddf cf3c
00000030: 70b6 213f df34 1a3f f736 003e c745 36be
-0.51766163 -0.039167996 -0.13440071 0.09075635 -0.5638575 -0.39779037 0.089713424 0.45938203
0.11454043 0.18192692 -0.19267231 0.02537533 0.63169 0.60236925 0.12520967 -0.17800055
