models/exp_disc.pt (torch, 19027 bytes, 9 tensors)

weight f4 [32, 2]
00000000: d0f4 553e abf4 55be 08e1 343d 5d54 033d
00000010: 048f 363e f30f bbbe 93db a7be 49b6 5bbe
00000020: 9d96 b33e 157b 6bbe aaae 2c3e d7a6 0b3e
00000030: e103 6ebe d9e9 90bd 282d c33e 77bb d53d
00000040: 1e60 5abe aa2a 3b3e 72bd 33be a6cd 923e
00000050: 620d bf3e 218e 1b3d 212b 6f3e 7b77 02be
00000060: ec81 363d 7186 093e 087f 843e 9993 56be
00000070: 2bcc ab3d c03f cc3d 1d59 bb3e 2ba1 ddbd
00000080: 471f 04be 7d8c 483e b824 e7bc 55e3 063e
00000090: 3c1d 4d3e d492 d7bb 3570 5a3e 3754 79be
000000a0: dd6a bd3c edde 5e3d b717 2ebf 0f2b 873e
000000b0: f006 943e ef87 2bbe 6f4a 4dbd 5558 3cbf
000000c0: 5020 43be 6989 8dbe 3bce 3a3e dada d73d
000000d0: b66d 3b3e ef86 f33e 7604 a4be 8ce8 afbe
000000e0: 5bbe a93e bc30 88be 8435 bc3d 286c 473e
000000f0: 8fff ab3d 1fa5 583c 54c7 2abd 748c 21be
0.2089417 -0.20894115 0.04415992 0.032062877 0.17827994 -0.36535606 -0.3278471 -0.21456255
0.35075846 -0.22996171 0.16863504 0.13637863 -0.23243667 -0.07075853 0.3812039 0.10436147
-0.21325728 0.18277994 -0.17552736 0.28672522 0.37314898 0.03797734 0.23356296 -0.1274089
0.044557497 0.13430192 0.25878167 -0.20954742 0.08388551 0.09973097 0.36591426 -0.10821756
-0.12902556 0.19584842 -0.028215751 0.13172658 0.20030683 -0.0065787826 0.21331866 -0.24348532
0.023122245 0.054411817 -0.68004936 0.2640004 0.28911543 -0.16751073 -0.050119814 -0.73572284
-0.19055295 -0.27643898 0.18242733 0.105397895 0.1830357 0.47563884 -0.32034653 -0.34357107
0.33153042 -0.2659968 0.09189895 0.19474852 0.08398353 0.013222962 -0.041694 -0.15776235

bias f4 [32]
00000000: 4e84 cbbb 48ac 013d e201 58bc f436 d3bc
00000010: 9b14 9fbc 721f a8ba 69f0 f73c f0e5 a9bc
00000020: 0fec a1bc 689e 5bbc b910 8b3d 994c 40bd
00000030: 9a87 7f3c 91b0 1a3d b449 4d3c 6ab5 93bd
00000040: 8a01 3b3b ec44 0abc 1e21 463d 693a 0abd
00000050: 27ce 293c bb23 5abd e4a6 6c3d 1122 a0bc
00000060: 9958 7ebd 3ec2 3fbd 6246 a23c 0877 19bd
00000070: 51ed 7b3c bd14 d5bc f431 1d3d fdde 1dbc
-0.0062108403 0.03165844 -0.013184043 -0.02578304 -0.019419005 -0.0012826754 0.030266004 -0.020739526
-0.019765882 -0.013404466 0.06790299 -0.04694805 0.015596295 0.037766043 0.012529779 -0.07212336
0.0028534853 -0.008439284 0.048371427 -0.03374711 0.010364092 -0.05325673 0.057776347 -0.019547494
-0.062096212 -0.046816103 0.019808952 -0.037467033 0.015376405 -0.026010865 0.038377717 -0.009635684

weight f4 [32, 32]
00000000: 9254 81bd 42d1 fd3c fc30 bcbd 4929 14be
00000010: 2799 963d ce0d 8f3d 56a0 1ebe 65bc cbbe
00000020: 9589 633e 8974 86be e44a 65be 3394 91be
00000030: 6f53 12bd 78eb 9a3d 565a 3e3e b29b 54be
00000040: 460d f2bd 0086 213c f552 a7bb b04c 55bc
00000050: 521c 093e 5f16 8bbd 38b7 e23e 6964 803e
00000060: fd25 5abd aea1 663e 51d3 43be f424 a53e
00000070: a6ee b7bd 30d9 54be 3941 b63e 570d 793e
00000080: dd8f 353e 67d0 bc3d 0b88 5b3d d78b 2fbe
00000090: 4be3 2e3d 2419 a53d 31a8 edbe a7ad a63c
000000a0: 646a 5739 db60 4f3e 0613 493e 13b9 99bc
000000b0: bb07 a63d 3f40 903c e59d 38be bc57 ab3e
000000c0: 9bf2 493d 7022 3c3e 53df 1f3e d973 a3bc
000000d0: 7fac 993e 7159 b0be 9e3c b5be 2978 353e
000000e0: 7313 073e 886d 11be 513c 43be 8c1b 16be
000000f0: f362 b5bd d1aa 09be ff30 713e ca4d 80bd
00000100: 4c58 4ebe c714 a6be c4ae 4c3e 1b81 debd
00000110: b3d4 36be c884 8c3e 0fd9 eebd 624f 3a3e
00000120: a923 92bd 0a1f 1ebd 0a1e bcbc d746 5fbe
00000130: d9ca 14be 24f7 58be 871f 62be 8f13 f1bd
00000140: 63a0 333d 4e43 023d 999f 783e 63fd 243e
00000150: da0c e5bc e549 89be 1e20 c03b dfb8 1dbe
00000160: 29d3 ccbc 1bad 30be aa3e 46bd 0d00 be3d
00000170: 219e 8f3e cb36 193d aa43 71be ae8f 46bd
00000180: 2e6d 84be a5c1 9c3d 33f1 583e 5db7 a83e
00000190: abcc 993e 0487 86be 7693 76bd 9937 1bbe
000001a0: 9d53 833d 676f 843e 530b 45be 0673 e53d
000001b0: fed8 06be a8d1 313e 7c6e 183d c445 9fbe
000001c0: 4a45 ac3d a520 943c 890a e6be 2911 16bd
000001d0: 101b b4bd e1f8 9c3e c802 85be b1b3 4fbe
000001e0: 431a 2ebe a89d 993e 0893 233e e77e 0f3e
000001f0: 0ac1 c73d 5576 5bbc ea90 eabb e8aa d93d
00000200: 85cf 1e3e f149 903d 0473 a5be 0cda ef3e
00000210: 581a 313e 69b2 3bbe 3a3b 6dbd 191c c6bb
00000220: 4790 e3bb 95bd 453e d38c 2bbe 126f ca3c
00000230: 9b93 88be 3a22 09be 7d16 9abd bedc 4abd
00000240: 2c65 053c f841 383d 04a8 2c3e 1ab4 1a3e
00000250: 2f03 083e 133d a43e aa00 6cbe ff2f a83d
00000260: 18b2 bf3c 8d40 40be 5d82 923d 4b20 62be
00000270: e747 783d 6e94 273d 2d1a 463e 981c aabd
00000280: 1dad af3e 0d0e 50be 574d d63d 6256 92be
00000290: 680a f63a 81bc bd3d 7f00 9ebe e73e 75bd
000002a0: c335 1c3e 3f7f b33e 3d8f a2be 045e 85be
000002b0: f28e c03c 530d 79be 178f 07bd 6995 523e
000002c0: 2be4 233e b33d 73bd c55c b73d 8afd 8c3e
000002d0: 0538 343e e735 0e3e 592b 7ebd 96f7 193d
000002e0: c478 723e 70bf febe ad28 7e3e 6dea 8e3e
000002f0: 544e 1e3e 4ad2 9e3d 5554 b8bc ad0f 213d
00000300: 13d9 86be fc84 983e 6ed6 d03d 5250 4c3e
00000310: 1679 c53d 4f52 b3bd 3c72 843d ee9a 2b3e
00000320: f30b a1be da72 01be a2fc 543d 5181 dd3d
00000330: 480d a2be de7a a63e 0d7e 50be 65de e73d
00000340: 630d ffbc d9b6 fa3e 2aee ad3e a082 32be
00000350: 41ea 09be 53d4 a9be 9db9 f9bd 0ded c1be
00000360: 5bb7 70bd 4e02 00be 8081 313e e740 ca3c
00000370: 9f81 29bd 3130 21bd ec56 0cbe c214 ecbd
00000380: 88eb 873e 087e adbe eedf 4abe 79d0 ca3c
00000390: 5698 163e 6cdf 1ebc 37ea 68be ea7a 973d
000003a0: 374d fa3d a255 293e 8ef8 be3c 074f 053e
000003b0: 699e 163e 2c5d 37be de23 cdbe d332 43be
000003c0: 57d0 273e 0740 c03c ee17 59be 4a12 bc3d
000003d0: 9a01 033b 2b96 30bd a766 cd3d 8634 d93d
000003e0: 3825 c7bd ef9d 3c3e 93a8 8dbd aaa5 b93e
000003f0: b618 be3e 3760 69bb 3932 2438 533f 253e
-0.06314959 0.030983571 -0.091890305 -0.14468874 0.0735343 0.06985055 -0.15490851 -0.3979217
0.22220452 -0.26260784 -0.2239185 -0.2843338 -0.0357241 0.07564443 0.18589148 -0.20762518
-0.11818938 0.009858608 -0.005106325 -0.013018772 0.1338971 -0.06791376 0.4428041 0.25076607
-0.053258885 0.22522613 -0.1912358 0.32254755 -0.089810655 -0.20785975 0.35596636 0.24321495
0.1773066 0.09219437 0.053596538 -0.17143188 0.042697232 0.08061436 -0.46417382 0.020346476
0.00020543631 0.20251791 0.19636163 -0.018765008 0.08106943 0.01760876 -0.18028982 0.33465374
0.049303632 0.18372512 0.15612535 -0.019952701 0.30014417 -0.34443238 -0.3539781 0.17721619
0.13191013 -0.14201939 -0.19065978 -0.14658946 -0.08856764 -0.13444068 0.23553847 -0.06264837
-0.2015087 -0.32437727 0.19988543 -0.10864469 -0.17854576 0.27445054 -0.116624944 0.18194345
-0.07135708 -0.03860382 -0.022963542 -0.21804367 -0.14530505 -0.21188027 -0.22082339 -0.11771309
0.04385413 0.031802468 0.24279632 0.16112284 -0.02796023 -0.2681419 0.0058632037 -0.15402554
-0.025003033 -0.17253534 -0.048399605 0.092773534 0.2805033 0.03740577 -0.23560968 -0.048476867
-0.25864547 0.07654122 0.2118576 0.32952395 0.30038962 -0.26274884 -0.060199223 -0.15157928
0.06412432 0.25866243 -0.19242601 0.112035796 -0.13168713 0.17365134 0.03721474 -0.31107914
0.08411653 0.018081972 -0.44929913 -0.03663746 -0.08794224 0.3065863 -0.25978684 -0.2028339
-0.17002206 0.30003095 0.15974057 0.14013253 0.09753616 -0.013394912 -0.0071583884 0.10628301
0.1550885 0.07045353 -0.32314312 0.46846044 0.17295206 -0.18329777 -0.05791781 -0.00604583
-0.0069446894 0.19310601 -0.16752939 0.024711166 -0.26675114 -0.13391963 -0.075238205 -0.049526922
0.008141797 0.044984788 0.16860968 0.15107766 0.13282464 0.32077846 -0.23047128 0.082122795
0.023400351 -0.18774624 0.07153771 -0.22082631 0.060615446 0.040913038 0.19345923 -0.08306235
0.34311762 -0.2031786 0.1046397 -0.2858153 0.0018771412 0.0926447 -0.30859753 -0.05987444
0.15254883 0.3505802 -0.31749907 -0.2604829 0.023505662 -0.24321489 -0.033095445 0.20564808
0.16005008 -0.059385013 0.08953241 0.27537185 0.17599495 0.1388775 -0.06205306 0.037589632
0.23678881 -0.4975543 0.24820204 0.27913228 0.15459567 0.07754953 -0.02250115 0.03932159
-0.2633749 0.2978896 0.10197149 0.19952515 0.09642236 -0.087559335 0.06467101 0.1675832
-0.3145443 -0.12641469 0.051998742 0.10815681 -0.31650758 0.32515615 -0.20360585 0.11321715
-0.031134313 0.48967627 0.33970767 -0.17432642 -0.13468267 -0.33169803 -0.12193606 -0.37876168
-0.05876861 -0.12500879 0.17334557 0.024689151 -0.041383382 -0.0393526 -0.13705033 -0.11527397
0.26546884 -0.33885217 -0.19811985 0.02475761 0.14706549 -0.009696823 -0.22745596 0.07396491
0.12221759 0.16536573 0.02331188 0.13018428 0.14708866 -0.17906636 -0.40066427 -0.19062357
0.16388069 0.02346803 -0.21200535 0.09183176 0.0019989968 -0.04311196 0.10029345 0.10605721
-0.09723896 0.18419622 -0.069169186 0.36259204 0.37128228 -0.0035610327 3.914742e-05 0.16137438

bias f4 [32]
00000000: 4535 41bc 5fa1 bcbc fce8 5f3d 4749 14bd
00000010: 4060 e33c f60d 70bc 7821 b13b 09e0 3fbc
00000020: 4058 90bc 9b61 58bb 85d0 04bd 69a6 5bbd
00000030: 8326 efbb 7d7f 12bc 78b1 d13c 8c43 44bc
00000040: 895a c13c 766c 3ebd f881 f23b 227b 6cbc
00000050: 2049 293c 9fb6 9abc 2252 89bc 35e6 2bbb
00000060: 6bf8 94bc 86b4 0b3c cead 853c 045b a4bb
00000070: 4487 81bd 5da9 9cbc 4e44 bdbc 30f8 fbbc
-0.011792486 -0.023026166 0.05466555 -0.036202695 0.027755857 -0.014651766 0.005405601 -0.011711129
-0.017620206 -0.0033017162 -0.032425422 -0.053625498 -0.007298292 -0.008941528 0.025597319 -0.011978995
0.02360274 -0.046490155 0.0074007474 -0.014433654 0.010332376 -0.018885909 -0.016762797 -0.0026229743
-0.018184861 0.008526927 0.016318228 -0.0050157327 -0.06324628 -0.019123727 -0.02310386 -0.030757993

weight f4 [32, 32]
00000000: 9468 b03d 6e83 073e fc2c b13d a8ad aa3b
00000010: 2be7 f6bc ad92 92bc 3172 ff3a defa 1a3e
00000020: cb0b 6fbd 2017 793e 1ed7 5bbe 2cec 5dbe
00000030: b303 19be 558e b3be a8b6 0cbe a797 d9bd
00000040: 7f54 313c ec94 57bb f56d 073e 5e73 90be
00000050: 15bb 95bd 429b 44be 9f08 23bc 8f8b cfbd
00000060: df0b 713e 02b4 35be 10da 1bbe c581 43be
00000070: cd60 343e 9cc2 a73e b7ec 9e3e 2bf6 823b
00000080: 438d 61bc 2b89 7d3d 762b 993e 7dac 973d
00000090: 9f66 e5bc 1489 1fbe 3904 363e 0272 81bd
000000a0: b56c 703d 71b0 173e 4d29 8b3e 07ec 3e3e
000000b0: 9c09 9bbd 5943 14bd 80cd 613d 11ec 4cbe
000000c0: 4605 903d 9e4b 353e e3eb 393e 14bb 393c
000000d0: a92e f1bd 35d6 2a3e 77eb 0a3e 1419 823e
000000e0: c41b 3c3e a4ac a1bd 0411 c8bd d689 f13c
000000f0: c656 943d 47b9 64bd c5c1 03bd 0392 65be
00000100: 4be4 213e 32b0 123e 3d8d 00be 1518 49bd
00000110: 62da 25be 2784 cabb 55c4 46bd 2b16 ecbd
00000120: 4cc0 023e 8556 8e3e 6ac4 9fbe 5969 c6bd
00000130: 4d7b 063e fa28 2fbe 1091 cf3d f67d 473d
00000140: da70 2c3e 5416 ab3d cf10 47bd e89a 6dbd
00000150: a389 a23d 345f 1c3d 89ed efbc 86ab f53c
00000160: 2a6a e83d 3188 b23d 398e 3fbc 2b50 40be
00000170: 12dc d6bc 0330 833e 9352 da3c 8c8e 50bd
00000180: 5585 c23d c322 9a3c 09ff 3abe c173 bc3e
00000190: 50c7 bb3d a75d 9fbe feec f43d 0297 183d
000001a0: e728 f93d e794 fdbc 1121 51be 6990 3ebd
000001b0: 365d 953d f5d5 933e 7a7f 1d3e ecc0 2f3d
000001c0: 8913 92bd 63b2 36be d07a 303d 3f36 443e
000001d0: d552 3cbe 6485 923e b2ab cc3d 00d4 6cbd
000001e0: 0f7d 96be d6a0 55be d0cb 463d 311b e63d
000001f0: 8083 31bc ee77 b93d feab 313d 9484 86be
00000200: ef12 6d3d 604f 8cbd 0059 3f3d cfbd a33d
00000210: 3258 72be 9bcc 6c3e a75f 7dbe 9ff0 84bd
00000220: 4cd8 1f3e dd22 2dbe d596 c1be 0af5 f13c
00000230: 643e 55bd add3 56bd 3c93 5ebe e0da 323e
00000240: adac 33bd 1df0 f1be 5107 9b3d b4d5 d5bd
00000250: d7aa 4c3d b2b4 35be a2a8 f1bd ebaf 07be
00000260: 45db 19be d64c 19bd 67ea bc3d 319f a43e
00000270: 1a4d 8dbc 527a 0ebe 19e5 563e e08d d13e
00000280: ca84 02bd 2a84 d33c d980 983e 854a cebd
00000290: 7bbc 9ebe 8e0a ec3d b7b9 7abe 48de d3be
000002a0: 9d4c 26be 5021 483e 178a d13e dc5c f93d
000002b0: 6467 873d 8c3e 55be fbe1 ccbe 0a0e 0cbd
000002c0: fcfd 20bc ebc7 093e bc3b 1bbe d70c 3f3d
000002d0: b2b7 14be 087c 913d 1ed7 9a3c 8523 913d
000002e0: 620c 933d bdde eebd d41c 42bb 51e3 043f
000002f0: 4973 5bbe 700b 993e 98de 823e a70e aabe
00000300: 3db1 5ebe ca3a 05be b284 0d3e 10a3 073e
00000310: cdc8 7c3e c20e a7bd acbc 0dbe 4a29 63bd
00000320: 8486 ad3d bcd9 053d d6c1 0e3e dd4b 3d3e
00000330: fe3a 4d3d 5b0d cf3d a48b 873d e561 7bbd
00000340: 7487 553d bf69 66be c686 dcbd 20da b63d
00000350: 93b8 e13d 3310 d3bd 44e6 b63d 1cae 44be
00000360: 1c09 7dbe b6c4 913d 34b6 d53c c46d cf3d
00000370: 085f 25be afbf 863e c06f ab3d 74df b0bc
00000380: c7cb b7bd d6db 213e e327 f83e 9f4b 2fbd
00000390: 4b0e 223e 6cd8 66be 13ec 65bc 97a0 d5bd
000003a0: 8a2b 2b3e edc7 1e3d cf74 36be 1932 7f3e
000003b0: c5c5 9a3e 98a6 4bbd 261c a7be eb34 c43c
000003c0: ef6c 27be 82dd dcbd 12bb 22bd dadf ab3b
000003d0: 219a edbc 041d edbc 526a f4bd 94c5 703d
000003e0: ad75 0b3e 4854 c7be 1aa2 a3bd 6270 b7bd
000003f0: 326c 283d f10c 783e 6e42 56bc 5251 22bd
0.08613697 0.1323373 0.08651158 0.0052086897 -0.030139526 -0.017892206 0.0019488988 0.1513476
-0.058360856 0.24325228 -0.2146878 -0.21672124 -0.14942817 -0.35069528 -0.13741553 -0.106246285
0.010823368 -0.003289516 0.13225539 -0.28213018 -0.07311074 -0.19199851 -0.009950786 -0.101340406
0.23539685 -0.17744449 -0.15219903 -0.19092472 0.17615052 0.32765663 0.31039974 0.0039966307
-0.01376659 0.06189839 0.2991597 0.074059464 -0.028003035 -0.15579635 0.17775048 -0.063205734
0.05869742 0.14813401 0.27179947 0.18644725 -0.07570192 -0.03619704 0.05512762 -0.20011927
0.07032256 0.17704627 0.1815639 0.011336107 -0.11776478 0.16683276 0.13566385 0.25409758
0.18369967 -0.07894257 -0.097688705 0.02948467 0.07243113 -0.055840757 -0.032167215 -0.2241898
0.15809743 0.14325026 -0.12553878 -0.049095232 -0.16196588 -0.0061803046 -0.04852708 -0.11527666
0.12768668 0.27800384 -0.3120454 -0.09688062 0.13132973 -0.17105475 0.1013509 0.04870411
0.16839924 0.08353868 -0.048600014 -0.05800906 0.07936408 0.03817673 -0.02928807 0.029989015
0.11348374 0.08717383 -0.011691623 -0.18780582 -0.026227985 0.25622568 0.026650703 -0.050917193
0.09498087 0.018815404 -0.1826135 0.36807063 0.09168875 -0.3112614 0.11959265 0.037253387
0.12166005 -0.030954791 -0.2042277 -0.04652444 0.07293169 0.28874174 0.1538066 0.042908594
-0.07132632 -0.17841487 0.043085873 0.19161318 -0.18390973 0.28617394 0.09993686 -0.057819366
-0.29392287 -0.20862135 0.048534214 0.11235655 -0.010834575 0.09056078 0.043376915 -0.26273024
0.057879385 -0.06851077 0.046715736 0.079951875 -0.23666456 0.23124926 -0.2474352 -0.06491207
0.15609854 -0.1690783 -0.37810388 0.029535789 -0.052061453 -0.052447964 -0.21735853 0.17466307
-0.04386585 -0.47253504 0.07569755 -0.10441151 0.049967613 -0.17744711 -0.11799742 -0.13250701
-0.15025051 -0.037426792 0.09224396 0.32152703 -0.017248679 -0.13913849 0.20985831 0.40928555
-0.03186492 0.025819857 0.29785803 -0.10072807 -0.31003174 0.11525451 -0.24484907 -0.41380525
-0.16240163 0.19543958 0.40925667 0.12175915 0.06611517 -0.20824641 -0.4001616 -0.034193076
-0.00982618 0.13455169 -0.15159506 0.046643104 -0.14523199 0.07103735 0.018901404 0.07086853
0.07180096 -0.11663578 -0.0029619234 0.5190936 -0.21430697 0.2989154 0.2556045 -0.33214304
-0.21747299 -0.13010707 0.1382015 0.13245797 0.24685974 -0.08157112 -0.13841504 -0.0554593
0.084729224 0.03267835 0.1394113 0.18485971 0.050105087 0.10109969 0.06618431 -0.061372656
0.05213113 -0.22501276 -0.107678935 0.08928323 0.11021533 -0.10305824 0.089306384 -0.19207042
-0.24710506 0.07117598 0.026087858 0.10128358 -0.16149533 0.26318118 0.08370924 -0.021590926
-0.08974414 0.15806517 0.4846793 -0.042796727 0.15825765 -0.22543496 -0.014033335 -0.10431021
0.16715828 0.038764883 -0.17817996 0.24921454 0.3022901 -0.049719423 -0.32638663 0.023951015
-0.16350149 -0.10784437 -0.039729185 0.005245191 -0.029004158 -0.0289445 -0.119343415 0.058782175
0.13619108 -0.3893149 -0.07989903 -0.08956982 0.041118808 0.24223687 -0.0130773615 -0.039628334

bias f4 [32]
00000000: 3d53 983b 6f8b 933c 8637 8dbc ae36 a83c
00000010: 4730 0a3d 0952 d93c e650 f23b 1316 36bc
00000020: 579f 89bc 1bff 14bd 7e84 3c3d ae8c 29bd
00000030: 92f9 9dbd fca2 1f3d 06b2 f63b 9b46 77bc
00000040: 6f8f feba 5b8a 0ebc 280c 183d 1858 9bb9
00000050: 7997 293b 0a3f b2bc f72d 03bd f880 a53c
00000060: 40c6 1bbd bc0e 1d3b 29c1 e03c 294c 97ba
00000070: 1f91 98bc 13c0 383c 3053 b8bc d46f efba
0.0046485947 0.018010823 -0.01723839 0.020533886 0.033737447 0.026528375 0.0073948978 -0.011113661
-0.016799612 -0.0363761 0.046024792 -0.04139393 -0.077136174 0.038973793 0.0075285463 -0.015092517
-0.0019421409 -0.008699979 0.037120968 -0.0002962954 0.0025877638 -0.021758575 -0.032026257 0.020203099
-0.038030863 0.0023965081 0.027435856 -0.0011543083 -0.018623887 0.011276263 -0.022500604 -0.001826758

weight f4 [32, 32]
00000000: 3500 a43d 8907 3cbe 54cf 42bc af31 23be
00000010: eb69 ddbe aa0b 85bd e54c c83e 53e4 27be
00000020: 7bc8 82bd d3db 3a3e d27d 973c 3933 42be
00000030: 05a0 fcbd 63d3 253c 18e8 b6bd 1c8b 93be
00000040: ea2f 673d 0e7a fabd 340c 92be fe43 2bbe
00000050: 9896 873d 7858 59be c212 1dbe 41d5 4bbe
00000060: 59c9 7b3c f6f7 7c3d 2c40 073e 48ea 253e
00000070: f8ce f4b9 ee26 0c3b 9af8 b43d 9e12 1ebc
00000080: 9e5f ef3a c85c 6b3d c9ad c33c f67e 423e
00000090: 350c 86bd d893 2e3e f387 9b3d c92c de3a
000000a0: 172f a2be edc6 08be 730b 91bd f7b7 18be
000000b0: b986 1abe a037 5a3a 4313 5d3e 9532 12be
000000c0: 8c42 4d3e a6eb 053e a431 91be db0f 59bd
000000d0: c97a 233d 3538 ec3c 6150 18be 8e2e 633e
000000e0: 4b3b 97be dace e1bd cfe1 d93c 89d6 b0be
000000f0: c0b1 23be b52d 803e 110d 3d3d 46d4 5bbd
00000100: 6e96 9f3d cac9 a83d 7604 10be bc0b 34be
00000110: e590 d9bd 5ad7 703e 45a9 463e 10fd eb3e
00000120: 6c2d 1fbb 7753 1e3e b771 2cbd 8c92 04be
00000130: 7a09 863c 7b47 ecbd ace4 5abe 6788 4c3e
00000140: 5e55 91be 47b5 dfbd 7dc1 27be 08ad 30be
00000150: 1eed 893d a60c 92bd 37d3 b6be ee33 c13d
00000160: b954 d73d f5ab f43d 3dc2 96bd ac52 893e
00000170: f259 ecbd 4aa2 42be 9573 b3bd 8b2b 93bd
00000180: 1d22 943e 1383 643e 68a2 2d3e bd7f 9abd
00000190: e6d1 ac3d 3ea7 073e 5eab 583e 9358 203e
000001a0: ccb6 9abe cb81 abbd bb76 343e e5cf a1bc
000001b0: 9ee4 a3bc 8e2c 833c a2f5 443e 6c22 9a3e
000001c0: 5425 073d c8d8 4cbe 86da 8e3e c4f2 4a3e
000001d0: ff78 373e d572 653e e47d b73d f524 09be
000001e0: 1798 3a3e 9e0e 1c3d 417c 82bd 60d5 883c
000001f0: 98b3 fd3c ea89 bbbd bc47 4bbe 8cfa 533d
00000200: b8c8 233e 39fc 063d 0a82 ccbe fe5c 9ebd
00000210: eca1 41be 21ed 58bd 3712 2abe 76a3 1d3e
00000220: 2135 05be c274 8fbe ed89 7f3d 6cee c6bd
00000230: 353f 81be 3d5c 41be e9c6 d83d 307d db3c
00000240: 157d a5bc e79b 7c3e 5aee 84bd f56a a1bd
00000250: 90c4 c8be 1e2c b13c 3d1c 96bb e71d 093e
00000260: e163 123e 99d3 973d 8ae0 93be e1f5 733c
00000270: 5966 81be 762c 88bd 7e0f cb3d f5e7 f4bb
00000280: 4778 85be 357d c83e 4bd1 933d e69b 7fbd
00000290: b4cf ab3d 59ee 41be 2fbd 763d 0fa5 27be
000002a0: 82d0 d93d 69ed f5bc 514c 9039 0fa5 a5bc
000002b0: d621 413e 3ef1 cabd f69b 4ebe 6b8d 0c3e
000002c0: ae8e a7be dcbe 1cbc 8904 c93d 6367 743e
000002d0: 7db0 cc3c d58b c3bc 3abc dbbd 0574 203c
000002e0: a5e3 9dbe 63b2 ff3b e6fd 493e 6dfb df3e
000002f0: d6bd a93e 9d1e 333e 17fe af3e 800d 573e
00000300: 8b37 3e3e 4ad7 853d f95f 75bd 9e21 edbd
00000310: 02c6 afbd ad92 803e 318c 32bd 7429 c93e
00000320: 5c55 7bbd d808 9bbe 50d0 c4bd 119a 5cbe
00000330: a6a5 143e ab86 993e 137b 88bd 1bcb 19be
00000340: 4166 9bbe 5d9b a9bd a81c 873e 0102 453c
00000350: 450a c1be c490 983e 3f76 9dbe 9def 4f3e
00000360: 8ea1 e4bd 9900 663e 2b32 44be ae67 29be
00000370: b5a6 2d3e 0b64 223d 559b 18bd 1908 1abf
00000380: 6500 853d 2b4c b5be 1eef 9fbb 7add 6dbe
00000390: 3ab1 90be 9723 883d 3a39 bf3e 559b ea3d
000003a0: 2780 1abd 88ae 523e 6778 ffbd 378f 373e
000003b0: fa6e 023e 0895 483d 142b 9dbd 044c 42bd
000003c0: 91c8 cc3d 591b 11be eac3 063e 5e7d 353e
000003d0: 2fd1 b6bb a8c5 7aba 9619 623c 2ad5 9ebd
000003e0: c46c 113e ee4e 6d3e b301 8fbd 0aec 0fbe
000003f0: a494 94be 17fe fe3d eba7 6b3d 959e c1bc
0.08007852 -0.1836225 -0.011890251 -0.15936922 -0.43244871 -0.06496365 0.39121166 -0.16395693
-0.06385895 0.18247919 0.018492613 -0.18964852 -0.12335209 0.010121199 -0.08930987 -0.2881707
0.05644218 -0.12230311 -0.28524935 -0.16725156 0.0662052 -0.21225154 -0.15339187 -0.19905569
0.015367829 0.06175991 0.13208073 0.16202652 -0.0004669351 0.0021385509 0.088364795 -0.009647993
0.0018262749 0.05746153 0.023886578 0.18993744 -0.06545297 0.17048585 0.0759429 0.0016950603
-0.31676552 -0.13357134 -0.07082262 -0.14913927 -0.15090455 0.0008324329 0.21589379 -0.14277108
0.20044917 0.13078174 -0.28358185 -0.052993637 0.03991202 0.028835395 -0.14874412 0.22185728
-0.29537424 -0.11025782 0.026596932 -0.34538677 -0.15985775 0.25034872 0.04615504 -0.053669237
0.07792364 0.08241613 -0.14064202 -0.17582601 -0.106233396 0.2351965 0.19400509 0.4609151
-0.0024288548 0.15461527 -0.042100634 -0.12946528 0.01636194 -0.11537071 -0.21376294 0.19973908
-0.28385442 -0.10923248 -0.16382404 -0.17253506 0.0673468 -0.07131319 -0.3570802 0.09433733
0.105142064 0.11946861 -0.07361267 0.26820886 -0.11540593 -0.19007221 -0.0876228 -0.071860395
0.28932276 0.22315626 0.16956484 -0.075438954 0.084384724 0.13247392 0.21159121 0.15658788
-0.30217588 -0.083743654 0.17623417 -0.019752452 -0.020006474 0.016012456 0.19234326 0.30104387
0.032994583 -0.2000457 0.27901095 0.1981917 0.1791725 0.22407086 0.089595586 -0.13393004
0.1822208 0.038099878 -0.06371356 0.016703308 0.030969426 -0.091571644 -0.19851583 0.051752612
0.15994537 0.032955382 -0.39942962 -0.077325806 -0.18909425 -0.05296052 -0.16608511 0.15394387
-0.13008548 -0.28018767 0.062387396 -0.09713444 -0.25243536 -0.18882842 0.10584814 0.026793092
-0.020201245 0.24668847 -0.064907745 -0.078817286 -0.39212465 0.021627482 -0.004581003 0.13390313
0.14295913 0.07413406 -0.28882247 0.014890165 -0.25273398 -0.06649105 0.09915064 -0.0074739405
-0.26068327 0.39158025 0.07217654 -0.062404536 0.083892256 -0.18938579 0.060239013 -0.16371559
0.10635473 -0.030020433 0.0002752268 -0.020220308 0.18860564 -0.099092945 -0.20176682 0.13725822
-0.32726043 -0.009566989 0.09815318 0.23867564 0.0249865 -0.023870388 -0.10729261 0.009793286
-0.30837741 0.007803248 0.19725761 0.4374651 0.33152646 0.17492147 0.34373543 0.21001244
0.18575875 0.06535204 -0.05990598 -0.115786776 -0.08582689 0.25111905 -0.04359073 0.3928944
-0.061360702 -0.30280185 -0.09610045 -0.21543147 0.14516315 0.29985556 -0.066640995 -0.15018885
-0.3035145 -0.08281586 0.2638905 0.012024404 -0.37703148 0.29797947 -0.30754277 0.20306249
-0.111636266 0.22461165 -0.19159763 -0.16543457 0.16958125 0.03964619 -0.03725751 -0.60168606
0.06494216 -0.35409674 -0.0048808 -0.23229018 -0.28260213 0.06647413 0.37348348 0.114554085
-0.03771987 0.20574391 -0.12474137 0.17925726 0.12737647 0.048970252 -0.07674232 -0.047435775
0.099991925 -0.14170589 0.13160673 0.17723605 -0.005579136 -0.0009566196 0.0138000455 -0.077555016
0.14201647 0.2317464 -0.06982746 -0.14054886 -0.29019654 0.124508075 0.057533186 -0.023635188

bias f4 [32]
00000000: 8d6b 38bb a1fb c23c f5eb 7c3b 4fb1 fabb
00000010: 1a7f 023c 4424 f33c 74e5 02bd 1646 8d3c
00000020: 882a 623c 8e14 533c 5db4 2f3d 2a90 953c
00000030: 560e c33c f0e1 94bb 4a11 8dbc fd73 713b
00000040: 6e56 413c fca2 76bb 12d5 41bc c5b6 cfbb
00000050: f79e 513b 5d03 a83c ccac 0d3c d23e 90bc
00000060: 7a07 13bd 67d1 60bc 11d7 983c 0850 9bbd
00000070: 2661 7abc e3b1 153c 7ffd a3b9 fbc0 1ebd
-0.0028140277 0.023801627 0.003859279 -0.0076505314 0.007964874 0.029680379 -0.031957105 0.017245334
0.013804086 0.012883319 0.042896617 0.01825722 0.023810547 -0.0045435354 -0.017220158 0.0036842816
0.011800392 -0.0037633767 -0.011830585 -0.0063389265 0.003198562 0.020509416 0.008647155 -0.01760808
-0.035895802 -0.0137218 0.01865724 -0.07583624 -0.015281951 0.00913665 -0.00031278652 -0.03875826

weight f4 [1, 32]
00000000: 6190 7bbe c186 6fbe 27bf 0a3e f698 d0be
00000010: ccf9 2b3e f876 79bd c5c1 a3bd d91a b23d
00000020: 6bec d93a 81f5 663c f35b 55bd 15ee b93c
00000030: b39c b8be 057b aebd 824b b7bd 1ba0 73be
00000040: 356c a83d 5be4 debd 1dfb b8bd 249f bdbd
00000050: 0531 64bc 59ea a43e eb62 b2bc 8fe8 d0bb
00000060: 14c2 98bc e057 6dbe ffcd 8f3d 09d1 a83c
00000070: f4ee 35bd 2c26 c43c c6c2 81be 6b7d 8a3e
-0.24566795 -0.23391248 0.13549481 -0.407417 0.16794509 -0.060904473 -0.07995943 0.08696527
0.0016626244 0.014096619 -0.052089643 0.022696534 -0.36057052 -0.08519558 -0.08949949 -0.23791544
0.08223764 -0.10883399 -0.09032271 -0.09258869 -0.013927703 0.32210043 -0.021775683 -0.0063753794
-0.018647231 -0.23178053 0.070217125 0.020607488 -0.044417337 0.023943983 -0.25343913 0.2704881
