models/exp_disc.pt (torch, 13913 bytes, 7 tensors)

weight f4 [32, 2]
00000000: 09f3 ec3e 3a6e f9be 9eb9 1e3e 67c3 b03e
00000010: 1720 3d3e c64b 883e c75d efbe c149 63be
00000020: 9bb9 513e c220 d1bd e6ab 44bd bf84 b23d
00000030: 6c22 18be 0e32 ccbe 623c 7f3e 418d 183e
00000040: 1092 09be b1a3 c83e c564 4c3e cb86 15be
00000050: 7bf4 efbe a7fb 0fbf eb01 b2be 8c16 dbbd
00000060: 9019 1b3e e213 bd3e 03b0 763e a413 36be
00000070: 0fa7 423e 0594 01bf 4cda 9fbe 2452 7e3d
00000080: 85db 46be 6443 8cbd 87dd b5be 2b1a 0d3e
00000090: b652 ca3e d53f 653e edfa 8f3e 1d00 49be
000000a0: 9297 8d3e c88c 813e dd74 85be b181 733e
000000b0: 7bcc 9d3e b16e dabd 067f fe3c 1f32 393e
000000c0: 59b0 46be 62db d2bd 1ac1 5bbe 00a4 803e
000000d0: fb4c b2be 1f00 2bbe a04c c53e aa91 c23d
000000e0: 853f 893e ff04 5b3e d27d 02be 1c40 5e3e
000000f0: f4bb 12bc dbd6 183d 998f dabd 207b 023d
0.4627917 -0.4871691 0.15500495 0.3452408 0.18469273 0.2662031 -0.46751234 -0.22196104
0.20480959 -0.10211326 -0.048015498 0.087167256 -0.14856881 -0.3988194 0.24925378 0.14897634
-0.13434625 0.39187387 0.19960316 -0.146022 -0.4686621 -0.56243366 -0.34767088 -0.1069766
0.1514647 0.36929232 0.2409058 -0.1778093 0.1900904 -0.50616485 -0.31221235 0.062090054
-0.19419678 -0.06848791 -0.35520574 0.13779514 0.39516228 0.22387631 0.2812113 -0.1962895
0.276547 0.2530272 -0.26065722 0.23779942 0.3082007 -0.10665644 0.031066429 0.18085526
-0.19403209 -0.1029575 -0.21460381 0.25125122 -0.34824356 -0.16699265 0.38535023 0.095004395
0.26806274 0.21388625 -0.12743309 0.21704143 -0.008955944 0.037314277 -0.1067192 0.031855702

bias f4 [32]
00000000: 6044 703c 68f5 9e3d 65c6 0c3d 0734 10bc
00000010: b91a debc 64d1 903d 7fbb 3cbc 8850 a03d
00000020: d002 50bd ef28 4a3e 276f 19bd ad59 0fbd
00000030: 9a09 f03d 4b0f dcbd 8195 b73c 405c c73c
00000040: 7a31 d1bb 7051 50bd 87a6 cabc 8143 12bd
00000050: 5a69 493c bc4d 2fbc 2da4 cebb db44 2a3d
00000060: c8b7 d8bb 9e5c d83b 8720 3bbd 4179 a0bc
00000070: 38eb 2fbd 2ebc 1dbd 244d d43b 2dd4 c53c
0.014664739 0.07761651 0.03436889 -0.008801467 -0.027112352 0.07071188 -0.011519312 0.0782786
-0.050783932 0.19742177 -0.03745952 -0.03499763 0.11720581 -0.107451044 0.022410156 0.02433598
-0.006384072 -0.050858915 -0.02473761 -0.035708908 0.012293184 -0.010699686 -0.0063061924 0.041569572
-0.0066137053 0.0066028377 -0.045685317 -0.019589068 -0.04294893 -0.03850954 0.0064789224 0.024149025

weight f4 [32, 32]
00000000: 741e 0f3c 6397 35be 9e98 853e 009d 0d3d
00000010: 4c5c 853d 8abd 56be 34a5 9b3c f544 53be
00000020: c715 973d 7eae 3bbd eb12 353e 048a 75bd
00000030: 3ee3 aa3e ebf7 3dbd 48b4 c93d a57e 3fbe
00000040: bf4a 90bd 1b14 8b3e add9 8abe 5671 1dbe
00000050: 2d1e b23d 8ed7 a1be 445b cdbc 7e54 2f3e
00000060: 8285 5cbd 66e3 24be 1388 c4be d165 2f3e
00000070: e199 ca3c e8de 9b3c c6b9 983e 4965 4abe
00000080: b8d1 a5be ef3c f9bd 7e72 93bd 622d 0b3e
00000090: b2d2 543d af37 293e 461e 24be 9090 2fbe
000000a0: 8aab 693d e4f0 e5be 6a6d 19bc ba64 063e
000000b0: bcf9 33bd f226 133e bf46 9b3d 7203 3dba
000000c0: aa10 5cbe 21f2 20be 8cca 00be fa3a 873c
000000d0: b80c 41be 20e7 b1be 41a7 80be da1f 4abd
000000e0: 36ab 79bc a3a7 c13e 040f 8f3c bae8 29be
000000f0: 2a6e c1bd bfeb 9c3d afc1 6cbe 2409 023c
00000100: e7ce 5ebe 685a 43bd a37c 82be 96a8 d73b
00000110: ad52 c3be 07bb e2bd 70ba 853d 6bc4 733d
00000120: 6949 033e dcb5 613e 069e 503e 49c4 483d
00000130: 7b49 213e e83c f4bd c34a c53e e75c 3fbe
00000140: 4a96 813d 3517 4abe 8239 dbbe 1977 0c3e
00000150: 5a57 2cbe 2ef4 673c ec20 9ebc 1a0a 57bd
00000160: 3881 20bf 3393 41be ac9b 77be 018e ffbd
00000170: c1d3 1bbe cb8b 573d 6c7a 4d3e a9bc 42be
00000180: 3234 443c 8e0a 4a3e 9dc9 b83e 5ba0 59be
00000190: ecee 5bbd d3fd 6cbd eef2 073e f37d c7be
000001a0: 45b3 17be 4789 523e 6e5f 3a3e a0df d63d
000001b0: c98c 833e 9cc4 8e3c 081f 46be 288b 973e
000001c0: d2b4 973e af4d 15bd 35b9 a9bc 97df c43e
000001d0: f943 3abd 8ba6 bb3d 4a7f e83e 7e6d 25bd
000001e0: d1a6 633d 2b86 11bf 86ae ad3d f566 adbd
000001f0: 8c42 80be b700 33bd 9483 81bd 31fb 26be
00000200: b963 2fbe 21e3 923c 2612 97be 492f 85bd
00000210: 9bd5 8ebc 7390 8dbe 8140 233d e6db be3a
00000220: 89e3 b43e 0c34 f23d a489 833e 2c21 21be
00000230: 8080 32be bd77 e23d df55 4e3c 0386 0d3d
00000240: 04fa a13e bb35 153e 7b29 c83d c864 463e
00000250: ba80 2b3e 3a0f 93bc 8e71 15be 97b0 4e3d
00000260: d36a 8538 128c 6cbd 19c5 a1be 1366 443e
00000270: c94a 98bd 52eb a9bd cfe9 09be b801 363e
00000280: 69e1 d4bd 2892 5b3e 1836 233d c259 0e3d
00000290: 4899 84be 163e 54be e1a5 5abe 58c4 51be
000002a0: fc9d 0dbd 0aa9 013e 0004 bb3e 6fa8 bc3d
000002b0: 4780 303d 0ec0 61bc f864 91be 4163 98bc
000002c0: e98b ecbc 1369 023e 4e69 e1bd 964f 21be
000002d0: ed2d 993d ba2b bb3d 0567 d03d 716a 90bd
000002e0: 1224 cfbe abdf acbe cdea aebd 71db 7dbd
000002f0: 6890 463e ee48 9bbe 8289 c6bd 3fe0 203c
00000300: 9f19 aabd 133d 53be 20ce 9ebd cb51 d2bc
00000310: 8476 fbbd 8735 0abe e29c ef3d 1c6d ce3d
00000320: 6db8 0dbd ef7a aebc 8f33 2b3d fe99 11be
00000330: 55a2 82bb bb1e 113d df2d 863c 5a80 a9bd
00000340: 9b9c e23d e38b 90bd 44dd 513d 5940 9c3d
00000350: b240 a4be 9502 a23c 098b a7bd c331 84bd
00000360: e4b6 2f3e fab7 af3d 8c3d 103e 5a28 c1bd
00000370: 2a2a 76bd e701 d03e f282 833e 1b96 5f3e
00000380: 2a97 43be a296 31be 58f4 013e 0320 8c3e
00000390: 4bd2 78be 9ad9 743e 7bd2 27be 01a7 443d
000003a0: 6ace 6ebe e65a 09be 4c14 9fbd 7197 a03c
000003b0: bdbc 9b3e 5403 643c 18d0 dcbd f5c2 783d
000003c0: 1949 893e f23e 18be e96a f1bc d8ec c53e
000003d0: 0c32 de3d be23 84be 3d8d 7ebe 720e 0bbe
000003e0: f86c 6c3c 64c9 273d de45 fc3d 9784 e0be
000003f0: 20d1 b2be 37f5 0abe bc12 90be b881 893e
0.008735288 -0.1773353 0.26093 0.034573555 0.06511745 -0.20970741 0.018999673 -0.20631774
0.073772006 -0.045820706 0.17682998 -0.059946075 0.33376497 -0.04637901 0.09848839 -0.18700655
-0.07045507 0.27163777 -0.27119198 -0.15375265 0.08697162 -0.31609768 -0.025067933 0.17122075
-0.05383826 -0.1610237 -0.38385066 0.17128684 0.024731578 0.019027188 0.29829234 -0.197652
-0.32386565 -0.12169825 -0.07199572 0.13591531 0.051958747 0.16525148 -0.16027173 -0.1714499
0.057048358 -0.44910347 -0.009364465 0.13124362 -0.043939337 0.14370325 0.07581853 -0.0007210291
-0.21490732 -0.15717365 -0.12577266 0.016507614 -0.18852508 -0.34746647 -0.25127605 -0.049346782
-0.015238574 0.3782321 0.017463215 -0.16592684 -0.0944484 0.076621525 -0.2312076 0.00793675
-0.21758614 -0.04769364 -0.25485715 0.0065813763 -0.38149014 -0.11070829 0.06529701 0.05951349
0.12820973 0.2204203 0.20372781 0.049015317 0.15750687 -0.119256794 0.385336 -0.18687783
0.063274935 -0.19735415 -0.42817312 0.13717307 -0.16830197 0.014157338 -0.019302808 -0.052499868
-0.6269717 -0.18903808 -0.24180478 -0.12478257 -0.15217496 0.05262355 0.20066231 -0.1901728
0.011975335 0.19730589 0.3609132 -0.21252577 -0.05369465 -0.057859253 0.13276264 -0.3896328
-0.1481448 0.2056018 0.18200466 0.10491872 0.25693348 0.017427735 -0.19347775 0.29598355
0.29630142 -0.036451038 -0.020718196 0.38451836 -0.04547498 0.09162625 0.45409614 -0.040387623
0.05557901 -0.5684535 0.08480553 -0.08466903 -0.2505077 -0.043701854 -0.06323925 -0.1630676
-0.17127885 0.01793057 -0.29506034 -0.065031596 -0.01743584 -0.27649269 0.039856438 0.0014561384
0.35329846 0.118263334 0.2569095 -0.1573531 -0.17431831 0.110579945 0.012593715 0.03455163
0.3163606 0.14571278 0.09773537 0.19374382 0.16748324 -0.017951597 -0.14594099 0.050461378
6.361832e-05 -0.05775077 -0.31595686 0.19179563 -0.07436139 -0.08296837 -0.13468097 0.17774093
-0.10394556 0.21442473 0.03984651 0.03475357 -0.25898194 -0.20726809 -0.2135234 -0.20485055
-0.034574494 0.1266214 0.3652649 0.09211814 0.043091085 -0.0137787 -0.28397346 -0.018602015
-0.028875308 0.12735395 -0.110064134 -0.15753016 0.07479463 0.091391996 0.101758994 -0.07051552
-0.40457207 -0.33764395 -0.085408784 -0.061976854 0.19391024 -0.30329078 -0.09694196 0.009819089
-0.08305668 -0.20628767 -0.07754159 -0.025673768 -0.122784644 -0.13496982 0.11699845 0.10079405
-0.03459971 -0.021298854 0.041797217 -0.142189 -0.0039866366 0.035429697 0.016379295 -0.08276434
0.110650264 -0.07057931 0.051236406 0.07629461 -0.3208061 0.019776622 -0.08180816 -0.06454804
0.17159611 0.085800126 0.14085978 -0.094315246 -0.060098805 0.4062645 0.2568584 0.21834604
-0.19100633 -0.17342618 0.12690866 0.27368173 -0.2429897 0.23911133 -0.16388886 0.04801083
-0.23320928 -0.13413581 -0.07767543 0.019603463 0.30417433 0.013916809 -0.10781878 0.0607328
0.26813582 -0.14867762 -0.029469924 0.3865726 0.108493894 -0.2580852 -0.24858566 -0.13579729
0.014430277 0.040963545 0.123180136 -0.43851158 -0.34925175 -0.13570105 -0.28139293 0.2685678

bias f4 [32]
00000000: 2aa6 173d ecb5 74bd dc0d 5cbb 3016 98bc
00000010: 3cc3 003c 4cda 00bc a1cb 273d 250b 173e
00000020: 1c3b 30ba ad5f 36bd 9826 debd f801 193c
00000030: 86c0 b0bc df9a 32bc 193b a0bc 8ddc cabc
00000040: c042 733c 5440 743b 6784 23bd 62e4 9ebc
00000050: a462 21bc 9711 53bd eea9 d0bc 009c 95bd
00000060: 2cb4 1abd 0479 ef3c 1259 703c 41ba 9abc
00000070: 986b 0abd 1820 b73a 5b5c 553c 7a28 63bd
0.0370237 -0.059743807 -0.0033577597 -0.018565267 0.0078590475 -0.007864546 0.04096568 0.14750345
-0.0006722675 -0.044524837 -0.10847205 0.009338848 -0.021576177 -0.010901182 -0.01955943 -0.02476337
0.014847457 0.0037269788 -0.03992119 -0.01939601 -0.009850178 -0.051530447 -0.025471654 -0.07305145
-0.03776948 0.02923251 0.0146696735 -0.01888764 -0.033794016 0.0013971357 0.013022508 -0.055458523

weight f4 [32, 32]
00000000: 91c3 9dbe 4c23 5bbe 1ed8 c43d f62f 943e
00000010: 856b 65be 7f26 afbe 5da6 abbd 256e 1a3d
00000020: 7275 863d 0de8 503e a12e 43be 3f22 77bd
00000030: 8c94 d43c b159 33bd 4b62 b6bd 3c1b 7f3d
00000040: 3159 a03d d21b 57be 839f ae3d f3f9 1dbd
00000050: 9701 09be 227f adbd 698d d3bd c44a 5dbe
00000060: 755a ae3e b1cb 143e a500 273e 1ed8 44be
00000070: 1a3b b53d f4ad 2e3d 07c3 15bb 1092 d13e
00000080: 9f51 6fbe ac18 d3bc 6acb 5e3e abef 0b3e
00000090: 9971 a8bc 5fea f9bd b1ad e0bc 3d18 2c3e
000000a0: c7f9 7f3e d687 0bbe 309d 743e ca0e 723e
000000b0: 5c6a 8bbe d7df 86be 97f0 c43d ea96 e2bd
000000c0: 3d34 993d fd8c 04bd dc0b 74be 58aa bd3d
000000d0: 9f4f 36be b376 6fbd da3a 293e 23e8 983d
000000e0: d0ab ca3e 934d ff3e d38c c83e 0a41 a8bd
000000f0: 2986 22be f252 423e f855 1cbe 668b 67bd
00000100: 4c1f 913d 9693 953b 2932 993e 71b5 09be
00000110: 3e26 b63e 38d6 3abe 0b2f 34be e315 eb3d
00000120: e60b 99bc 4469 51be 28df 5fbe 6c5b 86be
00000130: c572 f63d 00fb 92bd 98bf 243d 8989 7b3e
00000140: bb67 d3bd e0af ec3d 08e4 01be 2a46 ebbe
00000150: 97bc a83e d808 c73c 868b 063e ccf9 c63b
00000160: 5a03 a9be b5ae d8be 83e8 8ebb be54 82bd
00000170: 2e49 3e3c 8e9d 533d 18cd d3bd c1e5 aa3d
00000180: 2981 9bbe f199 09be 2706 c3bd 3974 9c3d
00000190: 03c5 3d3e 869e 813d f5ee f03d 32ad 293e
000001a0: 1b3f 99be 9f22 59be b3af 58be d030 48be
000001b0: 4e47 223e 57e4 8cbe 19a9 803d 68f2 063e
000001c0: 34df cb3c 60ba 48be 640e f1be 7fbb 563e
000001d0: 5981 6e3d 4efb dabd dbf3 f33b 19b9 d4bc
000001e0: f62d 44be 1d34 05be 11e9 5cbd 010c 6f3e
000001f0: c481 88be 2fcd 203e ffd3 043e 64ba 44bd
00000200: 1e91 c03d 65ce 3abe 963f 44be 7e77 38be
00000210: c727 66be 1c2f e63c 1b57 dfbe d106 303d
00000220: 4eed 713d 028d 843e c6f2 e33d 500b fbbd
00000230: 8088 e8bb 14c1 47be ab52 5dbd 2b5e dfbd
00000240: 6195 56be fdff 61bd 75fc f13d 8063 653e
00000250: a316 27be c7dd 3f3e a782 613d a91c 843d
00000260: a4ef 85bc 62d7 73be ca29 38bd a583 a33e
00000270: ffbc 19bd a413 923d 3a3c 903d 632d 00be
00000280: 6314 b7bd c9ed 823e 37e9 913e b369 4f3e
00000290: 9390 d5bd 18c8 383e e19a 53be 3585 a73d
000002a0: 737c be3c 3c14 87be 82ee 933c d9f4 8abd
000002b0: 3d6a 7b3e a153 0dbe 914f 1d3e 7d53 fdbd
000002c0: fb99 30be a98d 3dbd e962 6c3d 364e 02be
000002d0: c251 b9bd c26e 3c3e 0307 ee3d 7673 93bd
000002e0: 76ff 3dbe e968 96bd c2c7 48be da41 ad3c
000002f0: 2a0c 253e f477 503e 95d6 ef3d 8f45 263d
00000300: 54e8 12be 9f08 1c3d f605 f6bd b7f7 94bc
00000310: 196c 3bbc 47c6 4abe ceca 553d 5151 23bc
00000320: 19e0 29be 5557 90be bd4d c1bc 1596 45bd
00000330: d201 8c3e ed69 0ebe 6191 263e aaaa 1dbe
00000340: 21bf 9ebd 7654 4f3d b92e 51be 97c5 f0bd
00000350: 7e2f 8b3e deea 1f3d e439 9dbe 071b fb3d
00000360: 2684 733c 41f5 0d3e 3e57 803e 8f73 01bd
00000370: 3147 88be b5c9 98be 0faa b13d d1a6 0e3e
00000380: 920d 583d 90e5 cdbd 208d 1a3e 49c2 883d
00000390: ab05 483e 9049 483e 3d6b 3cbe f821 d6bd
000003a0: 5139 963d aa9b a4bd e89c 88bc 7b81 81bd
000003b0: db32 c6bd a678 df3d 46b3 12bc 0941 80be
000003c0: 06e3 0fbd eb2f 9c3b 2d86 8a3e 761d fabe
000003d0: 23ff 123d 72df 62bc bac6 293e 6a94 043d
000003e0: c9c3 973d a45f c5bc b7b2 54be fc1b 9a3d
000003f0: d292 da3d 6b63 01be 6e73 27bd f561 95bd
-0.30813268 -0.21400183 0.096115336 0.2894284 -0.22404297 -0.34209058 -0.08381341 0.0377027
0.0656537 0.2040102 -0.19060756 -0.060335394 0.025949739 -0.04378671 -0.08905467 0.062281832
0.07829512 -0.21006706 0.08526518 -0.03856845 -0.13379513 -0.08471514 -0.10329706 -0.21610552
0.34053388 0.14530827 0.1630884 -0.19223067 0.08849163 0.042646363 -0.002285184 0.4093175
-0.2337098 -0.0257686 0.21757284 0.13665645 -0.02056198 -0.12202906 -0.027426573 0.16806121
0.24997626 -0.13626036 0.23888087 0.23638454 -0.27229583 -0.2634265 0.09616201 -0.11063941
0.07480667 -0.03236102 -0.23832649 0.09261006 -0.1780381 -0.05846281 0.16526356 0.074661516
0.39584208 0.49863872 0.3916994 -0.0821553 -0.1587149 0.18976954 -0.1526717 -0.056529425
0.070860475 0.0045647128 0.29921082 -0.1344812 0.3557605 -0.1824578 -0.1759607 0.11478784
-0.018682431 -0.20450312 -0.21862471 -0.26241624 0.12033609 -0.07176781 0.04022178 0.24564184
-0.103225194 0.11556983 -0.12684643 -0.45951968 0.32956383 0.02429621 0.13139161 0.0060722586
-0.3301037 -0.4232079 -0.0043612137 -0.063638195 0.011614127 0.051663928 -0.10341853 0.08344603
-0.3037198 -0.1343763 -0.09522658 0.07639355 0.18532185 0.06329064 0.117643274 0.16569975
-0.29930958 -0.21204613 -0.21160774 -0.1954987 0.15847513 -0.2751796 0.06282253 0.13178408
0.024886705 -0.19602346 -0.47081292 0.20969962 0.058228824 -0.10692464 0.0074448413 -0.025967168
-0.19158158 -0.13008161 -0.053933207 0.23344423 -0.26661503 0.15703271 0.12971495 -0.04802932
0.09402679 -0.18242796 -0.19164881 -0.18014333 -0.22476111 0.028098635 -0.43621144 0.04297525
0.059064202 0.2588883 0.1113029 -0.12258017 -0.00709635 -0.19507247 -0.054033916 -0.10906633
-0.20955421 -0.05517577 0.118157305 0.22401237 -0.16317229 0.18736945 0.05505624 0.06450779
-0.016349621 -0.23812631 -0.04496173 0.31936374 -0.037533756 0.071326524 0.07042737 -0.12517314
-0.08939435 0.2557204 0.2849824 0.20255165 -0.10427966 0.1804508 -0.2066455 0.08179704
0.023252701 -0.26382625 0.018058065 -0.06784982 0.24552245 -0.13801433 0.15362383 -0.1236944
-0.17246239 -0.046277676 0.057711516 -0.12725148 -0.09048797 0.18401626 0.11622431 -0.07199757
-0.18554482 -0.07344229 -0.19607452 0.021149565 0.16117921 0.20358258 0.1171085 0.04059368
-0.14346439 0.03809416 -0.12012856 -0.018184526 -0.011439347 -0.198022 0.052195363 -0.009968118
-0.16589393 -0.2819163 -0.023596639 -0.048238833 0.2734514 -0.13907595 0.16266395 -0.15397134
-0.07751299 0.050617658 -0.2042798 -0.11756437 0.2718467 0.039042346 -0.3070823 0.122610144
0.01486305 0.13863088 0.2506656 -0.031604346 -0.26616815 -0.2984139 0.08675014 0.13930823
0.052747317 -0.10053551 0.15092897 0.06677682 0.19533412 0.19559312 -0.18400283 -0.10455698
0.07335151 -0.08037503 -0.016676381 -0.063235246 -0.09677669 0.10911684 -0.008953875 -0.25049618
-0.035128616 0.0047664545 0.27055493 -0.48850602 0.03588785 -0.013847219 0.16579714 0.0323681
0.0741039 -0.024093457 -0.207713 0.07524869 0.10672535 -0.12635581 -0.040881567 -0.072940744

bias f4 [32]
00000000: 0ba1 e23d d9c3 12be abaf 9abe ec9e d1ba
00000010: 497b e4bc 4ced 84bd 63c4 7c3c ad36 d83c
00000020: e1dc 40bc 9271 413c c2d2 a03d 635a b7bc
00000030: 29a5 9d3d d2ab 81bd 61c6 9abb 38a5 393d
00000040: 197b 92b9 15f4 91bc c786 893d 1e9a 453c
00000050: da5d 8fbb 9d70 20bc a187 9cbc 7410 b6bc
00000060: b4a0 18bd c1fd ac3c 4421 92bc 28da fdbb
00000070: 58d6 153c 4898 dd3b 20a3 75bb 24c3 84bc
0.11065873 -0.14332522 -0.3021215 -0.0015992797 -0.027890818 -0.06490573 0.015427682 0.026393259
-0.011771412 0.011806862 0.07852699 -0.022381967 0.076975174 -0.063316 -0.0047233556 0.04532358
-0.00027939005 -0.017816583 0.0671516 0.01206067 -0.0043752016 -0.009792474 -0.019107642 -0.022224642
-0.037262633 0.021117093 -0.017838128 -0.0077469535 0.009145342 0.006762538 -0.0037481263 -0.016206332

weight f4 [1, 32]
00000000: daa5 cdbb 67ab da3d 1255 c33b bdd9 55be
00000010: 0af6 1fbe 6127 763e b86f 733e ae74 09bc
00000020: 3f04 09be 822a 8b3e 5f6e 363d 5dac 833c
00000030: 0d6a a33e 7418 a4be 104d 1fbe 5b77 69be
00000040: 9ca1 25be 0180 ac3d 12b0 05bd e222 02bf
00000050: 2df6 0ebe b5ab 793e 0a12 f93d 8920 2cbf
00000060: 17ff d6bc 3af4 d2be 76c8 60be 9a85 83be
00000070: 2549 adbe 1574 dfbe e463 12bd c4a8 4abd
-0.0062758746 0.10677224 0.005961069 -0.20883842 -0.156212 0.2403846 0.23773086 -0.008389635
-0.13380526 0.27180868 0.04453885 0.0160734 0.31916848 -0.32049906 -0.15556741 -0.22799437
-0.1617493 0.08422852 -0.032638617 -0.50834477 -0.13961096 0.24381907 0.12161644 -0.67237145
-0.026244683 -0.41201955 -0.2195147 -0.25687867 -0.33844867 -0.4364325 -0.035739794 -0.049477354
